mlruns/786437617335392218/3bc9ca4c3bdb4767b53fe6d4e95274d3/artifacts/weights/lstm/lstm_autoencoder.pt (torch, 201633 bytes, 12 tensors)

encoder.weight_ih_l0 f4 [256, 16]
0	0xbbc7c78b	-0.0060967854
1	0x3ce335d6	0.027735632
2	0x3d9f6a58	0.07783955
3	0x3dffb2bc	0.12485263
4	0xbd1663d3	-0.036716294
5	0x0085b4b4	1.2278945e-38
6	0xbd0bef90	-0.03416401
7	0xbd839203	-0.06424334
8	0xbce0d7e1	-0.02744669
9	0xbc5cefcd	-0.013484907
10	0x3ccc4667	0.024935914
11	0x3d8adf63	0.06780889
12	0xbdf24b82	-0.11830808
13	0x3d8c212c	0.068422645
14	0xbe152b8c	-0.14567393
15	0xbd4187b1	-0.047248546
16	0x3deae1b6	0.11468832
17	0xbda1b056	-0.078949615
18	0xbdd50c20	-0.10402703
19	0x3ce1da8e	0.027570035
20	0x3dae9cdd	0.08526013
21	0x8070aa14	-1.0346588e-38
22	0xbe29fd82	-0.16600612
23	0x3d0fb752	0.035086937
24	0x3dcbd248	0.09952217
25	0xbcd4534a	-0.025918622
26	0xbd3977dc	-0.045280322
27	0x3cfec19b	0.031098178
28	0xbdb1232b	-0.08649286
29	0x3dbb5b62	0.09148289
30	0x3d5981f6	0.053102456
31	0x3e07827e	0.13233373
32	0x3d86a20b	0.06573876
33	0x3e03c572	0.12868288
34	0xbc4bd202	-0.0124402065
35	0xbe12c679	-0.14333524
36	0xbd11d46e	-0.03560298
37	0x80121096	-1.658989e-39
38	0x3c2b1e1a	0.0104441885
39	0xbbcf24dc	-0.0063215327
40	0xbd4d5701	-0.0501318
41	0x3e1c147a	0.15242186
42	0x3dd1a94c	0.10237369
43	0xbdd920f6	-0.1060199
44	0xbdbba408	-0.09162146
45	0x3bb4498b	0.005501931
46	0x3e5fadff	0.21843718
47	0x3e0ee93c	0.1395616
48	0x3d09b8e4	0.03362359
49	0x3cbf8641	0.023379447
50	0xbe32d0bb	-0.17462437
51	0xbdb78291	-0.089604504
52	0x3cee1275	0.029061535
53	0x81919867	-5.3483274e-38
54	0xbd008b2a	-0.031382717
55	0xbd93a56d	-0.07209287
56	0xbe39e1bf	-0.18152522
57	0x3d496264	0.0491661
58	0x3d756480	0.059910297
59	0xbdfdd246	-0.12393622
60	0xbd9e0e7a	-0.07717605
61	0xbdd2117a	-0.1025724
62	0x3b86d5e8	0.004114855
63	0x3d87f2ca	0.06638105
64	0xbd725729	-0.059165154
65	0x3c2f05d0	0.010682538
66	0xbc8b8902	-0.017033104
67	0xbca162b7	-0.019700391
68	0xbd84ddc0	-0.06487608
69	0x818866cc	-5.0106016e-38
70	0xbd290d5e	-0.041272514
71	0xbe077a1d	-0.13230176
72	0x3db8f875	0.090317644
73	0x3dd65003	0.1046448
74	0x3dfa4e2f	0.122219436
75	0xbd6a4f32	-0.057204433
76	0x3c7b147e	0.01532471
77	0xbe06eae7	-0.13175546
78	0x3d2d2fea	0.042282023
79	0x3e010c45	0.12602337
80	0xbdcb27ac	-0.09919676
81	0x3d014f53	0.03156979
82	0x3df87c84	0.121331245
83	0x3e31f56f	0.17378782
84	0x3e3b9d0d	0.18321629
85	0x00ec36b8	2.1692806e-38
86	0xbbdfcd6a	-0.006829907
87	0x3cc8a492	0.024492536
88	0x3e3cabc6	0.18424901
89	0xbcd50547	-0.026003493
90	0xbca54663	-0.020175165
91	0xbd340d29	-0.043957863
92	0xbe194912	-0.1496928
93	0xbe220e03	-0.15825658
94	0xbceebeb7	-0.029143674
95	0xbd42b6bf	-0.04753756
96	0x3dd5c4df	0.10437941
97	0x3b07d730	0.0020727627
98	0x3dc8f2cb	0.09811934
99	0x3dcbf876	0.099594995
100	0x3de4d6bf	0.11173772
101	0x00587b6c	8.125799e-39
102	0x3d7ce3c0	0.061740637
103	0xbbf47365	-0.007460045
104	0x3cae7c8b	0.021299621
105	0xbd83bb7c	-0.06432244
106	0x3b00ccef	0.00196534
107	0xbcbdfc9a	-0.023191739
108	0x3c93cceb	0.018042048
109	0xbe23d9ce	-0.16001055
110	0x3e0471b0	0.12933993
111	0x3d94b2c0	0.07260656
112	0x3e02d110	0.12775064
113	0xbcd3048f	-0.02575901
114	0x3dadde90	0.08489716
115	0x3c22180e	0.00989343
116	0x3d224252	0.03961403
117	0x00345fe4	4.809845e-39
118	0xbd5e7c77	-0.054317918
119	0x3c5c358a	0.013440499
120	0x3d328d33	0.04359169
121	0x3d71c0bc	0.059021696
122	0x3dfa572f	0.1222366
123	0x3d8aa996	0.06770627
124	0x3c63ac22	0.01389602
125	0xbd450134	-0.04809685
126	0x3cccbec3	0.024993306
127	0xbd01e826	-0.031715535
128	0x3dfd06ef	0.12354838
129	0x3d7bccd6	0.061474644
130	0x3ddc6854	0.107620865
131	0x3de1da25	0.11027936
132	0x3e433ffa	0.19067374
133	0x80d41cc4	-1.9479444e-38
134	0x3daa9c7c	0.08330628
135	0x3d06e0c3	0.032929193
136	0x3d8819de	0.06645559
137	0xbc2dee7c	-0.010615941
138	0xbd1c73bb	-0.038196307
139	0x3d8fc8cb	0.0702072
140	0xbdc95fbb	-0.09832712
141	0x3e70f82d	0.23532172
142	0x3d24f00a	0.04026798
143	0xbd68de12	-0.056852408
144	0x3d9ab4be	0.07554005
145	0x3babf137	0.005247261
146	0x3db6c5dc	0.089244574
147	0x3daae486	0.08344369
148	0xbd2802e3	-0.041018378
149	0x80380b5c	-5.146863e-39
150	0xbd22c43f	-0.039737936
151	0xbd0e05f2	-0.03467364
152	0xbd8e7d12	-0.06957449
153	0xbd14c5bf	-0.036321398
154	0xbb132f9d	-0.00224588
155	0x3d366278	0.0445275
156	0x3cc2b2c6	0.023766886
157	0x3d230637	0.03980085
158	0xbe751083	-0.2393208
159	0xbd85d8a5	-0.06535462
160	0xbc8dab64	-0.01729364
161	0x3c4d67d8	0.012536965
162	0xbddd3d57	-0.10802715
163	0xbd16c3d8	-0.036807865
164	0xbd378006	-0.044799827
165	0x017f39ed	4.6877663e-38
166	0xbddbb214	-0.10727325
167	0xbdccbd84	-0.09997085
168	0xbcfaae2e	-0.030600633
169	0xbe0993ef	-0.13435338
170	0x3de2abee	0.11067949
171	0xbd8d84ac	-0.06910071
172	0x3d29f32e	0.04149168
173	0xbdc78ac1	-0.09743262
174	0x3db8a51d	0.09015868
175	0x3ddd111c	0.10794279
176	0x3d403237	0.04692289
177	0xbe0432c9	-0.12909998
178	0xbda7db19	-0.081960864
179	0xbd6b2bfb	-0.05741499
180	0x3e09715a	0.13422146
181	0x017b7d65	4.6191385e-38
182	0xbda2847c	-0.07935426
183	0xbdcd68c4	-0.10029748
184	0xbcc7c9a3	-0.02438814
185	0x3d3216fd	0.043478955
186	0x3dc4c19f	0.09607243
187	0x3e0cd4d0	0.13753057
188	0xbd7f5f18	-0.062346548
189	0x3d889c4e	0.06670438
190	0xbde8a685	-0.11359886
191	0x3e097b5e	0.13425967
192	0x3e1c6f19	0.15276755
193	0xbe4cabf9	-0.19987477
194	0xbe43169f	-0.19051598
195	0x3d706791	0.05869252
196	0x3e3ed6d9	0.18636645
197	0x819987a6	-5.639797e-38
198	0x3e4aa03e	0.1978769
199	0x3b28fb1d	0.002578444
200	0xbe78ad82	-0.24284938
201	0xbe526a4e	-0.20548365
202	0x3af3a87f	0.0018589644
203	0xbdcbbb3d	-0.09947822
204	0x3d24d576	0.040242635
205	0x3d167801	0.03673554
206	0x3cd6d03c	0.02622234
207	0x3b429c9a	0.0029695393
208	0x3dae0934	0.08497849
209	0xbd524846	-0.051338457
210	0x3cdc58d4	0.026897825
211	0xbca78e15	-0.020453492
212	0xbc184d16	-0.0092957225
213	0x81a7a81d	-6.158734e-38
214	0xbd8b0cdf	-0.06789564
215	0xbd09de20	-0.0336591
216	0xbd9c6b6a	-0.07637675
217	0xbd93252c	-0.07184824
218	0x3dd26f39	0.1027512
219	0xbe36ebcd	-0.17863388
220	0x3ce00b96	0.027349275
221	0xbe370c01	-0.17875673
222	0xbcff2136	-0.031143766
223	0x3de3209f	0.11090206
224	0x3dbc9ea2	0.09209944
225	0xbdbf22ee	-0.09332834
226	0x3da7bbaa	0.08190091
227	0xbca04802	-0.019565586
228	0x3da45607	0.08024221
229	0x0196cf62	5.539888e-38
230	0xbd224593	-0.039617132
231	0x3cc3badc	0.023892812
232	0xbd3e4312	-0.046450682
233	0x3da5e7aa	0.08100827
234	0xbd16c1b1	-0.036805812
235	0x3daccf72	0.084380046
236	0x3d8aab6f	0.067709796
237	0x3c86f89d	0.01647597
238	0xbc26ce1e	-0.010180978
239	0xbde12300	-0.10993004
240	0x3ddea701	0.10871697
241	0x3d30c6d7	0.04315838
242	0x3da8195e	0.082079634
243	0xbdf1dbf8	-0.11809534
244	0xbdd7549e	-0.10514186
245	0x8148d0a7	-3.68839e-38
246	0xbe0ec204	-0.13941199
247	0xbe063c4f	-0.13108943
248	0x3c8eb938	0.017422304
249	0xbe136b00	-0.14396286
250	0xbd5aef7f	-0.053451058
251	0x3debb075	0.11508266
252	0x3d542049	0.051788602
253	0x3e51ed99	0.20500793
254	0xbcc5cbac	-0.02414497
255	0xbd8f092b	-0.069841705

encoder.weight_hh_l0 f4 [256, 64]
0	0xbdf3a8ba	-0.118974164
1	0x3e11f5c9	0.14253916
2	0x3d9fbd39	0.07799763
3	0xbdcbe619	-0.09955997
4	0xbe0d6f8e	-0.13812086
5	0x3c5037fb	0.012708659
6	0xbd3ea4bc	-0.04654382
7	0x3e1b8ec4	0.1519118
8	0xbd9d228f	-0.07672607
9	0xbe10b4b4	-0.14131433
10	0xbcc958e6	-0.024578523
11	0x3d87f822	0.066391245
12	0xbe1e3a02	-0.15451816
13	0xbe035803	-0.12826543
14	0x3d843d53	0.06457009
15	0x3cb299f5	0.021801928
16	0x3ccb14d3	0.024790203
17	0x3d2e2d4e	0.042523675
18	0xbd378a8e	-0.04480987
19	0xbda68522	-0.08130862
20	0x3c4867ba	0.012231762
21	0xbd15174d	-0.036399174
22	0xbe02a0e2	-0.12756684
23	0xbd8fee08	-0.07027823
24	0x3ca881a1	0.020569624
25	0xbdfecc6b	-0.124413334
26	0xbcce6df2	-0.02519891
27	0x3da15e70	0.07879341
28	0x3e08efdb	0.13372748
29	0x3cbade38	0.02281104
30	0x3d937606	0.072002456
31	0xba763622	-0.00093922217
32	0x3dfdb3f1	0.12387837
33	0xbd1e8b0c	-0.038706824
34	0x3dde2328	0.10846549
35	0x3d53b95c	0.051690444
36	0xbd655018	-0.055984586
37	0x3d563aa2	0.05230201
38	0xbd85b6de	-0.0652902
39	0x3e0855d6	0.13313994
40	0x3c5e8325	0.013581072
41	0xbd806c18	-0.06270617
42	0x3e261818	0.16220129
43	0xbcd63075	-0.026146153
44	0xbddae9ca	-0.10689123
45	0x3b112365	0.002214634
46	0x3dcecf1f	0.10098099
47	0xbdc1f3fc	-0.094703645
48	0x3d506352	0.05087597
49	0xbdba793e	-0.09105156
50	0xbe008c86	-0.12553605
51	0x3d29be12	0.04144103
52	0xbdf6559a	-0.12028046
53	0xbbd5efaa	-0.0065288143
54	0x3d1eada0	0.0387398
55	0xbe06bc16	-0.13157687
56	0xbd282dd1	-0.04105932
57	0x3e149c80	0.14512825
58	0xbdcb4dc1	-0.0992694
59	0xba9dde27	-0.0012044356
60	0x3e0eab3c	0.13932508
61	0xbcf3bbdf	-0.02975267
62	0x3e13ed8c	0.14446086
63	0x3e095395	0.1341079
64	0xbd88c4e6	-0.066781804
65	0x3de981bb	0.11401697
66	0x3d0daa3e	0.034586184
67	0xbb41b443	-0.0029556907
68	0xbd8e7a33	-0.069569014
69	0xbd0bf43c	-0.034168467
70	0x3ca5b373	0.02022717
71	0xbb1f8b04	-0.0024344334
72	0xbe1ba916	-0.1520122
73	0xbd34893a	-0.044076182
74	0x3d9ef7cc	0.07762107
75	0x3b8f8af2	0.0043805772
76	0xbe0b7451	-0.1361859
77	0x3d9169e5	0.07100276
78	0x3d54e194	0.05197294
79	0x3d863624	0.06553295
80	0x3d0f6173	0.035005044
81	0x3d949756	0.072554275
82	0x3c343c59	0.011000716
83	0xbdc00d12	-0.09377493
84	0xbe09c4a2	-0.13453916
85	0xbe103e14	-0.14086181
86	0xbd132693	-0.03592546
87	0x3d100530	0.035161197
88	0xbc9de581	-0.019274475
89	0xbdab24d6	-0.08356635
90	0x3d7b57bd	0.06136297
91	0xbdc4a0e4	-0.09601
92	0x3cb9ef2e	0.022697058
93	0x3d905c74	0.07048884
94	0x3e0f343a	0.13984767
95	0x3d0f4c77	0.034985032
96	0x3df03bb5	0.11730138
97	0x3d9c3b13	0.07628455
98	0x3c8c08a3	0.017093962
99	0xbd08d7f5	-0.033409078
100	0xbd5d64d9	-0.054051254
101	0x3c4b485e	0.01240739
102	0x3d24a639	0.040197585
103	0xbcb23a08	-0.021756187
104	0xba77a706	-0.00094471907
105	0xbd3733dc	-0.04472719
106	0x3e10ae78	0.14129055
107	0x3da51186	0.08059983
108	0x3dc6cf05	0.097074546
109	0x3d687ac4	0.056757703
110	0x3df7a6b6	0.120923445
111	0x3e160c83	0.1465321
112	0x3d5cf32b	0.05394284
113	0xbe0856c0	-0.13314342
114	0x3d96c949	0.07362611
115	0xbd4a1b9c	-0.049342737
116	0x3d2c25a8	0.0420281
117	0x3c929d8a	0.017897386
118	0x3ce37dec	0.027770005
119	0x3c0f2c5a	0.008738602
120	0xbca8a825	-0.02058799
121	0xbc1a5cc8	-0.009421535
122	0x3dd9197a	0.106005624
123	0xbe036bca	-0.12834087
124	0x3cdc8707	0.026919855
125	0x3d047fc7	0.03234842
126	0x3e1dcb1b	0.1540951
127	0x3d0a1ba6	0.033717774
128	0x3deb5dc3	0.11492493
129	0xbcf7a2df	-0.03022903
130	0xbdc726a6	-0.097241685
131	0x3c86e4f0	0.016466588
132	0xbe089684	-0.13338667
133	0x3d363b70	0.044490278
134	0x3e28ff18	0.1650356
135	0x3dba51fe	0.0909767
136	0x3e01076f	0.12600492
137	0x3d3fb67e	0.046804897
138	0x3dcea2c5	0.100896396
139	0x3d7460de	0.059662692
140	0xbd8f43f0	-0.0699538
141	0xbbeda6fe	-0.007252573
142	0xbaa0900b	-0.0012249959
143	0x3c535908	0.012899645
144	0x3d96ca20	0.07362771
145	0xbc99179c	-0.018688016
146	0xbe0de243	-0.13855843
147	0x3df7dc0e	0.12102519
148	0x3d828ae0	0.063741446
149	0xbd9a5177	-0.075350694
150	0xbd33cf33	-0.043898772
151	0xbe28548c	-0.16438502
152	0x3dba54f8	0.09098238
153	0x3de7c299	0.113164134
154	0x3db9789b	0.09056207
155	0xbd93b3ce	-0.072120294
156	0x3de9bd28	0.11413032
157	0xbaf6ebae	-0.0018838549
158	0x3d44d283	0.048052322
159	0x3da7c5b7	0.08192008
160	0x3ddd67cd	0.10810814
161	0x3da17d7c	0.07885262
162	0x3cb15373	0.021646237
163	0x3db4f957	0.0883662
164	0xbdd76a6c	-0.10518345
165	0x3d895f39	0.067076154
166	0x3c82f267	0.015984727
167	0xbd61d723	-0.05513681
168	0xbe063fbe	-0.13110253
169	0xbdaaddb7	-0.0834307
170	0x3d7986f5	0.06091972
171	0x3da6c6cb	0.081433855
172	0xbb725869	-0.0036978966
173	0x3d660191	0.056153838
174	0xbd2ebcb9	-0.04266045
175	0xbca6c939	-0.020359622
176	0x3c3b360f	0.011426463
177	0x3dd02037	0.101623945
178	0xbdbaeaf9	-0.09126849
179	0xbdb62558	-0.088938415
180	0x3d5fd42b	0.0546457
181	0x3dfd14ce	0.12357484
182	0xbd03278f	-0.032020148
183	0xbd8f0e1a	-0.069851115
184	0xbd34833a	-0.04407046
185	0x3ca92a3a	0.020650018
186	0xbcb52345	-0.022111544
187	0x3d78e45e	0.060764663
188	0xbd9f7be9	-0.07787306
189	0x3d9ebe08	0.07751089
190	0x3ceec0ac	0.029144607
191	0x3c8ed112	0.017433677
192	0x3d5c6a23	0.053812157
193	0xbe198733	-0.1499298
194	0xbd06508b	-0.032791656
195	0x3c0cbca5	0.008589898
196	0x3db7e164	0.08978537
197	0x3e16131b	0.14655726
198	0xbdba950b	-0.09110459
199	0xbca1d470	-0.019754618
200	0x3d587318	0.052844137
201	0xbd814294	-0.06311527
202	0x3d969965	0.073534764
203	0xbdef4d67	-0.11684685
204	0xbd7f158d	-0.06227641
205	0x3d6e5568	0.05818692
206	0xbbedeebb	-0.007261125
207	0x3cd577e8	0.026058152
208	0xbb665777	-0.0035147348
209	0x3c741850	0.014898375
210	0x3da8ef11	0.08248723
211	0x3d886753	0.066603325
212	0xbe0233c8	-0.12715065
213	0xbd045079	-0.032303307
214	0xbd6eddb7	-0.058316913
215	0x3e2bb5e0	0.16768599
216	0x3d58b22e	0.0529043
217	0x3dcc6732	0.099806204
218	0xbe2e2105	-0.17004783
219	0x3e04b603	0.12960057
220	0xbd7bdaba	-0.06148789
221	0x3e442fbc	0.19158834
222	0x3ce6262c	0.028094374
223	0x3cd7630e	0.02629235
224	0x3cad96dd	0.021190101
225	0x3e0eb2b9	0.13935365
226	0xbde6d059	-0.11270208
227	0xbc9cf471	-0.019159527
228	0x3dc49e26	0.09600477
229	0xbe23fade	-0.16013667
230	0xbc9e23ab	-0.019304117
231	0xbd0510af	-0.032486614
232	0x3cad8c60	0.0211851
233	0x3cc77614	0.024348296
234	0x3e6578a7	0.22409306
235	0xbb30436c	-0.0026895655
236	0xbe75a110	-0.23987222
237	0xbde8021b	-0.113285266
238	0xbdbaeb7a	-0.09126945
239	0x3e380dcf	0.17974018
240	0x3e3105fb	0.17287438
241	0xbdeb541f	-0.11490654
242	0xbd1ad886	-0.03780415
243	0xbddb1970	-0.10698211
244	0xbc474f55	-0.01216491
245	0xbda5bcfd	-0.08092687
246	0x3d078a23	0.03309072
247	0x3c95792b	0.018246254
248	0x3c93617b	0.017990818
249	0xbd3c8a27	-0.04603019
250	0xbdc5898c	-0.096453756
251	0x3a0bee7c	0.0005337966
252	0xbde4f4b1	-0.11179484
253	0x3d80535e	0.06265901
254	0x3d05bb98	0.032649606
255	0xbcb7454d	-0.022371912

encoder.bias_ih_l0 f4 [256]
0	0xbdd7e2a1	-0.10541273
1	0x3d65a700	0.056067467
2	0x3c310f34	0.010806847
3	0xbd0eca41	-0.034860853
4	0xbd6b1d7d	-0.05740117
5	0xbe08a77d	-0.13345142
6	0x3c80ea3a	0.015736688
7	0xbd87a950	-0.06624091
8	0xbd5323f7	-0.05154797
9	0xbdc92b5a	-0.09822722
10	0x3d410f99	0.047134016
11	0xbdf80db1	-0.121119864
12	0xbc053a90	-0.008131638
13	0xbe07405e	-0.13208148
14	0xbdd77813	-0.10520949
15	0xbde1ba02	-0.11021806
16	0x3cd60a65	0.026128003
17	0x3c3d0a93	0.011538166
18	0xbcea1f10	-0.028579265
19	0x3a9f9f8a	0.0012178284
20	0x3c59f2b3	0.013302493
21	0xbc203f66	-0.00978074
22	0xbe04f273	-0.12983112
23	0xbd63f70a	-0.055655517
24	0xbd1ca3ff	-0.038242336
25	0x3d3d0236	0.046144687
26	0xba713567	-0.0009201378
27	0x3d5a875e	0.053351752
28	0xbd50957b	-0.050923806
29	0xbdcc9aa7	-0.09990435
30	0x3db375de	0.08762716
31	0xbd4dfbd9	-0.05028901
32	0x39ab29ba	0.0003264675
33	0x3dce24fe	0.100656494
34	0x3e169d21	0.14708377
35	0xbde24433	-0.11048164
36	0xbc8fb004	-0.017539985
37	0xbcdd1601	-0.026988031
38	0xbd65ab4b	-0.05607156
39	0xbdfeb1f9	-0.12436289
40	0xbd0746cb	-0.033026498
41	0xbde776ef	-0.11301982
42	0xbe34d4a1	-0.17659236
43	0x3dc63a8c	0.09679136
44	0x3d8545d2	0.06507458
45	0xbe06e155	-0.13171895
46	0xbc438a55	-0.011934836
47	0xbde62d3b	-0.11239096
48	0xbd19853b	-0.037480574
49	0x3d65cb7c	0.05610226
50	0xbe3fb815	-0.18722565
51	0x3c4be29d	0.012444166
52	0xbd80000f	-0.06250011
53	0xbd3b1541	-0.045674566
54	0x3c021eb8	0.007941894
55	0x3c96fb93	0.018430507
56	0xbe072b0f	-0.1320002
57	0xbd1a0917	-0.037606325
58	0x3b88ba01	0.004172564
59	0x3be8eafc	0.0071080904
60	0x3c761078	0.015018575
61	0xbd8e3fbb	-0.06945749
62	0xbd4bce5d	-0.04975735
63	0xbdb4dced	-0.08831201
64	0x3e3cea13	0.18448667
65	0x3e4fb5ca	0.20284191
66	0x3df23020	0.11825585
67	0x3ee2b9a3	0.44282255
68	0x3e85835f	0.2607679
69	0x3e1b49ea	0.15164915
70	0x3ed0e831	0.40802148
71	0x3dfb2c4a	0.12264307
72	0x3d5c85b2	0.05383844
73	0x3e5a6d15	0.21330674
74	0x3ed5dc00	0.4176941
75	0x3d0e7b2d	0.03478544
76	0x3ec3dbea	0.3825372
77	0x3dec83ff	0.11548614
78	0x3e0b351b	0.13594477
79	0x3e386009	0.18005385
80	0x3e62f1b5	0.22162516
81	0x3ebb04e9	0.36527184
82	0x3db0d00a	0.0863343
83	0x3e865a8c	0.26240957
84	0x3e5a49bb	0.21317188
85	0x3e9212d0	0.28529978
86	0x3e3932bb	0.18085758
87	0x3ec2bb07	0.38033316
88	0x3e5c9942	0.21542838
89	0x3dd28777	0.10279744
90	0x3e82648d	0.2546734
91	0x3e96b8f8	0.29437995
92	0x3ec39154	0.38196814
93	0x3e1dbab3	0.15403251
94	0x3ce4cd8c	0.027930044
95	0x3bede3ee	0.0072598374
96	0x3e0ce606	0.13759622
97	0x3e82d593	0.2555357
98	0x3e4e62da	0.20154896
99	0x3e089cd4	0.13341075
100	0x3e5ab0df	0.21356533
101	0x3e23ef76	0.16009316
102	0x3df08a1d	0.11745093
103	0x3e2956ef	0.16537069
104	0x3e57abf6	0.21061692
105	0x3e998a9a	0.29988557
106	0x3e476fba	0.19476214
107	0x3e7bb25c	0.24579757
108	0x3ecd01f9	0.40040568
109	0x3ea73ad6	0.32662076
110	0x3e0f6802	0.1400452
111	0x3e115cbd	0.14195533
112	0x3de74ddc	0.11294147
113	0x3e8bd099	0.27307585
114	0x3d7d8c32	0.06190128
115	0x3e8b2baa	0.2718175
116	0x3c95e3cb	0.018297097
117	0x3db52afb	0.088460885
118	0x3e66c8b9	0.22537507
119	0x3d91490c	0.07094011
120	0x3e6ada4b	0.22934835
121	0xbd2c3972	-0.04204697
122	0x3e5a9d0b	0.2134897
123	0x3e868294	0.26271498
124	0x3bdcb495	0.0067353942
125	0x3dee0d0c	0.11623582
126	0x3ea490b8	0.32141662
127	0x3de05c3a	0.10955091
128	0xbd54f3d8	-0.05199036
129	0xbd915f57	-0.07098263
130	0x3d21a9ce	0.03946858
131	0x3b6d11bc	0.00361739
132	0xbd46b725	-0.048514504
133	0x3bbf0955	0.00582997
134	0xbd502a72	-0.05082173
135	0x3cbc8576	0.023012858
136	0xbc0d4fee	-0.008625014
137	0xb96864d5	-0.00022162807
138	0xbe0f3ebf	-0.1398878
139	0x3dc0d3e8	0.09415418
140	0x3e1e4e5a	0.15459576
141	0xbcac9fd1	-0.0210723
142	0xbdea1a8a	-0.11430843
143	0x3df9290d	0.12166033
144	0x3dba83b4	0.09107152
145	0xbd62872d	-0.055304695
146	0x3d0224fe	0.03177356
147	0x3de1c29b	0.11023446
148	0xbdd9ef06	-0.10641293
149	0xbd4a4241	-0.04937959
150	0x3de1db6b	0.11028179
151	0x3d20887c	0.03919266
152	0x3e245d60	0.16051245
153	0x3d1fa72b	0.038977783
154	0xbdc54f05	-0.096342124
155	0xbe1f616b	-0.15564506
156	0xbd97d924	-0.07414463
157	0xbd3f641f	-0.046726342
158	0xbdb9fff9	-0.09082026
159	0xbdea8018	-0.11450213
160	0xbdde347b	-0.108498536
161	0x3d7f0683	0.06226207
162	0x3d185c74	0.037197545
163	0x3d97b416	0.074073955
164	0xbc516b21	-0.012781889
165	0x3bb3e64c	0.0054901
166	0xbd78cba9	-0.0607411
167	0xbdd03500	-0.10166359
168	0x3cb0f78a	0.02160241
169	0xbdf1d35c	-0.11807892
170	0xbd9d1c64	-0.07671431
171	0xbcf4625b	-0.029832056
172	0x3d95b670	0.07310188
173	0x3dc00eb1	0.09377802
174	0xbcb3ed42	-0.02196372
175	0x3d35a3dd	0.044345725
176	0xbdbe47eb	-0.09291061
177	0x3d000d5d	0.031262744
178	0xbc6cf6eb	-0.014463167
179	0x3d1aa0d5	0.037751038
180	0x3d814e72	0.063137904
181	0x3d821fea	0.063537434
182	0xbdfac050	-0.12243712
183	0x3dbf3c7f	0.093377106
184	0x3d53282f	0.051551994
185	0xbd44dc98	-0.048061937
186	0x3d474d5e	0.048657767
187	0xbdb35392	-0.08756174
188	0xbdcb3c8c	-0.09923658
189	0x3cb620aa	0.022232372
190	0xbcb28085	-0.021789799
191	0xbe042612	-0.12905148
192	0x3c6623fd	0.014046666
193	0xbd1ca946	-0.03824737
194	0xbd9df9fa	-0.07713695
195	0x3e21f870	0.15817428
196	0x3e3dbc91	0.18528964
197	0x3e2964ba	0.1654233
198	0x3e12bb9a	0.14329377
199	0xbc9c2175	-0.019058922
200	0x3d1454a3	0.03621353
201	0x3caf5147	0.02140106
202	0xbd2f170a	-0.04274658
203	0xbadf7fef	-0.0017051677
204	0x3e00b01b	0.12567179
205	0xbd61bc19	-0.055111025
206	0x3d8997d7	0.06718414
207	0xbd34414c	-0.044007584
208	0x3dd315dd	0.103069045
209	0x3da9aefc	0.08285329
210	0x3db8a8b2	0.09016551
211	0x3defc92c	0.11708292
212	0x3e48449e	0.19557425
213	0xbd87ae65	-0.0662506
214	0x3dbd22a7	0.09235125
215	0x3e17e6cc	0.14834136
216	0x3e1a93c9	0.15095438
217	0xbdd3bd86	-0.10338883
218	0x3e1cfd53	0.1533101
219	0x3cc99295	0.024606029
220	0x3e2d23b0	0.16908145
221	0x3d074c50	0.03303176
222	0xbd7bd587	-0.061482932
223	0xbb85ea40	-0.0040867627
224	0xbdcd59a9	-0.10026867
225	0x3daebbb5	0.08531896
226	0x3a1f362e	0.0006073442
227	0xbd1704db	-0.036869865
228	0xbdf0f943	-0.11766293
229	0xbcfcbe1c	-0.03085237
230	0x3daa5de2	0.08318688
231	0x3c43951a	0.011937404
232	0xbc9921e4	-0.018692918
233	0xbd7d7031	-0.061874572
234	0x3c9dfa9f	0.019284545
235	0x3ea8a697	0.32939598
236	0x3c60275e	0.013681261
237	0x3c949f21	0.018142285
238	0x3e48e74a	0.1961948
239	0x3d755593	0.059896063
240	0xbc9d0b1e	-0.01917034
241	0x3e2ebdc0	0.17064571
242	0x3d0f280f	0.034950312
243	0xbcb512db	-0.022103718
244	0x3c18a86f	0.009317501
245	0xbe1d5f5b	-0.15368406
246	0x3d14ec53	0.03635819
247	0x3cfee2fb	0.031114092
248	0xbcc3a5c6	-0.023882758
249	0x3ddc00a9	0.107423134
250	0x3c9c3b0a	0.01907112
251	0x3e38f649	0.180627
252	0xbbbfb43c	-0.005850343
253	0x3c03a59c	0.00803509
254	0xbd9a0de5	-0.075221814
255	0xbc29865c	-0.010346975

encoder.bias_hh_l0 f4 [256]
0	0x3cb43cfd	0.022001738
1	0x3d8d56bc	0.06901309
2	0x3d5c0973	0.05371995
3	0x3da68a4e	0.08131848
4	0x3dc45d37	0.09588092
5	0x3c9e224e	0.019303467
6	0xbcd5ba46	-0.026089799
7	0xbc89a363	-0.016801542
8	0x3df788a0	0.12086606
9	0xbdd3e21e	-0.10345863
10	0xbdc06878	-0.09394926
11	0xbe24aa5f	-0.16080616
12	0xbd785128	-0.06062427
13	0xbddc9f20	-0.10772538
14	0xbe042add	-0.12906976
15	0x3dcabc1d	0.09899161
16	0xbd587242	-0.05284334
17	0xbc845815	-0.016155282
18	0xbb8b49f5	-0.0042507597
19	0xbce1b099	-0.027550029
20	0x3dc4f393	0.096167706
21	0xbbdf9eff	-0.0068243737
22	0xbbfecd07	-0.007775906
23	0xbe112b8d	-0.1417677
24	0x3d2e82a0	0.042605042
25	0xbe0b3cdd	-0.13597436
26	0x3c91e040	0.017807126
27	0xbc86d42c	-0.016458593
28	0xbcc13840	-0.023586392
29	0xbdc0db01	-0.09416772
30	0x3d993fac	0.074828476
31	0xbdf26235	-0.11835138
32	0xbde57e27	-0.11205702
33	0x3dc06e14	0.09395996
34	0x3dd0c62e	0.1019405
35	0xbc82a461	-0.015947523
36	0xbd88141e	-0.06644462
37	0x3de4ca68	0.111714184
38	0xbda77471	-0.08176506
39	0x3db743fc	0.08948514
40	0xbd74a4ca	-0.059727468
41	0x3d46e645	0.048559446
42	0xbe3864e7	-0.18007241
43	0x3e6ea144	0.23303705
44	0xbe2fa484	-0.17152601
45	0xbdcfb4c8	-0.10141903
46	0x3e55c4f4	0.20875913
47	0xbdca9e45	-0.09893469
48	0xbd913edc	-0.070920676
49	0xbdf17ce4	-0.11791399
50	0xbe122ea7	-0.14275609
51	0x3de5aed0	0.112149835
52	0x3d9db084	0.07699683
53	0x3cfba38c	0.030717634
54	0x3e0e793f	0.13913439
55	0xbc7d2761	-0.015451283
56	0xbd8b22d8	-0.06793755
57	0x3cb50bac	0.022100292
58	0x3d3b8888	0.045784503
59	0xbd8a2276	-0.06744854
60	0xbe071f6b	-0.13195579
61	0x3d530071	0.051514093
62	0xbda904b9	-0.08252854
63	0x3d46b65d	0.04851376
64	0x3e307227	0.17231046
65	0x3d4190d7	0.04725727
66	0x3e88835e	0.26662725
67	0x3ee44d7f	0.44590375
68	0x3e84bf65	0.25927272
69	0x3da4cdc0	0.08047056
70	0x3e90fde4	0.28318703
71	0x3ddca641	0.10773898
72	0x3d3acc42	0.04560495
73	0x3ca44645	0.020053038
74	0x3e92eafa	0.28694898
75	0x3e3abfd7	0.18237244
76	0x3e9f0bd9	0.31063727
77	0xbcb6c41a	-0.022310305
78	0x3e7ac147	0.24487792
79	0x3d17afa7	0.03703275
80	0x3e8fc33e	0.28078645
81	0x3eb15834	0.34637606
82	0x3e678d8d	0.22612591
83	0x3e917899	0.2841232
84	0x3e94565e	0.28972143
85	0x3eb3ff6e	0.35155815
86	0x3dd43768	0.103621304
87	0x3e851f23	0.26000318
88	0x3e189ae9	0.14902844
89	0x3e454957	0.19266258
90	0x3ef5dbaf	0.48019168
91	0x3e9b744d	0.30362168
92	0x3e811e1b	0.2521828
93	0x3df8f658	0.12156361
94	0x3e3a7fd1	0.1821282
95	0xbb80e519	-0.0039335606
96	0x3e4dbc71	0.20091416
97	0x3df20fe2	0.11819436
98	0x3e7a8cd3	0.24467783
99	0x3e068a1a	0.13138619
100	0x3e2125c6	0.15737066
101	0x3e97eb56	0.29671735
102	0x3ea45185	0.32093444
103	0x3e00438d	0.12525769
104	0x3e6cc7ac	0.23123044
105	0x3e5a8e4c	0.21343344
106	0x3df8dbf3	0.12151327
107	0x3eb498b3	0.3527275
108	0x3e908e5c	0.28233612
109	0x3e78a70b	0.24282472
110	0x3e8f0c09	0.2793887
111	0x3e8b91a0	0.2725954
112	0x3e942066	0.28930968
113	0x3e94a875	0.29034773
114	0xbc4ac9d6	-0.012377223
115	0x3e5fd1e5	0.21857412
116	0x3da92e6c	0.082608074
117	0x3e34614b	0.1761524
118	0x3e89dfcf	0.26928565
119	0x3d7f175f	0.062278148
120	0x3e59cc41	0.21269323
121	0x3d9dff83	0.077147506
122	0x3e089c1b	0.133408
123	0x3e9be942	0.304514
124	0x3e3ea74d	0.18618508
125	0x3eaef862	0.34173876
126	0x3e52de75	0.20592673
127	0x3df4ef53	0.1195971
128	0xbd41c6f2	-0.04730887
129	0xbd17c144	-0.037049547
130	0xbd8526f2	-0.06501569
131	0xbdce9238	-0.10086483
132	0x3d4be805	0.049781818
133	0xbdb8eded	-0.09029756
134	0x3e1cec37	0.15324484
135	0xbd8ab7a1	-0.06773306
136	0x3da90a2e	0.08253895
137	0xbd50d6f8	-0.05098626
138	0x3ca6733a	0.020318616
139	0x3b4a2d52	0.0030849767
140	0x3e23f494	0.16011268
141	0x3d8d494d	0.06898747
142	0xbde39a31	-0.11113394
143	0x3e117343	0.14204125
144	0xbcea67c1	-0.028613927
145	0xbcba3918	-0.022732303
146	0xbd5147f4	-0.05109401
147	0x3d638d81	0.05555487
148	0x3c280c64	0.01025686
149	0xbd8ddcc1	-0.06926871
150	0x3d365be8	0.044521242
151	0xbd388279	-0.045046303
152	0x3de8beda	0.11364527
153	0x3de3da99	0.111256786
154	0xbc947077	-0.018120034
155	0x3cd865bc	0.026415698
156	0xbd8bf10c	-0.068330854
157	0xbdec21cd	-0.115298845
158	0xbe21aa8f	-0.15787719
159	0xbd23419a	-0.039857484
160	0x3dddf710	0.10838139
161	0x3d61dbdc	0.055141315
162	0xbd97b59b	-0.07407685
163	0x3e387969	0.18015064
164	0xbc47183d	-0.012151775
165	0x3dc72841	0.09724475
166	0xbd2d526d	-0.042314935
167	0x3d1fea3d	0.039041746
168	0xbdbb288f	-0.09138595
169	0x3d63202f	0.055450615
170	0xbc53baa8	-0.01292292
171	0xbdb2524c	-0.08707103
172	0x3dffc57f	0.12488841
173	0xbdae40d3	-0.08508458
174	0xbc8ad4e5	-0.01694722
175	0x3d972916	0.073808834
176	0xbda7b8fe	-0.08189581
177	0x3d9ea5a8	0.0774644
178	0x3d47bf5b	0.048766475
179	0x3de5fd60	0.11229968
180	0xbd487b4c	-0.04894571
181	0xbdb6d0fe	-0.08926581
182	0xbd8fc867	-0.070206456
183	0xbbf7d889	-0.007563655
184	0xbd52e411	-0.051487032
185	0xbd8af7ed	-0.06785569
186	0x3d6c05db	0.05762277
187	0x3d91ae9e	0.07113384
188	0x3d658889	0.056038413
189	0xbcb69ace	-0.022290614
190	0xbe0d6246	-0.1380702
191	0x3dab022c	0.083500236
192	0xbd1f9eb0	-0.038969696
193	0x3d8bf646	0.06834082
194	0x3c9e1432	0.01929674
195	0x3e68ebc7	0.22746192
196	0x3dc112e4	0.09427431
197	0x3d5b9d13	0.053616595
198	0x3d98098e	0.074236974
199	0x3cc5507c	0.02408623
200	0xbd0e3a9e	-0.03472387
201	0xbaec4289	-0.00180252
202	0xbccbc629	-0.024874764
203	0xbbbfb45b	-0.0058503575
204	0x3e80ee82	0.25181967
205	0xbe0c6b04	-0.13712698
206	0xbcf9ac64	-0.03047771
207	0xbc45705b	-0.012050713
208	0x3d18b921	0.037285928
209	0xbd3a8f51	-0.045546833
210	0x3d845fad	0.06463561
211	0x3b51c2bf	0.0032006947
212	0x3e4a912c	0.19781941
213	0x3e23648e	0.15956327
214	0x3d9985df	0.07496237
215	0x3d18682a	0.037208714
216	0x3cd0ad71	0.025473328
217	0xbd44f6bc	-0.048086867
218	0x3da600d4	0.08105627
219	0xbdcbf699	-0.09959144
220	0x3e42c41e	0.19020125
221	0x3cc5bc34	0.024137594
222	0xbcf6921e	-0.030098971
223	0xbc0e1e75	-0.008674254
224	0xbd9a0228	-0.075199425
225	0x3d7ca385	0.061679382
226	0xba743299	-0.0009315401
227	0xbb955924	-0.0045577455
228	0x3b0e3f9b	0.0021705392
229	0x3cef10bc	0.029182784
230	0x3c8d0e0f	0.017218618
231	0xbc0061b2	-0.007835792
232	0x3d16b38f	0.036792334
233	0xbc69c400	-0.014267921
234	0x3d40ac4e	0.047039323
235	0x3e4134d5	0.1886781
236	0xbd3cfefa	-0.046141602
237	0xbd0a7d71	-0.033811036
238	0x3e06acff	0.1315193
239	0xbd8b4f31	-0.06802214
240	0x3dea8cb3	0.114526175
241	0xbd70612a	-0.058686413
242	0xbe26dd75	-0.16295417
243	0x3dae8178	0.08520788
244	0x3cbeadbc	0.023276202
245	0xbdd4e5dc	-0.10395405
246	0x3df791cc	0.120883554
247	0xbb491535	-0.0030682806
248	0xbd8caeca	-0.06869276
249	0xbd833d8e	-0.06408225
250	0x3d868b22	0.06569506
251	0x3c804748	0.01565899
252	0x3d37f00c	0.04490666
253	0x3dea78c1	0.11448813
254	0xbce695db	-0.028147629
255	0x3a1543d4	0.0005694006

to_latent.weight f4 [32, 64]
0	0x3cfe6213	0.031052625
1	0xbea4bc74	-0.32175028
2	0x3df83d0c	0.12121019
3	0xbde59ebc	-0.11211917
4	0x3e8079f4	0.25093043
5	0xbe5952cd	-0.21222992
6	0x3e5442af	0.20728563
7	0x3e276a22	0.1634908
8	0xbc6425f4	-0.013925064
9	0x3e2a534d	0.16633339
10	0xbdf820fd	-0.12115667
11	0x3e3f5cd1	0.1868775
12	0xbe560a3a	-0.20902339
13	0x3cdf936c	0.027291976
14	0xbe9a1196	-0.30091542
15	0xbe533293	-0.20624761
16	0xbe922a2e	-0.28547806
17	0xbdc56cde	-0.096399054
18	0xbe8fa946	-0.28058833
19	0x3e5ed193	0.21759634
20	0xbd7d7ad5	-0.06188472
21	0xbdcae2f8	-0.09906572
22	0x3ea7c9a9	0.32771042
23	0x3e8b85bc	0.2725047
24	0x3e84596b	0.2584947
25	0xbdeec70e	-0.116590604
26	0x3d47c85f	0.048775073
27	0x3e58956d	0.21150751
28	0xbe87223b	-0.26393303
29	0xbdd84bac	-0.10561308
30	0xbe1d31fa	-0.15351096
31	0x3e62175e	0.22079226
32	0x3e0b39db	0.13596289
33	0x3e3a5f24	0.18200356
34	0x3dac2a15	0.08406464
35	0xbe2ceec9	-0.16887964
36	0x3d9fb2e7	0.07797795
37	0x3d0958b3	0.033531856
38	0x3d466c6a	0.048443235
39	0x3d2c4de6	0.042066477
40	0x3e5a0063	0.2128921
41	0x3d89ca69	0.0672806
42	0xbe48cb56	-0.19608817
43	0xbd28b1fd	-0.041185368
44	0xbebc0cbc	-0.36728466
45	0xbe970174	-0.29493296
46	0xbe8e3df3	-0.27781639
47	0xbe48940f	-0.1958773
48	0x3dd07b81	0.101798065
49	0xbd32f518	-0.04369077
50	0xbdaa1534	-0.083048254
51	0xbccc25c5	-0.024920354
52	0x3a5f5b99	0.0008520424
53	0xbe4c743b	-0.19966213
54	0x3e191d76	0.14952645
55	0x3da84b84	0.082175285
56	0x3d84c3a5	0.06482629
57	0x3e0be9a4	0.13663346
58	0xbe40c600	-0.18825531
59	0xbd11885a	-0.035530426
60	0x3da2c4ff	0.0794773
61	0x3d15280d	0.03641515
62	0x3c8784f2	0.016542885
63	0x3d606666	0.054785155
64	0xbeb39e31	-0.35081628
65	0xbc6f3b1d	-0.014601496
66	0x3ca6759b	0.02031975
67	0xbd1cc2a0	-0.038271546
68	0x3b0d2ff6	0.002154348
69	0x3d4c3801	0.049858097
70	0xbe8dc807	-0.2769167
71	0xbc30b825	-0.010786091
72	0xbd4df062	-0.050278075
73	0xbdd1d3ca	-0.10245474
74	0x3e7059b8	0.23471725
75	0xbe2a513a	-0.16632548
76	0xbd97b341	-0.07407237
77	0xbdda2410	-0.106514096
78	0x3d8cba8d	0.06871519
79	0x3e4840ed	0.19556017
80	0xbe90e5d9	-0.2830036
81	0x3ea5c4fa	0.32376844
82	0xbd0bd136	-0.034135066
83	0xb9288e21	-0.00016074676
84	0x3ce9cdd8	0.028540537
85	0x3d96aa9c	0.0735676
86	0x3da7f976	0.08201878
87	0xbdcceec7	-0.10006481
88	0xbe71dbb4	-0.23618966
89	0x3d9009aa	0.07033093
90	0x3e2c5fc6	0.1683341
91	0xbe5fc898	-0.21853864
92	0xbea6762b	-0.3251203
93	0x3e814053	0.25244388
94	0xbe727272	-0.2367647
95	0x3e5f286d	0.21792765
96	0xbd33cb67	-0.04389515
97	0x3d68fac1	0.056879763
98	0xbe0ea2e5	-0.13929327
99	0xbe0789d4	-0.13236171
100	0x3e20cc05	0.15702827
101	0x3db8eed0	0.09029925
102	0xbd8b2ed6	-0.067960426
103	0x3d9fe806	0.07807927
104	0xbe8b9f9d	-0.27270213
105	0x3e22912f	0.15875696
106	0x3cc820d2	0.024429712
107	0xbe578b92	-0.21049336
108	0xbe63a25d	-0.22229905
109	0xbe44a835	-0.19204791
110	0x3d222e44	0.039594904
111	0x3dcb2108	0.099184096
112	0x3e15a1c9	0.14612497
113	0xbd8e2787	-0.06941133
114	0xbdc5d124	-0.09659031
115	0x3d8235e3	0.06357934
116	0xbd4b5ec1	-0.04965091
117	0xbe107de1	-0.14110519
118	0x3eabcd81	0.33555225
119	0x3c05d5cc	0.008168649
120	0xbe3dac4b	-0.18522756
121	0x3e2f4384	0.17115599
122	0x3e49744e	0.19673273
123	0xbd45d70d	-0.04830079
124	0xbdbea0f7	-0.09308045
125	0xbe679502	-0.22615436
126	0x3c21e231	0.009880588
127	0x3b85962f	0.004076741
128	0xbda6640a	-0.0812455
129	0x3c81b529	0.015833454
130	0x3d48dc1a	0.04903803
131	0x3e9abcdf	0.30222222
132	0xbdddbd59	-0.10827131
133	0x3db7626d	0.0895432
134	0x3e447cd8	0.19188249
135	0xbd3d2513	-0.046177935
136	0x3e014c35	0.12626727
137	0x3e9b3473	0.30313453
138	0x3d867803	0.06565859
139	0x3e0f918b	0.14020364
140	0xbd180c77	-0.037121262
141	0xbe7d8a8f	-0.24759887
142	0x3e22550e	0.15852758
143	0xbda5b00d	-0.0809022
144	0x3cb32f29	0.021873074
145	0x3e2fb96c	0.17160577
146	0x3e50409d	0.20337148
147	0x3dbd94f7	0.092569284
148	0x3dd789bc	0.105243176
149	0x3e811526	0.25211447
150	0xbbe36ba0	-0.00694032
151	0xbdffbc15	-0.12487046
152	0x3e0e979e	0.13925025
153	0x3e9e8049	0.3095725
154	0x3e47c1e1	0.19507553
155	0x3e1fe864	0.15615994
156	0x3e399b87	0.18125735
157	0xbcc2f2ea	-0.023797471
158	0xbe971cf4	-0.29514277
159	0xbe8d96d7	-0.27654144
160	0x3e2187ad	0.15774412
161	0xbb2ed00c	-0.0026674299
162	0x3e473343	0.19453149
163	0x3c90bbfb	0.017667761
164	0x3cf68376	0.030091982
165	0xbd8d39d8	-0.068957984
166	0x3db361e7	0.08758908
167	0x3d99ccf3	0.07509794
168	0x3d83b3be	0.064307675
169	0x3cfbc477	0.03073333
170	0xbe026a44	-0.1273585
171	0xbdee7c31	-0.116447814
172	0xbd99742b	-0.074928604
173	0xbc6890a0	-0.014194638
174	0xbd592753	-0.053016018
175	0x3e6e577a	0.23275557
176	0xbe70c58e	-0.23512861
177	0xbe62d928	-0.22153151
178	0x3e4b4f20	0.19854403
179	0xbe94d426	-0.29068106
180	0xbddc9747	-0.10771041
181	0x3e26e44d	0.16298027
182	0x3e345628	0.17610991
183	0x3cecf832	0.028926942
184	0x3d6446df	0.05573165
185	0xbdd6ed37	-0.10494464
186	0xbdb42537	-0.08796161
187	0x3e70aac3	0.2350264
188	0xbdd428d4	-0.1035935
189	0xbea188f5	-0.31549802
190	0x3eab9cfc	0.33518207
191	0xbe53ec7f	-0.20695685
192	0x3db4c02c	0.088257164
193	0xbd593c1e	-0.053035848
194	0xbe2fad4c	-0.17155951
195	0x3d318fda	0.04335008
196	0xbe0531ce	-0.1300728
197	0xbe2192ce	-0.15778658
198	0xbe1be0b2	-0.15222433
199	0xbe1acd3c	-0.15117353
200	0xbd5021f2	-0.050813623
201	0xbda02faa	-0.07821591
202	0x3e5e76a8	0.21724951
203	0x3d9fe531	0.07807387
204	0xbeb60d8a	-0.35557204
205	0xbd89ba7a	-0.06725021
206	0xbe4852b2	-0.19562796
207	0x3e510bfe	0.20414731
208	0xbe7c8563	-0.24660258
209	0x3b6d23f5	0.0036184762
210	0x3de20c0d	0.11037455
211	0xbde0e967	-0.10982018
212	0x3e7e4363	0.24830393
213	0xbc7451fd	-0.014912126
214	0x3dde7033	0.10861244
215	0xbdf4c831	-0.11952246
216	0xbe963ce5	-0.29343334
217	0xbe7c2ebe	-0.24627206
218	0x3e91cc1a	0.2847603
219	0x3e894ddf	0.26817223
220	0x3ddf4ac8	0.10902935
221	0x3e3f115a	0.18658963
222	0x3e8d991a	0.2765587
223	0x3e4226b7	0.18960081
224	0x3e59f830	0.21286082
225	0x3e500f8e	0.20318434
226	0xbd812453	-0.063057564
227	0xbea3c6dc	-0.31987655
228	0xbcafce31	-0.021460624
229	0xbd53f2f4	-0.05174537
230	0x3e65ae77	0.22429834
231	0x3d174e8a	0.036940135
232	0xbe5a287e	-0.21304509
233	0x3dd1b061	0.1023872
234	0x3e89b62e	0.26896805
235	0x3e1b4821	0.15164234
236	0x3e0470ab	0.12933604
237	0x3d99d935	0.07512132
238	0x3e2ea8f2	0.17056635
239	0xbe9b1ee0	-0.30296993
240	0xbe5b9c7c	-0.21446413
241	0xbe056e0c	-0.13030261
242	0x3e27fae1	0.16404296
243	0x3e5286a6	0.20559177
244	0xbe99fb82	-0.30074698
245	0x3e841f9e	0.25805372
246	0xbdcecb7d	-0.10097406
247	0xbd423904	-0.047417656
248	0xbe333599	-0.17500915
249	0x3d9aa3c1	0.07550765
250	0x3e4b0af0	0.19828391
251	0x3e643059	0.22284068
252	0xbe265e20	-0.16246843
253	0x3dc1707d	0.094452836
254	0x3e609008	0.21929944
255	0x3e2b69cc	0.16739577

to_latent.bias f4 [32]
0	0xbc4e5673	-0.012593853
1	0x3d8af183	0.06784346
2	0xbd35aa06	-0.0443516
3	0x3b90cec8	0.0044191815
4	0xbcc5af89	-0.024131553
5	0xbd0a8fd1	-0.03382856
6	0x3d2c50f6	0.042069398
7	0xbd0ad769	-0.033896837
8	0x3d259e69	0.040434275
9	0xbb8de130	-0.004329823
10	0x3b1ac2a8	0.002361456
11	0xbcc61d17	-0.024183793
12	0xbd4f7de1	-0.050657157
13	0xbd40d546	-0.047078393
14	0x3ce9f301	0.028558256
15	0x3bf9216b	0.0076028607
16	0x3d6ec0cf	0.058289345
17	0x3c551782	0.013006093
18	0x3cae5e0a	0.021285076
19	0xbcd00769	-0.025394158
20	0x39831fc4	0.00025009934
21	0x3d51e2dd	0.051241744
22	0xbcfabda1	-0.030608
23	0xbca6b206	-0.02034856
24	0x3c8545be	0.016268607
25	0xbc44f605	-0.012021546
26	0xbd0ae8b3	-0.033913326
27	0x3b108d0a	0.0022056722
28	0x3cdc7fd0	0.026916414
29	0xbbb3924e	-0.0054800874
30	0x3d8404b7	0.06446212
31	0xbc0c6e08	-0.008571155

decoder.weight_ih_l0 f4 [256, 32]
0	0x3e5dab4d	0.21647377
1	0x3d96cddc	0.07363483
2	0x3e635389	0.22199835
3	0xbe86ba8e	-0.26314205
4	0xbe0362d9	-0.12830676
5	0x3e7718d9	0.24130572
6	0xbd367e72	-0.04455418
7	0x3e5ec0e6	0.21753272
8	0x3daf910d	0.08572588
9	0x3e07bd46	0.13255796
10	0x3d4f441b	0.05060206
11	0x3d527520	0.05138123
12	0x3e0a27b1	0.13491704
13	0xbd637c65	-0.055538554
14	0xbe256acc	-0.16154021
15	0xbd98c9b9	-0.074603505
16	0xbe14adbe	-0.14519402
17	0x3d8fad4a	0.07015474
18	0xbdeb44e5	-0.1148775
19	0xbc3d2c95	-0.011546274
20	0x3d729bff	0.0592308
21	0xbe4118ad	-0.1885707
22	0x3d9791c4	0.074008495
23	0x3dd0c587	0.10193925
24	0xbe0e8f76	-0.13921914
25	0x3d88e5f4	0.06684485
26	0xbe6c7eb3	-0.23095207
27	0x3d39d159	0.045365665
28	0xbdd3a541	-0.10334254
29	0x3e933ff4	0.2875973
30	0xbe1ee5f1	-0.15517403
31	0xbd0f2563	-0.034947764
32	0x3e00c4aa	0.12575021
33	0xbb7a7950	-0.003821928
34	0x3d21d3df	0.039508697
35	0xbd8e8f18	-0.06960887
36	0xbd5559cd	-0.052087594
37	0xbdcaba9e	-0.09898876
38	0x3c44ded5	0.012016018
39	0x3d96523e	0.07339905
40	0xbd4177d1	-0.047233406
41	0xbe297213	-0.16547422
42	0xbc6f8f82	-0.014621617
43	0x3d338e5e	0.043836944
44	0xbd9d7216	-0.07687776
45	0x3d9776e3	0.07395723
46	0xbd569b49	-0.052394185
47	0xbe79ebc5	-0.24406345
48	0xbdb038f6	-0.086046144
49	0xbd57317a	-0.05253742
50	0x3de3bc31	0.11119879
51	0xbd36ec99	-0.04465923
52	0x3da56331	0.0807556
53	0xbb9ee7f2	-0.0048494274
54	0x3d2fda01	0.042932514
55	0x3d9d3ea1	0.07677961
56	0xbde93447	-0.11386924
57	0x3d965668	0.073406994
58	0xbe26f06d	-0.16302653
59	0x3d427585	0.047475357
60	0xbd6df7ad	-0.05809753
61	0x3e37cdca	0.17949596
62	0xbcf60d66	-0.030035686
63	0x3d11fc4d	0.035641003
64	0xbc98f85d	-0.018673116
65	0x3d3025b3	0.043004703
66	0xbe6fa79d	-0.23403783
67	0x3e3af4bb	0.1825742
68	0xbdd8b4e2	-0.10581376
69	0xbe2286f2	-0.1587179
70	0x3e8ef6ab	0.27922568
71	0x3d232ad7	0.039835777
72	0xbe214148	-0.15747559
73	0x3e1f68d4	0.15567333
74	0xbdbd4f83	-0.09243681
75	0xbde9a3b3	-0.11408176
76	0xbdd87dd3	-0.10570874
77	0xbd062587	-0.032750633
78	0x3dd7264f	0.10505354
79	0x3db7d3b1	0.08975924
80	0x3e460188	0.19336522
81	0xbda59914	-0.08085838
82	0xbcc9ebe1	-0.024648609
83	0xbd39603c	-0.045257792
84	0xbdfbd713	-0.122968815
85	0x3e27420a	0.16333786
86	0xbc4f7414	-0.0126619525
87	0x3c85f0a6	0.016350102
88	0xbcaa865f	-0.020816026
89	0xbe18956c	-0.1490075
90	0x3bb684e1	0.0055700396
91	0x3d595ecc	0.05306892
92	0x3c2e03a2	0.010620983
93	0xbe6e8443	-0.23292641
94	0x3e4812ff	0.19538496
95	0xbd972d00	-0.0738163
96	0x3d170ac1	0.03687549
97	0x3e59d428	0.21272337
98	0xbe0abb76	-0.13548073
99	0x3d1b1b50	0.037867844
100	0xbe3cd6f0	-0.18441367
101	0xbe6fb6b8	-0.23409545
102	0x3c4ca850	0.012491301
103	0xbd584b43	-0.05280615
104	0x3d717010	0.05894476
105	0xbd5ebb86	-0.054378055
106	0xbd78cd34	-0.060742572
107	0xbdd97e7e	-0.106198296
108	0x3cbd7684	0.023127802
109	0xbdff4569	-0.12464411
110	0x3d7eb9b9	0.062188838
111	0xbe820336	-0.25393075
112	0x3dbde1bc	0.09271571
113	0xbda4b166	-0.080416486
114	0x3d92d371	0.071692355
115	0xba2af5fd	-0.00065216405
116	0xbddc3c62	-0.107537046
117	0x3b19c6e1	0.0023464488
118	0x3e1e5758	0.15463006
119	0xbd8ecdf1	-0.06972874
120	0xbdfdbdfc	-0.12389752
121	0xbe1a4e26	-0.15068874
122	0x3dd3421c	0.10315344
123	0x3d9d8619	0.07691593
124	0xbd6f039c	-0.05835305
125	0x3cb73add	0.022366935
126	0x3d9921fe	0.074771866
127	0xbce2195f	-0.027599989
128	0x3da0cbb0	0.0785135
129	0xbda5cb73	-0.080954455
130	0xbe0c5ef7	-0.13708101
131	0x3e124d3d	0.14287277
132	0xbe122ca3	-0.1427484
133	0xbd9fe4d8	-0.0780732
134	0x3db7b13e	0.08969353
135	0xbe28f4f3	-0.1649969
136	0x3deb6eed	0.11495767
137	0x3d9d6bbb	0.076865636
138	0x3e1ab6ab	0.15108745
139	0xbd245375	-0.040118653
140	0xbcb87ff8	-0.022521958
141	0xbe2cf529	-0.16890396
142	0x3df6a49e	0.12043117
143	0x3db2a23a	0.087223485
144	0x3d974f18	0.07388133
145	0x3db14bd9	0.08657045
146	0xbd100492	-0.03516061
147	0xbdaf9eca	-0.085752085
148	0x3cd340ae	0.025787678
149	0xbd2aadac	-0.041669533
150	0x3d788642	0.060674913
151	0xbda11ed7	-0.0786721
152	0x3dc87485	0.09787849
153	0xbd56269b	-0.05228291
154	0xbdac9342	-0.08426525
155	0xbcf97146	-0.03044952
156	0xba277264	-0.000638759
157	0xbda7a10e	-0.081850156
158	0x3c48928b	0.01224197
159	0xbc97cda3	-0.018530672
160	0x3df4373f	0.119246
161	0xbc9c273a	-0.019061673
162	0xbda13956	-0.07872264
163	0x3e31314d	0.17303963
164	0xbc32474a	-0.010881254
165	0x3af1b9d5	0.0018442223
166	0x3ca8f26c	0.020623408
167	0x3d5ee01f	0.054412957
168	0xbe440cd3	-0.19145517
169	0x3cf46328	0.029832438
170	0xbcd41239	-0.025887595
171	0xbae495cb	-0.0017439661
172	0xbb11fc59	-0.0022275655
173	0xbdd3f2f7	-0.10349076
174	0xbd2a3fab	-0.041564625
175	0x3c9b1780	0.018932104
176	0xbd188711	-0.037238184
177	0xbe85d290	-0.2613721
178	0x3e806625	0.2507793
179	0xbe09ebc7	-0.13468848
180	0x3d98016c	0.07422146
181	0x3e808086	0.25098056
182	0x3d646553	0.055760693
183	0xbd3dad44	-0.046307817
184	0xbc9e0651	-0.019290121
185	0xbddad6fa	-0.10685535
186	0xbb3a8c4f	-0.0028464978
187	0xbe0a1503	-0.13484578
188	0xbe8f33aa	-0.27969104
189	0xbe1c7aa8	-0.15281165
190	0x3e04e353	0.12977342
191	0xbd9fd545	-0.0780435
192	0xbdb1d90d	-0.08683977
193	0x3e783384	0.24238402
194	0xbd871525	-0.0659583
195	0x38a560f8	7.885875e-05
196	0xbd234fd8	-0.039871067
197	0xbdd17545	-0.102274455
198	0x3dace26b	0.08441623
199	0xbc7e70f5	-0.015529861
200	0x3dafef79	0.08590598
201	0xbdc8bb4c	-0.09801349
202	0x3dcbbc57	0.09948032
203	0xbe1e6b96	-0.15470728
204	0xbbd3d9ca	-0.0064651715
205	0xbd1236bf	-0.03569674
206	0x3e159fb8	0.14611709
207	0xbe685576	-0.22688851
208	0x3d245fd6	0.04013046
209	0xbd63e2d6	-0.05563625
210	0xbcd856cd	-0.026408577
211	0x3e15671a	0.14590111
212	0xbd9eb854	-0.077500015
213	0x3ddc7145	0.10763792
214	0x3e49ad8b	0.19695108
215	0x3da8e5a8	0.082469285
216	0xbe1fe7d9	-0.15615787
217	0x3d718354	0.058963135
218	0x3e2d8a53	0.16947298
219	0x3d557936	0.05211755
220	0xbd286791	-0.041114394
221	0xbc0f75b4	-0.00875609
222	0xbda3a5b1	-0.079905875
223	0xbda3e857	-0.080033
224	0x3d1a8e6f	0.03773349
225	0xbd96ac1f	-0.07357048
226	0xbea91f70	-0.33031797
227	0x3dfdfaab	0.12401327
228	0xbe21b62d	-0.15792151
229	0xbe156846	-0.14590558
230	0x39d74870	0.00041061966
231	0xbdd7aae6	-0.10530643
232	0xbd0fdff4	-0.035125688
233	0x3dbf1e2e	0.09331928
234	0x3b9006f5	0.0043953606
235	0xbe7b8760	-0.2456336
236	0xbcd46c8a	-0.025930662
237	0xbb9178b0	-0.004439436
238	0x3e6a0609	0.22853865
239	0xbc7fee84	-0.015620831
240	0xbd897f70	-0.0671376
241	0xbe2e4010	-0.17016625
242	0x3d80c70e	0.06287967
243	0xbcd78679	-0.026309239
244	0xbe4773c4	-0.19477755
245	0x3dc9865b	0.098400794
246	0x3eb77491	0.3583112
247	0xbe0faaf8	-0.14030063
248	0x3e4c8605	0.19973
249	0xbe958e01	-0.29209903
250	0xbcc8f185	-0.024529228
251	0xbe0a6d7b	-0.13518326
252	0xbd3ce478	-0.046116322
253	0xbd65db44	-0.05611731
254	0x3d9f13e4	0.07767466
255	0x3da2c378	0.07947439

decoder.weight_hh_l0 f4 [256, 64]
0	0x3e1167e5	0.14199789
1	0x3d8da7eb	0.069167934
2	0xbca8bbd6	-0.02059738
3	0x3daef18d	0.08542166
4	0x3d2bf190	0.04197842
5	0x3d0494de	0.032368533
6	0x3d7bdf27	0.06149211
7	0x3e22b8c4	0.15890795
8	0xbdc3d749	-0.09562547
9	0xbd72d126	-0.05928149
10	0xbe75e524	-0.24013191
11	0x3da8171f	0.08207535
12	0xba74b93f	-0.0009335465
13	0x3dc7f7fc	0.09764096
14	0x3e30614c	0.17224616
15	0xbdd18bf5	-0.10231773
16	0xbd01d715	-0.03169926
17	0x3d989081	0.07449437
18	0x3d11edaa	0.035627045
19	0xbd13fb6e	-0.036128454
20	0x3d124e2b	0.035719078
21	0xbd5b24c7	-0.05350187
22	0x3da9c2bf	0.08289098
23	0xbe37649b	-0.17909472
24	0xbcd422fa	-0.025895584
25	0xbd0267ba	-0.031837203
26	0xbdb387b3	-0.08766117
27	0xbe045160	-0.12921667
28	0xbd7d953d	-0.061909903
29	0x3d9c240d	0.07624064
30	0xbd1237da	-0.035697795
31	0x3c4d8585	0.012544041
32	0xbd84fa80	-0.064930916
33	0xbe77e9b1	-0.2421024
34	0xbd9065ff	-0.07050704
35	0x3e0c6d77	0.13713633
36	0xbdc7018e	-0.097170934
37	0x3d65231b	0.055941682
38	0x3cca2d0d	0.024679685
39	0xbc73aa9e	-0.014872221
40	0xbda94053	-0.08264222
41	0x3d48f4ac	0.049061462
42	0xbdccb1dc	-0.099948615
43	0x3d8797ba	0.066207364
44	0xbdd55c97	-0.10418051
45	0xbdc130f7	-0.094331674
46	0x3d7d2bf1	0.061809484
47	0x3da904a4	0.08252838
48	0xbd488155	-0.048951466
49	0xbd1c8f32	-0.0382225
50	0x3e5ae51a	0.21376458
51	0xbd320978	-0.04346606
52	0x3d88831c	0.06665632
53	0x3c6b291c	0.014353063
54	0xbcf900a2	-0.03039581
55	0xbd83f5b0	-0.064433455
56	0x3e291b9e	0.16514441
57	0xbcbe5e5a	-0.02323835
58	0x3d3ceee5	0.046126265
59	0xbc2d0f03	-0.010562661
60	0x3d8e79eb	0.06956848
61	0xbd66abb9	-0.05631611
62	0xbce25513	-0.027628457
63	0xbd91648c	-0.07099256
64	0xbd6d202f	-0.05789202
65	0xbe80c449	-0.25149754
66	0x3d0a10cb	0.03370742
67	0x3d3b5ba0	0.045741677
68	0x3dc371cd	0.0954319
69	0x3e002682	0.1251469
70	0xbdc18294	-0.09448734
71	0xbd4c481e	-0.049873464
72	0xbdc128de	-0.09431623
73	0x3e06da0c	0.13169116
74	0xbbf2a23e	-0.0074045947
75	0xbd4a1184	-0.04933311
76	0xbe069fe7	-0.13146935
77	0xbd27b40d	-0.040943194
78	0xbe0c066e	-0.13674328
79	0xbc5cd637	-0.013478807
80	0xbd962f09	-0.0733319
81	0xbe752bd2	-0.23942497
82	0xbe0646bf	-0.13112925
83	0x3cb1725d	0.021660978
84	0xbc818125	-0.015808651
85	0x3d03fe23	0.032224786
86	0xbd831da7	-0.0640214
87	0x3dd36e01	0.10323716
88	0x3e2ab53e	0.16670701
89	0xbd841daa	-0.064509705
90	0x3c6ec1eb	0.014572601
91	0xbd39136b	-0.045184534
92	0x3d6e9031	0.05824298
93	0x3d3a82e0	0.04553497
94	0x3da456ef	0.08024394
95	0xbdbce501	-0.092233665
96	0x3e6a2b7a	0.22868147
97	0x3d4b1395	0.04957922
98	0x3c35d7d4	0.011098821
99	0x3d8d7658	0.06907338
100	0x3cacc0e4	0.021088071
101	0xbdffaeda	-0.12484522
102	0xbd9c3868	-0.07627946
103	0x3c82f68f	0.015986709
104	0xbe3f89c7	-0.18704902
105	0xba35162f	-0.00069079077
106	0x3da12e16	0.07870118
107	0x3d6a67e2	0.057227977
108	0xbe1e5c8f	-0.15464996
109	0x3e970e31	0.29503015
110	0xbcb6cf45	-0.02231563
111	0x3ceaf1e2	0.028679792
112	0xbd7112c5	-0.05885579
113	0x3dddf6f4	0.10838118
114	0x3dbb85ca	0.091563776
115	0x3e0802c4	0.13282305
116	0x3dabb2b2	0.08383693
117	0xbce80c49	-0.02832617
118	0x3d786ba0	0.060649514
119	0xbe0e8e48	-0.13921463
120	0xbc7bee9f	-0.015376716
121	0x3c4ba592	0.012429612
122	0xbe1becb8	-0.1522702
123	0xbdac963d	-0.08427093
124	0xbdf3c7e9	-0.11903364
125	0xbcf28eaf	-0.029609052
126	0xbc8998bf	-0.016796468
127	0x3ccf3fca	0.025298972
128	0x3d1e5752	0.038657494
129	0xbdd6a8b3	-0.104813956
130	0xbe00259f	-0.12514351
131	0xbca897b2	-0.020580146
132	0xbca6f6ec	-0.020381413
133	0x3e5d2426	0.21595821
134	0xbe17bbaa	-0.14817682
135	0x3e444d3e	0.1917009
136	0x3d11bc92	0.035580225
137	0xbd1b33c1	-0.037891153
138	0xbdfdb65e	-0.123882994
139	0x3c17628a	0.009239802
140	0xbe0208c5	-0.12698658
141	0xbd8797c0	-0.06620741
142	0x39349b4d	0.00017223992
143	0x3e1001bc	0.14063162
144	0xbe33ef38	-0.17571723
145	0x3cfdf030	0.03099832
146	0x3e3b9b4b	0.18320958
147	0xbe4dc866	-0.20095977
148	0xbd9cc6e4	-0.07655123
149	0xbd470ad5	-0.048594315
150	0xbe5492f2	-0.2075918
151	0xbdd9460f	-0.10609066
152	0xbdae83c1	-0.08521224
153	0xbd424c14	-0.047435835
154	0xbe6acece	-0.22930452
155	0x3d91d0b0	0.07119882
156	0x3d998c86	0.07497506
157	0xbe182590	-0.14858079
158	0x3d9930b8	0.074799955
159	0x3d4dfa4b	0.050287526
160	0xbe12fe5f	-0.14354847
161	0xbd83f08e	-0.064423665
162	0x3cbf5f45	0.023360858
163	0xbdd4fabc	-0.10399386
164	0x3d0de9c0	0.03464675
165	0xbe8111b2	-0.25208813
166	0x3e8a4d8f	0.27012298
167	0x3db6a8d3	0.089189194
168	0x3cc38c66	0.023870658
169	0x395d9344	0.00021131063
170	0x3e60dfee	0.21960422
171	0xbe28ad31	-0.16472317
172	0xbd9bf851	-0.07615722
173	0x3d175813	0.03694923
174	0xbd25bad5	-0.04046138
175	0x3d7dd8af	0.061974224
176	0x3d7a7ad4	0.061152294
177	0xbbd509d8	-0.0065014176
178	0xbddcfa3b	-0.10789915
179	0x3e208fff	0.1567993
180	0xbdc7686e	-0.09736715
181	0x3e68c63d	0.22731872
182	0xbd4d0513	-0.050053667
183	0xbd8ab35b	-0.067724906
184	0x3d277d48	0.040890962
185	0xbda1cb7a	-0.07900138
186	0x3e74e486	0.239153
187	0xbdf992dd	-0.12186215
188	0xbd398811	-0.04529578
189	0x3d5136a9	0.05107752
190	0x3a41a922	0.00073875685
191	0xbd716d9b	-0.05894242
192	0xbe57e290	-0.2108252
193	0x3d55ec8a	0.052227534
194	0xbc05f8de	-0.00817701
195	0x3d181ca9	0.037136707
196	0xbdd1749b	-0.10227319
197	0xbd07b255	-0.033129055
198	0x3dd0c38a	0.10193546
199	0x3d3dc2d3	0.046328377
200	0xbda1f230	-0.07907522
201	0xbe0d350c	-0.13789767
202	0x3d3a08b7	0.045418467
203	0x3a6cb5bb	0.00090297655
204	0xbdb0eca6	-0.08638887
205	0x3d1a3352	0.0376466
206	0x3d3afae0	0.04564941
207	0x3d330118	0.043702215
208	0xbdb3eaee	-0.08785044
209	0x3dad5969	0.08464319
210	0x3dc0b82d	0.09410129
211	0xbe0809a7	-0.13284932
212	0xbdd2c914	-0.10292259
213	0x3dfae63f	0.12250947
214	0xbd910d79	-0.07082648
215	0x3e0d415d	0.13794465
216	0x3d92a1a6	0.07159738
217	0xbe028193	-0.12744741
218	0x3d4e7bda	0.050411083
219	0x3d631310	0.0554381
220	0x3b00e1c2	0.0019665812
221	0xbdf2899a	-0.11842652
222	0x3e7a03b7	0.2441548
223	0x3dac51ee	0.08414064
224	0x3df1d48c	0.11808118
225	0x3e43195f	0.19052647
226	0x3e09843e	0.13429353
227	0xbdb8b669	-0.09019167
228	0xbd6cf0c2	-0.057846792
229	0x3b3a21f1	0.0028401578
230	0xbdad69bf	-0.08467435
231	0xbe2499b5	-0.1607426
232	0x3e7298b2	0.23691061
233	0xbd8cbf79	-0.06872458
234	0x3d49a6d1	0.049231354
235	0xbd967d4d	-0.07348118
236	0x3e6acfe5	0.22930868
237	0xbd0766b7	-0.03305694
238	0x3db57cb2	0.08861674
239	0xbd340c70	-0.043957174
240	0xbe6b5323	-0.22980933
241	0x3d0b7681	0.03404856
242	0xbe8c9d60	-0.27463818
243	0x3e083f50	0.13305402
244	0x3c07e909	0.008295306
245	0xbae66ef2	-0.0017580672
246	0x3d8b93b4	0.068152815
247	0x3dff8456	0.12476413
248	0x3b41c409	0.002956631
249	0xbd327311	-0.043566767
250	0xbe27768f	-0.1635382
251	0xbdc7867a	-0.09742446
252	0x3b952120	0.004551068
253	0x3dcc4a74	0.09975138
254	0x3dc5bdf1	0.09655369
255	0x3d7b6de1	0.061384086
