mlruns/786437617335392218/8b2ced13aab54bc39ad27accd4ca1ff8/artifacts/weights/gru/gru_autoencoder.pt (torch, 155599 bytes, 12 tensors)

encoder_gru.weight_ih_l0 f4 [192, 16]
00000000: 703d 69be bbb1 e93d cc5c 5bbb 6e77 beba
00000010: 77b8 44bc fca4 3b81 2390 8cbd 5c95 aabc
00000020: 6ad9 b6bc 076b c53d 9653 9abd bfc7 0fbc
00000030: f742 dfbd 03ab 673e fd0a 963d 16e0 a6bd
00000040: 884e fd3d 4f17 113c fa4d 48bd 9acc f53d
00000050: e758 4e3d 6079 6901 67b2 86bd 6ef9 8a3d
00000060: 1ac7 393e 8ace 6b3d 99c2 c63d dc9a 453e
00000070: df27 32bd 80af 03be 2597 1a3e b459 0f3e
00000080: bc58 27be bba1 12be 0c89 6cbe 86ab 053e
00000090: b70f 3b3e a248 6e81 b131 2bbd 3b5b 2ebe
000000a0: f7c8 0cbd ebde 30be dbe7 73bb 8242 01be
000000b0: ed26 f9bc 4900 c8bb ef7c 66bc a2dc ab3c
000000c0: c460 bb3d aff3 6abc 2cbc 033e 5994 be3d
000000d0: 9dec 5c3e 80ca 7500 aa50 0abe 4c4b 9a3d
000000e0: 0c70 a13d fdf8 b5bb 4652 d9bd ff15 483d
000000f0: 9642 ca3d 9e4c d9bd 42de a03d 9ef8 1d3b
00000100: 9580 0b3e be61 79bd e960 aabd e0df c03b
00000110: 46f5 493d dbe8 5081 8d18 1abd a1c2 bfbc
00000120: 9d31 a1bd 95f3 c0bc 0963 04be f61b a2bd
00000130: 2de3 cd3d e735 aa3d 716f af3d a50e ccbd
00000140: 8082 0a3e 5836 3ebd 7efb 82bd f87c 7a3d
00000150: 1848 043e 4cea 5f81 a1ed 99bd 0dca 2fbe
00000160: d2f4 f1bd 0415 a7bd d381 533d 33c5 2a3e
00000170: e5c2 9c3d ee5c aebd c2e1 3c3e 3631 503e
00000180: 3025 123e 2c54 cd3d ffcd f53d a313 af3c
00000190: 8e99 573c a35c fc80 5225 58be 2090 b4bd
000001a0: 6934 e8bd 7102 9e3d 98e5 56bc e616 f23d
000001b0: bd27 acbd d028 9bbd 82d8 95bc de28 b7bd
000001c0: c024 bdbd c971 18bd 4ab2 b03c 5b91 28bd
000001d0: ab18 d8bd b4c0 9300 883d 983d 7f34 253d
000001e0: 1669 7fbd 99f6 08bd dd5e 78bc a7e6 bbbc
000001f0: ae7c 5a3d 2674 46be e396 1abe 95c9 8f3d
00000200: 2ac1 1f3e 5ae2 803a 5f9f 91bd 669b 393e
00000210: 3af2 9d3d 08a3 7f80 34a5 30bd d833 043c
00000220: ca1e eebd e32c 393d 1c5c 18bc 48d2 f03d
00000230: 4043 813e 89d8 91bc 60a2 66bd 44e2 0e3e
00000240: 432f b3bb d7cc 643c f8eb 98bd 5a1d f9bc
00000250: cc57 233e e4fc a081 d7d1 e9bb e1f8 0dbe
00000260: a72c 7b3d 7002 2cbe 2a6f 5d3d 71c7 913d
00000270: e27e 033d a9f9 863d b5ea f9bd d8b5 c93d
00000280: e854 b1bd 8851 423d 8e17 8a3d dab0 ae3d
00000290: 3fad 363d 8071 3e80 1352 58bb 5309 35be
000002a0: 96ad 073e e5ab 13bd 71c0 adbb b072 963c
000002b0: 2631 61be 5fac 553b ec38 18be 0584 3abe
000002c0: f588 203d e47e 14be 2463 64be bd8c d3bd
000002d0: 2951 89bd 0cdf a681 eca1 373e eb05 503c
000002e0: 232d 30bd a9f3 aebd 185e 9dbd 51a5 bfbd
000002f0: 85d6 0b3e 9f7b 05be da17 81bc bf26 46be
00000300: b95c e63d e417 e3bd dd7a c1bd 058d 0f3e
00000310: a45b ce3d d8d3 fb80 7be5 12be 56e3 a83b
00000320: 7635 91bc 3984 72bd 6fe2 02bc 38ab a03c
00000330: 3b00 233e 051d 3f3c 364b d2bd 2e90 6ebd
00000340: 4ac0 1fbc c9dc bebc 81db f73d a217 963d
00000350: aa30 e83d c1cf 8881 68e5 2f3d 0f1f 543d
00000360: 73fb afbd 2ad3 b03d 87dc 7abe a083 10be
00000370: b528 8dbc 7db2 4fbb d4e7 c239 4690 fbbd
00000380: b90e 923d 1298 ffbd d493 9f3c 1165 8e3b
00000390: aac9 c9bd 1c4d e000 b429 50be 1ab1 b7bd
000003a0: b361 903a 5bea 43bd f703 833d 7cbd 07bd
000003b0: 3212 123c c9e6 8c3c f3cb 943d e2f4 213e
000003c0: 0f4b 4d3d cecd 7e3d 5781 633d f966 303c
000003d0: c3aa d13d 3659 1381 e42f 95bd f41a cdb9
000003e0: fb3b e0bc 2c59 23be 7549 0bbe 45c2 2bbc
000003f0: 7f76 003e d798 373d 115a 5abd 00fe 093d
-0.22777343 0.114108525 -0.003347206 -0.0014531442 -0.0120068705 -3.4464846e-38 -0.068634294 -0.020823173
-0.022320468 0.096395545 -0.07535474 -0.0087756505 -0.109014444 0.2262383 0.073263146 -0.0814821
0.12368494 0.008855655 -0.04890249 0.12001915 0.050377753 4.2882424e-38 -0.06576996 0.06785856
0.18142357 0.057570018 0.09705085 0.19297355 -0.043495055 -0.12859917 0.1509672 0.13999063
-0.16342443 -0.14319508 -0.23099154 0.13053712 0.18267713 -4.3765808e-38 -0.041795436 -0.17026989
-0.034371343 -0.17272536 -0.0037217054 -0.12623027 -0.03041407 -0.0061035496 -0.014067872 0.02097923
0.09149316 -0.014340325 0.1286475 0.09305639 0.21574636 1.0817396e-38 -0.13507333 0.07533893
0.07882699 -0.0055533634 -0.106113955 0.048849102 0.098759815 -0.10610317 0.07854892 0.0024104486
0.13623269 -0.06088423 -0.083192654 0.005886063 0.049306177 -3.8370632e-38 -0.03762107 -0.023408236
-0.07870791 -0.023553649 -0.12928404 -0.079154894 0.10053096 0.08311062 0.08566178 -0.09963731
0.13526344 -0.046438545 -0.063956246 0.061154336 0.12918127 -4.112673e-38 -0.07516027 -0.1716692
-0.11814274 -0.08158305 0.051637482 0.16676788 0.07654361 -0.08513819 0.18445495 0.20331272
0.14271998 0.1002582 0.12002181 0.021371668 0.013159169 -2.3175777e-38 -0.21107987 -0.08816552
-0.113381214 0.077153094 -0.013116263 0.11820774 -0.08406017 -0.07576144 -0.018291716 -0.08943342
-0.09235525 -0.03721789 0.02156939 -0.041154247 -0.1055158 1.3568947e-38 0.07433611 0.040333267
-0.062356077 -0.0334383 -0.015159336 -0.022937132 0.05334156 -0.19380245 -0.15096621 0.070208706
0.1560103 0.0009833083 -0.07110476 0.18125686 0.07712217 -1.1721593e-38 -0.0431263 0.008069001
-0.11626966 0.045208823 -0.009299304 0.11758858 0.2524662 -0.017803447 -0.056307197 0.13953501
-0.0054682805 0.013964853 -0.074668825 -0.030409504 0.1595146 -5.91376e-38 -0.0071356106 -0.13864471
0.06132188 -0.16797805 0.054061092 0.071181186 0.032103427 0.06590588 -0.1220297 0.09849137
-0.08658773 0.047441036 0.06742774 0.085298255 0.044598814 -5.734517e-39 -0.0033007904 -0.17679338
0.13249812 -0.036052603 -0.005302482 0.018365234 -0.21991405 0.0032603962 -0.14865464 -0.18214424
0.039193112 -0.1450153 -0.22303444 -0.10329578 -0.06704933 -6.1298826e-38 0.17932862 0.012696723
-0.043011796 -0.08542568 -0.076839626 -0.093577035 0.13656051 -0.13035439 -0.015758444 -0.19350718
0.11248154 -0.11088541 -0.094472624 0.14018638 0.10076073 -2.3126705e-38 -0.14345352 0.0051540537
-0.017725687 -0.05920813 -0.007988556 0.019612893 0.15918057 0.011664634 -0.102682516 -0.05824297
-0.009750435 -0.023298638 0.12102414 0.07328726 0.11337407 -5.025662e-38 0.04294339 0.051787432
-0.08592882 0.08634026 -0.24498187 -0.14112711 -0.017231325 -0.003169208 0.0003717529 -0.12283377
0.071317144 -0.12480177 0.01947967 0.004345544 -0.098529175 2.0598813e-38 -0.20328408 -0.08969326
0.0011015445 -0.04783092 0.063972406 -0.03313969 0.008915471 0.01719989 0.07265463 0.15816072
0.05012041 0.06220799 0.05554327 0.010766738 0.10237648 -2.7063642e-38 -0.07284525 -0.0003912073
-0.02737235 -0.15951985 -0.1360224 -0.010483329 0.12545203 0.044823494 -0.05330855 0.0336895

encoder_gru.weight_hh_l0 f4 [192, 64]
00000000: cde8 003e e58a e13d e1d1 163d cac2 08be
00000010: 6a00 dbbd 45e6 ef3d 4928 01bd 2b50 f6bc
00000020: 63c6 05be 6069 1d3e 9731 d83d 623b 90bd
00000030: 197f 94bd d647 193d 9bec 1ebe 5027 4b3d
00000040: 044c 06bd c8b0 a13d 7190 083d 1daf 7ebb
00000050: afbc 3bbe f70e 273e 4c32 b03c 94c5 6bbd
00000060: 918d 913d efc9 b23d 77c3 923c d909 803c
00000070: 2143 36bd 20c5 c8bc 5d2f a6bd 5bde eb3d
00000080: 747d fa3d fb2e f53d 2853 563c 399a dbbd
00000090: 0cf9 afbb d5ed 9fbd ca92 2a3d a93e 61bd
000000a0: bb30 633d 99fa 06bb 2f58 d53c ea71 babd
000000b0: 43c6 61bd 6cd6 e93c 91d9 05be a1d4 0f3e
000000c0: 8370 ff3d 44af 84bd 7f02 adbd e526 d9bc
000000d0: f891 8ebc 3174 b9bd a198 163d 39de c8bd
000000e0: 6c9f 13bd 5fd9 673d 740f a2bd 8f0c d3bd
000000f0: 0807 24be fc97 093e b5a2 0abe a7ec 8c3d
00000100: dcaa 9c3d d9c0 33be 1d80 5c3d c40e f6bd
00000110: cfb3 82bd 85c3 b7bb 6b10 69bd 9c92 d73a
00000120: 3b5c ecba d250 733d 77ed 2c3e bcbe 8abd
00000130: a312 33bd e966 77bd d7b4 d2bd 3857 243c
00000140: 88a5 08be 2ccf f9bd ba36 14be 4091 cf3c
00000150: 4fd9 bd3c d1e6 893d c108 c2bc 7fa2 01bd
00000160: edb4 dc3d 1d87 223e bd4c 7fbc d989 333e
00000170: 09db 283e 46a1 4abe 31f4 ffbd dd1a 6a3e
00000180: 2563 32be afc9 36bd 0f7d 8f3d b9cf a7bd
00000190: c0ff 0c3d 9f57 433d 396c 5dbe a5d0 97bc
000001a0: 82c2 a9bd 34e6 303d 360f e73b 22b4 f23c
000001b0: dbba b0bd 0fb2 ffbc f27c 0f3d 7511 ad3c
000001c0: f657 233e 1843 ddbd 0fbd edbd d143 683b
000001d0: b02f 223d 2099 4abb b85a 2e3e 43e1 a9bd
000001e0: 19b6 983b 69ef dabd 778a db3c a14b 8a3d
000001f0: eeb4 af3d c709 3a3d 8c37 0b3e e6af 1cbd
00000200: c8a8 0c3d c8d8 bb3d 2c9a c7bc e6bd d53d
00000210: 07ab 6abd 25c1 193d dde9 3abd 8abd 45be
00000220: 8313 cc3d a3c9 f63d 58f8 483e 8ef6 3bbe
00000230: 47b0 033c 0282 58bd d082 e3bc 0ba1 163c
00000240: b715 343d 985c 343d fe13 f4bd 9622 0ebd
00000250: 7414 9d3d 6572 9e3d afcb 02bc 65fa 93bd
00000260: 9065 8d3c cb77 a43d 4b4a 413d c3be 283d
00000270: 6bdb a8bd 4afd 663d 72ac a63d 65aa 54bd
00000280: c56b 843c 964e b6bc d647 15be 0896 663c
00000290: b6e0 93bb 9574 e1bd 5840 2b3d 9e4a e0bd
000002a0: d041 c7bc b00a 80bc b381 b6bc 972f 443d
000002b0: a864 1a3e ab9f bf3d 69cd 30be bf82 32be
000002c0: 8189 4cbd 0e6a db3d c9f2 813d 1eb6 313c
000002d0: 38af 083e d41e 35bd 2528 df3c eedf 61bd
000002e0: 3778 7c3a 97a4 14be aee2 65bd 7289 093e
000002f0: 65b2 edbd 194d 423c eedd f93d a54d 643d
00000300: dec4 3e3e 91d7 0f3c 71a6 303d 0691 02be
00000310: b4a4 123d 9c86 3f3d 4dcd b33d acdf a0bd
00000320: 00d8 353d c9e5 aebd 44a6 e1bb 9286 9ebd
00000330: a607 5f3d cf3f 14bd 3d75 98bc cd5f 923c
00000340: 3fac 873d 3753 ab3d 5197 1cbe 45f7 31ba
00000350: 5fb7 3cbd 293c 533e 35e8 533d 13ca 34bb
00000360: 29bb f83c ea09 893d aa38 4e3c 7cd9 a7bd
00000370: 7d2b 06be 5819 3c3e d227 0abb 89ec 9cbd
00000380: 2b16 e03b 84e6 0e3e cb1b 3ebd c7d0 693d
00000390: 5997 563d d6b8 2a3b c60f e13d 0549 983d
000003a0: ad79 dabd 47c6 ec3a 9066 5e3d 54f6 70ba
000003b0: 606d 123e 3e56 36be 758e 543d 4a6f 4cbc
000003c0: 41c1 7abc f916 9dbd b86b 643d 761a 94bd
000003d0: 8591 a0bc 50d9 63be 84b5 1bbd aefd 34be
000003e0: f71f f2bd 83b6 dc3d a2ae 1cbe 87c7 533d
000003f0: e7b3 07bc d74e 783d 6332 b93c 8219 8c3b
0.12588806 0.1101282 0.03682125 -0.13355556 -0.10693438 0.11713842 -0.03153256 -0.030067524
-0.1306396 0.15372229 0.105563335 -0.070425764 -0.072508045 0.037422024 -0.15519945 0.04959804
-0.032787338 0.078950465 0.033340875 -0.00388617 -0.18333696 0.16314302 0.021508358 -0.057561472
0.0710708 0.08729922 0.01791547 0.015629696 -0.044497613 -0.024508059 -0.081145026 0.1151702
0.122309595 0.119718514 0.013081349 -0.10722775 -0.005370265 -0.07809035 0.041643895 -0.054991398
0.055466395 -0.0020596145 0.026043026 -0.09103759 -0.055120718 0.028544627 -0.13071276 0.14045955
0.12472632 -0.06478742 -0.08447742 -0.026507804 -0.017403588 -0.09055365 0.036766652 -0.098080106
-0.03604071 0.056603786 -0.07913104 -0.1030513 -0.16018307 0.13436884 -0.1353863 0.06881075
0.07649776 -0.17554034 0.053833116 -0.12014535 -0.06381952 -0.0056080245 -0.056900423 0.0016446891
-0.0018032858 0.059403248 0.1688746 -0.06774661 -0.043718945 -0.060400877 -0.10288399 0.01003056
-0.13344395 -0.12197718 -0.14474002 0.025337815 0.02317491 0.06733478 -0.023685815 -0.03164911
0.10776696 0.15871854 -0.015582261 0.17533053 0.16489805 -0.19788083 -0.12497748 0.2286181
-0.17420633 -0.044625934 0.07006275 -0.08193917 0.03442359 0.047690984 -0.21623315 -0.018532107
-0.082890525 0.04318829 0.007051374 0.02962691 -0.0862939 -0.031212835 0.035031267 0.021126488
0.15951523 -0.10803813 -0.11608326 0.0035440812 0.03959626 -0.0030914024 0.17026794 -0.082949184
0.0046603796 -0.10690195 0.026799424 0.06752706 0.085794315 0.04541948 0.13595408 -0.038253687
0.03434065 0.09172207 -0.024365507 0.10436611 -0.05729201 0.037537713 -0.045633186 -0.19310585
0.09964659 0.12050178 0.19625986 -0.18355772 0.008037633 -0.05285836 -0.027772337 0.009193669
0.04396602 0.044033617 -0.11917876 -0.034700952 0.07669917 0.07736663 -0.007983132 -0.07225493
0.017260343 0.08030661 0.047189992 0.04119755 -0.08244976 0.0563939 0.0813836 -0.051920313
0.01616467 -0.02225427 -0.14578184 0.014073856 -0.0045128716 -0.110085644 0.04180941 -0.10951732
-0.024323374 -0.015630096 -0.022278642 0.047896948 0.1507746 0.09356626 -0.17265858 -0.17432688
-0.04993582 0.10713588 0.06345136 0.010846643 0.1334809 -0.044218853 0.027240822 -0.055145197
0.00096309505 -0.14515911 -0.05612438 0.13431337 -0.11606292 0.011859202 0.12200533 0.05573811
0.18629786 0.008779422 0.04312748 -0.12750635 0.035801604 0.046759233 0.087793924 -0.07855162
0.044395447 -0.08539922 -0.0068862755 -0.07740511 0.054450653 -0.036193665 -0.018610591 0.017867947
0.0662465 0.08365481 -0.15292098 -0.000678886 -0.046073314 0.20628418 0.05173512 -0.0027586266
0.030362682 0.06691344 0.012586752 -0.08195779 -0.13102527 0.18369043 -0.0021080864 -0.07662303
0.00683858 0.13955122 -0.046413224 0.05708387 0.05239043 0.0026050112 0.10989337 0.07435802
-0.10667739 0.0018064462 0.05429703 -0.0009191979 0.14299536 -0.17806336 0.05189367 -0.012477705
-0.015304864 -0.07670397 0.05576679 -0.072316095 -0.01960064 -0.22250867 -0.038014904 -0.17674896
-0.11822503 0.10776999 -0.15300992 0.051703956 -0.008282638 0.060622063 0.022607034 0.0042755017

encoder_gru.bias_ih_l0 f4 [192]
00000000: ef72 8ebd 6b0e 9d3d dee5 40bd 869c 683d
00000010: 1dbc 443d 9255 6a3d b0ca 13be ea59 6c3d
00000020: 2a88 2dbe 6c7b 983d 4bd2 4dbd da1f e33d
00000030: 20eb 4abe 031b 49bd fe47 413d 4d77 4b3d
00000040: e627 213b c9c2 5bbd 6780 97bc 02f2 16be
00000050: d4bc 873d 76e2 643e c928 3f3b b8f9 a9bd
00000060: 3e49 ebbd 63ce 9d3d 07e2 95bd cd6b 463c
00000070: 410d 7d3d dc04 0b3e 5bbc 993d 7850 a53e
00000080: b39e ad3c f2f6 273e 419b 873e f2cc 95bd
00000090: b399 9abd 4761 dfbc 1c65 0b3c f258 dabd
000000a0: 34a8 03be 1854 133d 99cb 2d3d 5db6 38bd
000000b0: 738d d33d 2dfe f03d 61f4 353d 8637 133e
000000c0: 07ee 60bc 4425 b63d 043a 98bd fbd7 72bd
000000d0: 7272 39be 9cb7 2abe 7742 9b3e c3b0 df3d
000000e0: e73b 1c3e 60ca 5d3e 15c2 e23c 782b 163e
000000f0: ea66 9d3d a2c2 933d ba5e 69bd acfa 1dbc
00000100: b5d1 e83e 2874 883e df05 873e 6115 053f
00000110: 67d9 9e3e 7e06 9c3e a0ef e73e 5cb1 a23e
00000120: f2c6 943e 0b47 073f 45f8 893e 8a79 963e
00000130: a3a3 f73e 1cf6 b03e 4a68 a63e 582a d23e
00000140: 959d 323e 06e1 db3e 2b0c 533e 94aa cb3e
00000150: 29d2 ca3e 4a26 703e 574b e33e f1c2 a43e
00000160: f0e5 c13e aef1 903e f0cf a23e 6c83 883e
00000170: 681d bb3e f452 be3e 9d2e 9f3e d9a1 b73e
00000180: 2f4f b23e 4b44 8f3e 20cc 8f3e 14ea fe3e
00000190: 6a59 103f 2093 983e 1d62 7e3e 87ee e83e
000001a0: 94dd cf3e 6043 d63e 6eca be3e bf11 c73e
000001b0: 1e27 ce3e d540 c73e 2d0a 763e 1e35 a53e
000001c0: 17c8 5e3e 5a23 963e d4c8 ae3e 3eb5 e03e
000001d0: 3247 a73e 40f0 b83e 49b9 553e 64e8 8c3e
000001e0: 3bbd 7f3e 206d c23e 19bf 7f3e ca0b 593e
000001f0: 9b2e b63e ff04 003e dec7 ee3e 3956 533e
00000200: ce41 d0bd 0bd0 363b 29f9 433e fe9c 9e3d
00000210: 62d6 74bd dd94 51bd 40f5 6f3d 49a9 7ebd
00000220: b93f 183e 233b 08bd a01b 61bc b725 113d
00000230: 3d53 1b3d 9b91 813e c2c1 47bd 9919 ed3d
00000240: 0ec8 1cbe b1ff 0fbe 1169 8b3d 37f7 a5bd
00000250: a326 4a3d 6209 7cbd c398 39bd 6bfe c7bd
00000260: 9202 6bbd 367d 863d 4588 913c d2e8 ea3d
00000270: 99b3 533e 4e21 0abe ab00 a2bc 71bc 5a3d
00000280: cba6 d7bd b2d1 d0bd 8d26 ec3d 330a 71bc
00000290: 3205 77bd ccc4 92bd 45e2 a6bb a209 10bc
000002a0: b316 243c 08c7 1b3e bb85 3cbb 850f 293d
000002b0: eebc 53bd 6a2e 0b3e 764b 02bd 21d4 80bd
000002c0: 9621 0c3e 47af 943c fb02 14be abbb 97bd
000002d0: b26d cb3d 296d 933d 9d12 03bd e8da 7f3d
000002e0: edba 1d3e 237e ac3d 6b2b d53d 67e2 b03d
000002f0: 26ec 113d 56cf dfbd 7e64 1b3e e3bc cebd
-0.069555156 0.07668766 -0.04709422 0.056789897 0.04803096 0.057210512 -0.14432788 0.057702936
-0.16946474 0.07445416 -0.05024938 0.110900596 -0.19816256 -0.049098026 0.047187798 0.04967432
0.0024590432 -0.05365256 -0.018493844 -0.14740756 0.06627813 0.22352013 0.0029168597 -0.08299583
-0.11488579 0.07705381 -0.07318502 0.012110663 0.061780218 0.13576072 0.07506629 0.32287955
0.021193838 0.16402796 0.26485637 -0.07314481 -0.07548847 -0.027268065 0.008507993 -0.10661496
-0.12857133 0.03596887 0.042430494 -0.04509579 0.10329714 0.1176723 0.04442251 0.1437665
-0.013728625 0.088938266 -0.074329406 -0.059288006 -0.18110064 -0.16671604 0.30324146 0.109223865
0.15257226 0.21659231 0.027680436 0.1466502 0.07685645 0.07214858 -0.056975104 -0.009642284
0.45472494 0.2665112 0.26371667 0.51985747 0.3102524 0.30473703 0.45300007 0.3177594
0.29058033 0.5284278 0.26947227 0.29389602 0.48367032 0.34562767 0.3250144 0.4104793
0.17442925 0.42945117 0.2061011 0.39778578 0.39613464 0.23452106 0.44393417 0.32179978
0.3787074 0.28309387 0.3179927 0.26662767 0.36545873 0.37172663 0.3109025 0.35865667
0.34826037 0.2798179 0.28085423 0.49787962 0.56386435 0.29799747 0.24842115 0.45494482
0.40598738 0.41848278 0.37263817 0.38880727 0.4026422 0.3891665 0.24027319 0.32267088
0.21756016 0.29323846 0.34137595 0.43888277 0.32671505 0.36120796 0.20871462 0.2752105
0.2497453 0.3797388 0.24975242 0.21195903 0.35582432 0.12501906 0.46636862 0.2063836
-0.10168801 0.0027895 0.19138016 0.07744788 -0.059774764 -0.051167358 0.058583498 -0.06217316
0.14868058 -0.033259522 -0.0137394965 0.03543636 0.03792118 0.253064 -0.048768766 0.11577148
-0.1531069 -0.14062382 0.06807149 -0.08103793 0.049353253 -0.061532386 -0.0453117 -0.09765323
-0.057375498 0.06566851 0.017765174 0.11470188 0.2067398 -0.13489267 -0.01977571 0.053402368
-0.1052986 -0.10196246 0.115307905 -0.014711904 -0.06030769 -0.07166442 -0.0050928914 -0.008791359
0.010015178 0.15212643 -0.0028766233 0.041274566 -0.05169385 0.13591924 -0.031810246 -0.062904604
0.13684687 0.018149985 -0.14454262 -0.07408842 0.09933032 0.07198555 -0.032000173 0.062464625
0.15403338 0.08422496 0.10408672 0.08636933 0.0356256 -0.10928218 0.15175053 -0.10094621

encoder_gru.bias_hh_l0 f4 [192]
00000000: 0521 e83c ea3d f73d 2436 99bc 4a73 ac3d
00000010: f98d dfbd 223b 8c3d 73c0 e7bc ea7c 273d
00000020: 135c 0fbe 7b79 063e 18b7 d93d d13e 653c
00000030: 27f7 a4bd 4b7a 23be f217 9ebc 98da 8ebd
00000040: 7364 e33d 92a3 bc3d 1b03 0439 198c ebbd
00000050: 194b 753c cbce 293d ff62 0dbe 1ba2 87bc
00000060: 18a8 d9bc 0cf0 afbc 3da4 01bd 0c7f 17bd
00000070: de9a fa3c 533a bc3d 60cd bd3d 3d55 883e
00000080: 1c34 183e 81c7 003e be7c 1a3e 83a7 80bc
00000090: d404 543d d61e 763d 47e9 48bb 3d1f 28be
000000a0: e39f ccbd c83f cf3d 119a c6bb 33d4 08bd
000000b0: 5c12 92bd 0585 973c 05ed 283e dbdd d83c
000000c0: 14a0 cbbb 3b8d a23d 7951 523d 3cc2 883c
000000d0: bc3d 05be 464b bdbb b540 823e c5cc d3bd
000000e0: 2770 533d 5cf1 7f3d 2b64 8f3d 69e4 a73d
000000f0: a6f1 593c 56d9 e3bd d75c f9bc 0353 923d
00000100: 4f67 e63e 7648 3c3e 63d2 8f3e b79c 063f
00000110: 5dcc 8a3e 9c59 713e 29ec d83e ea35 9b3e
00000120: 46c6 963e 79ee f73e 904a c73e 133c 8d3e
00000130: 3e7f a33e 12e1 6d3e 087d bb3e 5177 c73e
00000140: c96f 863e 8e78 c23e 56d0 6c3e a9c0 d73e
00000150: 2b79 053f 2988 833e 2450 013f 132d fd3e
00000160: 3784 6e3e ee11 f03d 04e4 803e b311 de3e
00000170: 71ba b83e 9003 b23e ddf3 be3e 74bf 613e
00000180: a031 d43e db04 7d3e 622d 9c3e 5898 0d3f
00000190: 714f d33e d59b 9e3e 3fad 393e e605 db3e
000001a0: c711 c93e 482f db3e 04cf d13e 912f 913e
000001b0: 43df 923e aa0e 9a3e cf07 693e 7e90 233e
000001c0: 23ea 903e b745 8a3e 9889 df3e 90b5 193f
000001d0: f354 a23e 995f f23e 728f 633e d1b6 333e
000001e0: 3ea4 9c3e cd02 7f3e 9009 8e3e 2659 613e
000001f0: 7d7f 013f af15 1a3e e2a0 dc3e 307a a53e
00000200: b65e aa3d a6c0 28be 876e d43c 0463 0bbe
00000210: 2060 0fbe 6728 49bc e9f8 913d 5d82 b53a
00000220: 88f3 bb3c 8eef e5bd 2248 9dbc 5356 debd
00000230: 81c1 ed3c 41bd 113e c6bc c53d df92 a03d
00000240: b501 2ebe 8735 c03d 85b9 2d3d a38c 273d
00000250: 5359 0b3e 9da4 11bd 5c24 e0bd 150e ca3d
00000260: 352e 903d 6c92 e83d c611 18bd c083 ac3d
00000270: f7da 253e 0b10 13be f0ad dfbb 120f 053d
00000280: 045f f3bd 02fc 85be fceb 7fbd 203f c0bc
00000290: 8a72 3b3d 197b e7bd 6218 87bd d56c 8c3b
000002a0: f467 ecbc 3740 c93d b58c 25be 3c2f 1bbe
000002b0: 0100 06bc 2e5e 123e fc69 1dbd e8f8 a93d
000002c0: 1b59 173e 414a b93d 66a7 40bd 2e7b 95bc
000002d0: 986f fe3d aecc 123e 8736 cd3b 84fa 75bd
000002e0: aa0e e93d 791e 15bb 1c63 123e aad1 173d
000002f0: 9597 d53d 7d74 3dbd a034 e23d 2675 ac3c
0.028336057 0.12072356 -0.018702574 0.08420427 -0.10915751 0.06847216 -0.02829001 0.04089061
-0.13999967 0.13132279 0.106306255 0.013992027 -0.08054953 -0.1596462 -0.019298527 -0.06975287
0.111031435 0.09210886 0.00012589658 -0.11501331 0.014971518 0.04145698 -0.13807295 -0.01655679
-0.026569411 -0.021476768 -0.03165077 -0.036986396 0.030591425 0.09190812 0.09267688 0.26627532
0.14863628 0.12576105 0.15086648 -0.015704876 0.051762417 0.060088 -0.0030656622 -0.16418166
-0.099914335 0.10119587 -0.0060608466 -0.033405494 -0.07132408 0.018496046 0.16496666 0.026472976
-0.006214151 0.07937094 0.05134723 0.01669418 -0.13011831 -0.0057767956 0.25439993 -0.10341791
0.05162063 0.062486038 0.070015274 0.08197863 0.013302242 -0.11125438 -0.030439777 0.071447395
0.45000693 0.18387017 0.280902 0.5258288 0.27109042 0.2356934 0.42367676 0.3031457
0.29448146 0.48424128 0.38924074 0.27584895 0.31933016 0.23230389 0.3661883 0.3895822
0.2625716 0.379826 0.23126349 0.42139176 0.5213801 0.2568982 0.5051291 0.4944845
0.23292623 0.1172217 0.25173962 0.43372878 0.36079744 0.34768343 0.37295428 0.2204569
0.4144411 0.24708883 0.30503374 0.55310583 0.41271546 0.30978265 0.18132494 0.42777938
0.39271376 0.4280951 0.40978253 0.28356603 0.2868596 0.30089313 0.22756885 0.15973088
0.28303632 0.27006313 0.43659663 0.6004267 0.31705436 0.4733856 0.22222689 0.17550208
0.30594057 0.24903412 0.2774167 0.22006664 0.50585157 0.15047334 0.43091494 0.32319784
0.08318846 -0.1647974 0.02593161 -0.1361199 -0.14001513 -0.012277699 0.07127554 0.0013848055
0.022943273 -0.11227332 -0.019199435 -0.10856309 0.029022934 0.14232351 0.09655146 0.078405134
-0.16992839 0.093852095 0.042413253 0.040905606 0.13608293 -0.035557378 -0.10944435 0.09865967
0.07040063 0.11356053 -0.037126325 0.08423567 0.1619681 -0.14361589 -0.006826155 0.032485075
-0.11883357 -0.2616883 -0.06248091 -0.0234676 0.04576353 -0.11302776 -0.065964475 0.0042854347
-0.028858162 0.09826701 -0.16166957 -0.15154737 -0.008178712 0.14293739 -0.038431153 0.08299428
0.14780085 0.09047366 -0.047034644 -0.018247213 0.124236286 0.14335892 0.0062626037 -0.060053363
0.1137975 -0.0022753759 0.1429562 0.037065186 0.104293026 -0.04625367 0.11045194 0.021051954

enc_to_latent.weight f4 [32, 64]
00000000: ca4f 8a3d 1a10 fcbc 7b19 d1bd f426 ebbb
00000010: 9d91 4e3d fda9 c2bc 25e5 fcbd 5c74 253d
00000020: f754 053c b641 683b 52be 11be fbb6 1d3d
00000030: b13b a53d 1082 9b3c ad90 5ebe 8b58 d93d
00000040: 049a 483c 81e5 043e 5e21 213d 6ebf 92bc
00000050: 012c 4bbe 0f8e 863e a862 f0bd 785a b33c
00000060: 57db 0a3e 62f5 8dbb 8050 b73d 89c9 51bd
00000070: 5be4 06bd abbe f13c ef85 1bbd 50c2 983e
00000080: 8cca 413e eda6 d63d 8370 603e 89b0 48be
00000090: 1dec 803e 43ae 5b3e ec32 34bd 2624 b03d
000000a0: 613d a9bd 6554 ecbd bf7d 973d d7fd 50bd
000000b0: b709 2abe f4df b7bd 845b 5ebe b532 b93d
000000c0: 8bbc 223e 4071 623d 4a6f dbbd ee8b 023d
000000d0: 7d3b 1b3d 2338 3fbd 83ca 233c 07d4 453e
000000e0: 18e2 753b eece 4dbe ddc2 61bc e99d 31bd
000000f0: cdbf 86bd c9e7 a63c 92cc 063e 24ae 88bd
00000100: 3ac5 6f3d d01a 3abd 2c19 383d 4655 9dbd
00000110: 99c6 2d3d 01a6 103e 9e24 333e 6078 e23c
00000120: 8e0d 01be 23ff 873d 4cc6 f5bd 8b7d afbd
00000130: b288 40be 067b 0d3e 7c81 79bd a182 033e
00000140: 7083 6bbd cdc7 393d ea52 113e 96ac 97bd
00000150: 9fe7 7f3d b09b 04bd 5c89 e33d 259a 3ebd
00000160: 099e af3d 2353 283e ef2b 36bc ea92 acbd
00000170: 7d35 4cbd f663 6fbd e1cb 1ab9 e4cc 68bd
00000180: 3c6e 053e 1116 98bd 24cf bb3c c125 ffbd
00000190: 9a4e 8d3d 9dc1 eabd f4e6 4d3e 01f7 1a3b
000001a0: af11 ca3b d2ce 043e e763 083e dd33 a6bb
000001b0: 1362 c1bd 5ea0 4d3d 776c 2bbd 3bdd e5bd
000001c0: 3cd9 fdbc a37b 503d 7c95 b7bd a8f6 023e
000001d0: 12d3 24be 674e b03d 18ed 5fbd f2b8 953c
000001e0: 0d4c 0abe a068 283e 2369 8b3d 1968 c1bb
000001f0: ff07 17bd 32a1 3cbe 01cf 353d 62e3 c4bd
00000200: 5d0a 4d3d 09be b4bd 6c2f d23d 027a f03c
00000210: d6ab 203e 851d 0b3e 15a6 01bd 138c c7bd
00000220: ada0 03bd 4a19 713e 33c7 b8bb ba8e 79be
00000230: e845 3b3d 5f60 5e3c dd5d 78bd 42a6 263d
00000240: 0fd9 fdbd c594 9fbd d197 4f3e 255c d1bd
00000250: 80d8 b3bd 9bcb 3e3e 276a f13d afe2 f53d
00000260: 478a 65bd f479 103e 4e15 983b ddae fdbd
00000270: 2c4c 0dbd 051e c83b 8953 4fbe 70e0 313e
00000280: b5fc cf3d 733a 313d 950d b73d 1289 70bd
00000290: 7d18 3c3e 088f eebd 6e09 5a3e 9f10 023e
000002a0: b84b 87bd fb20 08be cc1b 403e 2501 d6bb
000002b0: 5efa 813d f03d 90bd 5d3d 5dbe 169b 113d
000002c0: 3e22 80bc ca6a 15be 23bf c5bd 4192 3d3d
000002d0: 522d ad3d d054 863d dd7f 2c3d 6ccb 0abd
000002e0: 6504 523e 18d5 50bd c25e 57bd 437d e33c
000002f0: 13cf cdbc 613a f33b 79e9 903d ee80 c63d
00000300: c6bc 4ebe 0849 0a3e c5c9 cbbd b541 4abc
00000310: 2781 a73c 5b77 f8bd 1389 543e 6bf7 3dbd
00000320: febf 2cbe bdf4 61be 0a79 3dbe f890 0b3d
00000330: 2519 2dbd 7f70 873d e172 aa3d 7d60 8b3d
00000340: 217f 05be 46f7 ee3c 0069 063e 5064 3ebe
00000350: 2b6c 3abe 32d5 c13d 540f 613e 8f35 a3bd
00000360: 766d 15be 3b75 dc3d 2c88 ddbd 4017 433d
00000370: 7bb8 21be 4bd8 c43d 7bbe b4bd 512d 3dbe
00000380: 3383 c0bd ff8e a03d 7cb3 95bd 0be5 4abe
00000390: 162e 943d 699e 4d3d 2955 163e e540 7bbd
000003a0: 5169 9f3d b354 103e dd9f c7bc 5d40 c1bd
000003b0: 552f ffbd 2919 16be 2532 363d 6d4f 9bbd
000003c0: 0638 86bd 56bf db3d afe8 edbc c1c3 143e
000003d0: 961f 0a3e ff47 5c3d 46c0 c3bd ec55 a6bc
000003e0: 61e7 87bd ec81 553d b521 343e 4bbc 3b3d
000003f0: 2fd5 fdbc c46f 243d d35f bfbd 94d1 e33d
0.067535 -0.030769397 -0.10209938 -0.0071762744 0.050431836 -0.023762697 -0.12348393 0.040394172
0.008137933 0.0035439557 -0.14232758 0.038504582 0.08068026 0.018982917 -0.21734877 0.10612591
0.012243751 0.12978174 0.039338462 -0.017913546 -0.19841005 0.26280257 -0.11737567 0.021893725
0.13560234 -0.0043322304 0.08950901 -0.05121759 -0.03293262 0.029509863 -0.037969526 0.2983575
0.18924922 0.10481057 0.2191792 -0.19598593 0.2518014 0.21453194 -0.043993875 0.08600645
-0.0826366 -0.115395345 0.07397031 -0.05102333 -0.16605268 -0.089782625 -0.21714598 0.09042875
0.15892236 0.055283785 -0.10714586 0.03187173 0.03789853 -0.046684396 0.009997013 0.19319163
0.0037518796 -0.20098469 -0.013779369 -0.043363485 -0.06579552 0.020374196 0.13163975 -0.0667384
0.0585377 -0.045435727 0.04494588 -0.0768228 0.042425726 0.14125825 0.17494437 0.02764529
-0.12602827 0.0664046 -0.12000713 -0.08568867 -0.18802145 0.13816461 -0.0609145 0.128428
-0.057498395 0.04535656 0.14191785 -0.07405965 0.06247675 -0.032375038 0.111101836 -0.046533722
0.08575065 0.16437964 -0.011118873 -0.08426459 -0.049855698 -0.05844494 -0.00014762535 -0.056836024
0.13030332 -0.07426084 0.02292592 -0.12458373 0.06899758 -0.1146271 0.20107633 0.002364576
0.006166659 0.1296952 0.1331936 -0.0050721006 -0.09442534 0.050201766 -0.041851487 -0.11223837
-0.030987374 0.05089916 -0.08964059 0.12789404 -0.16096142 0.08608704 -0.05466947 0.018276665
-0.13505574 0.16446161 0.068071626 -0.005902302 -0.03687286 -0.18420866 0.044386867 -0.09613682
0.05005871 -0.08825309 0.10262951 0.029355053 0.1569055 0.1358548 -0.03165253 -0.09743514
-0.032135654 0.23544803 -0.005638981 -0.24370852 0.045720965 0.013572781 -0.06063639 0.0406859
-0.12394916 -0.077920474 0.20272757 -0.10222653 -0.087815285 0.18632357 0.11787825 0.12006127
-0.056040075 0.14109021 0.0046412116 -0.12386868 -0.03449647 0.006107094 -0.2024671 0.17370772
0.10155622 0.043268632 0.089381374 -0.05872447 0.18368717 -0.11648375 0.2129266 0.12701653
-0.06606239 -0.13293831 0.18760604 -0.006530898 0.06346582 -0.07043064 -0.2160544 0.035548292
-0.015641328 -0.14591518 -0.09655597 0.046282057 0.0845591 0.065591455 0.042114127 -0.033885404
0.20509489 -0.050984472 -0.052580602 0.02776969 -0.025123155 0.007422731 0.070757814 0.0969256
-0.20189199 0.13504422 -0.09950594 -0.012344767 0.020447327 -0.1213214 0.20755415 -0.046378534
-0.16870114 -0.22066016 -0.18503204 0.0340738 -0.042260308 0.06613254 0.08322693 0.06805513
-0.13036777 0.029170644 0.13125992 -0.18592954 -0.18205325 0.09464492 0.21978503 -0.079692
-0.14592537 0.107645474 -0.10816988 0.047629595 -0.1579303 0.09611567 -0.08825394 -0.18474318
-0.09400024 0.07839774 -0.073096246 -0.19813935 0.07235353 0.0501999 0.14680924 -0.061341185
0.077837594 0.1409481 -0.024368221 -0.094361044 -0.124602 -0.14658035 0.044481415 -0.07583509
-0.065536544 0.10729854 -0.029041616 0.14527799 0.13488612 0.0537796 -0.095581576 -0.020304643
-0.06635929 0.052125856 0.17590983 0.045833867 -0.030985443 0.04014565 -0.09344449 0.11123958

enc_to_latent.bias f4 [32]
00000000: 7d6d d43c 9e7a b03d 1512 11bd 090e 043d
00000010: e220 2a3d 1d82 263d bace 433d fa26 28bd
00000020: 37dd 41bc 44ab 56bd e669 21be 4aba dbbd
00000030: 27f3 26bd 1813 813c 9de1 00be 68f8 693d
00000040: 0008 16bb 0d37 13bc f380 b23b c5e2 d5bd
00000050: fa9f fabd 035d 823c 9d75 ebbd 917d b0bd
00000060: 7230 963c d769 23bd 9544 53bd a969 9bbc
00000070: 369c 313c a683 33bd 3fe9 1cbc c00a fb3c
0.025931114 0.08617137 -0.035417635 0.032239947 0.041535266 0.04065143 0.04780457 -0.041052796
-0.011832527 -0.052409425 -0.15763053 -0.10728891 -0.040759232 0.015756175 -0.12586065 0.057121664
-0.0022892952 -0.008985293 0.005447501 -0.104436435 -0.12237544 0.015913492 -0.11497042 -0.086177
0.018333647 -0.03989586 -0.051579077 -0.018971281 0.010840466 -0.04382672 -0.009577095 0.030644774

decoder_gru.weight_ih_l0 f4 [192, 32]
00000000: 07f1 fd3d 4d3a 07be 9c00 203d dd80 023e
00000010: 1f88 733d db11 283b f71b 193d ee34 0d3e
00000020: 1e79 df3d d839 1bbe 3c83 d33d 7e06 44bd
00000030: 9677 7ebd 40cf 2abe 2228 003b 0b74 f73c
00000040: 9f2f 9cbe ac26 ffbd 254b 9d3e 2ad8 acbd
00000050: bea0 963d 52d3 d93d dffc e03d 485c 8c3d
00000060: 534f efbd 6f8f d7bc 0704 14bc fd63 a43d
00000070: 33b3 0f3c 5990 e23d 502a 933d 3c4e 14be
00000080: 7771 0a3c 3247 14bd b34e f63d b477 29be
00000090: 65b3 323e 3acd 503e de0e 0abd 6ca9 afbe
000000a0: 45de 03be a8e7 ef3c b168 153e d5ce bcbd
000000b0: b08f a2bc 5784 e93d bde2 163d 01db 08bd
000000c0: 6d18 173d e099 903d 394d 28be b9f7 3bbd
000000d0: 4dc2 063c b756 b7bd becc 0d3c a2ba 54bd
000000e0: f368 acbd ff8f fb3b fa22 acbd ab97 a3bd
000000f0: b887 45bd b28b 5d3d 8b02 0bbe c0fe 7b3d
00000100: 3967 15be 50cb 1c3e ffe2 53bc d1f4 f23c
00000110: 0045 1dbc 0345 93bd 0eea eebc 14ac 1abe
00000120: 4633 abbd b20d d13d 56ef 17be 3ca7 dbbd
00000130: f884 643e d3a7 203e fd35 133e 988d f3bd
00000140: 7a01 293d 8df6 293d 2182 263c 145c 803d
00000150: 629b a83c fb12 90bc 692f 79bd 85c3 003d
00000160: 27c8 0d3e aa6a 313e 9974 613d 1671 1e3e
00000170: e80e c2bd a5ff 5fbc 3657 5cbe db07 05be
00000180: e51e d03d a409 3c3c 9c6a 0a3e d6af cc3c
00000190: 6729 79be ce36 81bd 3d84 4e3e 56af 1c3e
000001a0: 0ebf 8abd 6cf3 873c 0536 3e3d 69e4 b93a
000001b0: 4406 203e a2a7 3f3c b251 983d 2c49 65bd
000001c0: c863 a6bd 033e 6abc 6bc7 b73c aaad e1bd
000001d0: 037c 9cbd 0c7c 7fbd 8b6a 843d 4808 18bc
000001e0: 5c0a a7bd 6489 8f3d c0ff 5abe ad79 83bd
000001f0: 154f 483d 2495 4d3e 969a b5bc db2f c33d
00000200: d8f3 3abe f8aa 09be eba9 64be 9787 35bd
00000210: b8cf 7cbd 698b 0abe fd26 f53d a83a 683e
00000220: 7899 0f3e 3ba6 e6bd 5574 38be 0835 2ebe
00000230: 5dcc 94bc 8850 0fbe 84e6 02be 6414 7e3d
00000240: eddf 023c 801b 58be c3ba 663e 24e0 c33d
00000250: 899c 7a3e 312d 4b3d fb49 94bd 1b91 cb3d
00000260: d69e 463e d6ef 75be 13f8 c33d 10a1 853d
00000270: fb8a e03d aebd c93d c9e3 c3bd af27 85be
00000280: 7568 f1bc a1d4 aabc 3448 063e e8b7 abbc
00000290: fe0f cabd db74 4d3d 1886 b63d 4164 66bd
000002a0: 5671 d8bd a2ed aabc 0237 90bd 93f0 bdbd
000002b0: 4fa1 34be 2984 91bd 838c bebd 5608 0f3e
000002c0: 0535 1abb 2732 a7bb eeb6 c7bc a69b 1b3e
000002d0: 2fad c0bd 9f92 48bd 1080 d9bb 1634 0c3d
000002e0: 8300 273e 81fb 86bd 2abe f2bd 1860 e03d
000002f0: 3a23 4c3d 1fd2 013e 700f 05be 8a53 8cbc
00000300: 4ca4 09be 8c6f bfbd 203c f8bd b3a1 debd
00000310: 7934 01bd 23d2 0ebd 0a1d 86bd 142e 6cbe
00000320: 2ec3 823c b1ab 40bc 9341 0bbd 5de8 4cbd
00000330: 7637 2bbe 269d 1b3e 563e 26bd 8d31 d5bd
00000340: 0914 75bd 4b66 f53c 5ec2 1e3e ea12 ad3d
00000350: 8b86 31bd 40b2 403e 5422 73be 2514 6cbd
00000360: faa8 523e c6d3 17be c31a 893e 22d3 aabd
00000370: 67a0 ac3d 1da5 d33d 15e6 b03d 1a8f d1bc
00000380: 6ca7 4bbe 928f b1bd 5923 b8bd ab9e 67be
00000390: 194c d83d 9351 103e d565 30be 207c bdbd
000003a0: 86b9 a33d 69d0 353d 4688 c53c 7823 253c
000003b0: 8178 d7bd a94c a53e 1298 bc3d 1eb6 d03d
000003c0: 1d24 163e 4d9e 2ebc 4e94 2bbd 620e a93d
000003d0: 23ea 82be 8b6a 15be 3cec 0abd 6e05 88bd
000003e0: aabd dc3d bc9a 003d 5b28 433d 970e edbd
000003f0: b714 5f3d 18a8 ed3d eb9c 94be aba5 db3d
0.12399488 -0.13205834 0.03906308 0.1274447 0.059455987 0.0025645408 0.037380185 0.13789722
0.10911773 -0.15158784 0.10327765 -0.047857754 -0.062125765 -0.16680622 0.001955517 0.0302067
-0.30505082 -0.12458548 0.30721393 -0.084396675 0.07354878 0.10636009 0.10985731 0.06853539
-0.11685052 -0.026313512 -0.009034163 0.08026884 0.008770752 0.110626884 0.07185805 -0.14482969
0.008449904 -0.03620071 0.120267294 -0.1654957 0.17451246 0.20390788 -0.033705585 -0.34308946
-0.12877758 0.029285267 0.14590718 -0.092191376 -0.019843906 0.11402195 0.03683733 -0.033411983
0.03688853 0.07060599 -0.16435708 -0.045890544 0.008225036 -0.089520864 0.008654771 -0.0519358
-0.08418455 0.007677078 -0.08405109 -0.07987913 -0.048225135 0.054088302 -0.13575189 0.061522245
-0.14590158 0.15311933 -0.012932538 0.029657753 -0.00959897 -0.07190897 -0.02916434 -0.15104705
-0.08359389 0.1020769 -0.14837393 -0.10725257 0.22316349 0.1568902 0.14376064 -0.11892241
0.041261174 0.041494895 0.010162861 0.062675625 0.020581905 -0.017587176 -0.06083623 0.031436462
0.13845883 0.17325845 0.055042837 0.15472826 -0.094754994 -0.01367179 -0.21517643 -0.12991278
0.10162143 0.011476908 0.13517231 0.024986189 -0.243322 -0.06309281 0.20167632 0.1530126
-0.06774722 0.016595565 0.046438236 0.0014182451 0.1562739 0.011697682 0.07437457 -0.055977985
-0.081245005 -0.014297011 0.022433957 -0.11019452 -0.07640841 -0.06237416 0.06465634 -0.009279318
-0.08156273 0.07008627 -0.21386623 -0.06419692 0.048903544 0.20076424 -0.022168439 0.09530612
-0.18257082 -0.13444126 -0.22330444 -0.04431876 -0.061721534 -0.13529743 0.11970327 0.22678626
0.14023387 -0.11262175 -0.18013127 -0.17012417 -0.018163854 -0.13995564 -0.12783247 0.062031165
0.007987958 -0.2110424 0.22532181 0.09564236 0.24473776 0.049603645 -0.07240673 0.09939786
0.19396529 -0.24017271 0.09568801 0.06524861 0.109640084 0.09850632 -0.09564931 -0.2600684
-0.029468754 -0.020853342 0.13113481 -0.020961717 -0.098663315 0.05016027 0.08912295 -0.056247953
-0.10568492 -0.020865265 -0.07041742 -0.092744015 -0.1763966 -0.07105286 -0.09304144 0.13968024
-0.0023530137 -0.005102414 -0.02437922 0.15196094 -0.09408032 -0.048967954 -0.0066375807 0.03422936
0.16308789 -0.06590939 -0.11852677 0.109558284 0.049838282 0.12677811 -0.1299417 -0.017129678
-0.1344158 -0.09347448 -0.12120843 -0.108706854 -0.031544182 -0.03486837 -0.065485075 -0.23064452
0.01596221 -0.011759684 -0.033998083 -0.050026286 -0.16720375 0.15196666 -0.040586792 -0.10409842
-0.05983356 0.029956004 0.15503833 0.08450873 -0.0433412 0.18817997 -0.23743564 -0.0576364
0.20572272 -0.14826879 0.2677823 -0.08341052 0.08429032 0.10334227 0.08637635 -0.025580931
-0.19888085 -0.08669962 -0.08991117 -0.22619121 0.105613895 0.14093618 -0.17226346 -0.092521906
0.0799437 0.04438821 0.024112832 0.010079257 -0.10521031 0.3228505 0.092086926 0.10190986
0.14662214 -0.010657859 -0.04188948 0.082546964 -0.25569257 -0.14591424 -0.033916697 -0.06641661
0.10778363 0.031397566 0.047645908 -0.115750484 0.054463115 0.11604327 -0.2902597 0.10724958

decoder_gru.weight_hh_l0 f4 [192, 64]
00000000: 6d4d b4bd 03f8 523d c918 bc3d 9c4e e73c
00000010: f27c a3bb 036e b8bd c461 ef3d b957 bb3d
00000020: b1be 8f3a 24b1 7b3d 6602 073d adbd 4b3b
00000030: 6888 803c cb56 403d c9d3 ab3d bf6f 2abd
00000040: 41ca 1cbe 264d 01be 476b 67bd 6c33 babd
00000050: 36d9 32bd 6df8 36be 1282 01bd f383 7abd
00000060: df3c 15bc 92e1 aa3d 4505 68be 64d4 3dbe
00000070: 31b1 953c 35a3 1e3e 27d7 133e 9684 15be
00000080: d972 02be 7aa2 ca3c 259d a73d bf0f edbd
00000090: 832a 15be dbb2 54bd 4bab ab3d 6076 1fbd
000000a0: d423 d4bd 2c05 d53d dbce 8ebd 98f3 063d
000000b0: fdfc 533d dcd4 223e 83c9 ae3d ccf1 803d
000000c0: 926e 1ebc 699c d7bc 99c1 7fbe a302 013e
000000d0: 7eca 263e 9dab b93c 2b90 8e3d e364 c23c
000000e0: 47f4 4bbc 17d0 29bc 8439 c73d 882e 3b3d
000000f0: 5b0c e33d 9aa7 883d 88af 3e3c d510 fbbd
00000100: 6dab 3a3d a975 de3d 5c70 86bd fdad 01be
00000110: 6628 ff3d 897e 153e ef05 0bbe 3df8 b7bd
00000120: efee c1bd f741 d0bd 59f5 e8bd 7d6a b5bd
00000130: 6489 cb3d f0d5 c63d 822c 733b 83e9 27be
00000140: 94e3 5d3d a2ae 9ebd f2f0 6ebc bbcc 013d
00000150: de4e 053d 1b32 793c cdde 4d3e a035 7cbe
00000160: c81e a4bd de68 993c e256 92bd 8ee0 8abc
00000170: 121c a33d 35ff d3bd 9b1d d2bb e9a7 43bd
00000180: 4019 45be 6b6d e4bd 96de 183e edb5 123c
00000190: 827c 1dbd 2398 2e3e 3c80 553c 07a6 12be
000001a0: 8bbd d3bd c648 4b3e 3446 983d d74f 59be
000001b0: c650 ebbd 6eab 94bd b356 97bd 6906 843d
000001c0: 5ccc 7bbd 9511 fa3c 3d19 eb3c 92f3 0f3e
000001d0: 885b ae3d a531 c4bd a73c 44bd 367d 4d3e
000001e0: 34a0 f3bc a1d0 64be a540 14be 0490 8fbc
000001f0: b315 38be 64b4 9c3d c87b abbc 4a8f 65be
00000200: a3b4 bcbc ad38 39bd c24f 58bd 983a 0dbe
00000210: 3752 2cbd aaf5 4dbd 5910 213c ebe8 2fbc
00000220: d484 eebd b7d7 113e 7e4a ca3d 4d15 d93d
00000230: 4f88 243d 0a73 d6bd 30b9 723c a09d e63d
00000240: 8a81 513e 1235 883d 91ee 4ebe bbfa d23c
00000250: 6593 46bd 84ef 6ebc 1ec3 e4bd efa7 60bd
00000260: cfb2 a1bd 98a4 e2bd 7164 743e cb76 e13d
00000270: 39f8 113e 58a3 2abe ed0f 2e3d 99ab ffbd
00000280: 5451 2fbb e2c2 c4bc 8abb f13d 3d88 6ebc
00000290: c018 2f3e 4f00 623d 2ace 0ebc be78 a5bd
000002a0: 32c4 32bd 3031 71be bb19 033e 3d58 c83d
000002b0: ed73 f4bc f693 553d 10d1 21be 4d95 36be
000002c0: bafe 05be bf01 d83d 4520 8ebc 5a70 2c3e
000002d0: c10a e83c fdd4 52bd f226 07be 698c 5cbc
000002e0: eb1a 5a3d 344b 64bd 21b4 a63b 2c44 ed3d
000002f0: 63ce 123e 954d c3bd fe4b 98bb e9ce dd3d
00000300: f27b 23be 5d83 973c 20c7 6c3c 60dc 6abd
00000310: f8a7 89bd cf7a 9b3c 7161 b1bd f2fa 353d
00000320: fb56 88be 36d6 a93e 3258 8dbd 29e6 9e3d
00000330: 50f1 febd 8158 c8bc c6b8 e53d f362 d3bd
00000340: f766 333e 84fb 89bc ec09 143d ead0 d7bc
00000350: 2845 923c 0cab ca3c 7391 063d 9b3a 45bd
00000360: 4c98 513d ffe0 a3bd bf38 803d 7063 4a3c
00000370: c0e0 b83c 8ff2 963d 9772 b13c ff9d 4fbe
00000380: 8055 563d ae16 7b3e e0f6 873d 53b6 5ebd
00000390: 7331 0e3d 7ba9 793c 0397 313d 973a 9abd
000003a0: dea7 d2bd 7d4e 5a3d 090e 87bb e108 a4bc
000003b0: 2870 fd3c 8919 dc3d 9f08 693d bb28 03be
000003c0: 0c90 89bc 2e99 883c 7f7f 54be e345 8f3d
000003d0: 8a2d 9f3b 1891 48bd 7bc5 52bd 30d1 7f3d
000003e0: 98ed 2d3d 8d9e bd3c 5776 603e f587 b53d
000003f0: c4ae 213e 31a6 77bd 5e11 3c3d 2b3e 0ebd
-0.0880383 0.051506054 0.09184415 0.028235726 -0.00498926 -0.09005358 0.11688569 0.09147591
0.0010966865 0.06144823 0.03296127 0.0031088397 0.015690044 0.046957772 0.08390004 -0.041610476
-0.15311529 -0.12627086 -0.056498792 -0.09091839 -0.04366418 -0.17868204 -0.031618185 -0.061160993
-0.009108751 0.083438054 -0.2265826 -0.18538052 0.018272968 0.15491946 0.14437543 -0.14601359
-0.12739123 0.024735678 0.0818427 -0.11575269 -0.14566998 -0.051928382 0.08382281 -0.03893125
-0.10358396 0.10401377 -0.06973048 0.032947153 0.05175494 0.15901512 0.08534529 0.06296119
-0.009669917 -0.0263197 -0.24976195 0.12598662 0.16288182 0.02266484 0.069610916 0.023729747
-0.012448377 -0.010364554 0.09727767 0.045698673 0.11086341 0.066725925 0.01163853 -0.1225907
0.04557364 0.10862286 -0.065643996 -0.12664028 0.12458877 0.1459905 -0.13576482 -0.089828946
-0.09469401 -0.10168832 -0.11374921 -0.08858202 0.099383146 0.09708774 0.0037105386 -0.16397671
0.054172114 -0.07748152 -0.014583813 0.031689387 0.032545917 0.0152097 0.20104523 -0.24629831
-0.080136836 0.018726762 -0.07145478 -0.01695278 0.07964338 -0.10351411 -0.0064122207 -0.047767553
-0.19247913 -0.11153682 0.1492866 0.008954507 -0.038448818 0.17050223 0.013031062 -0.14321147
-0.10338887 0.1985198 0.07435265 -0.21221863 -0.11490016 -0.0725926 -0.073895834 0.06446535
-0.06147419 0.030525962 0.028698558 0.14057758 0.08513552 -0.095797814 -0.047909405 0.20067295
-0.029739477 -0.2234521 -0.14477785 -0.017524727 -0.17977028 0.07651594 -0.020933047 -0.22417942
-0.023035353 -0.045220066 -0.052810438 -0.13791883 -0.042070594 -0.05028311 0.009830558 -0.010736684
-0.11646429 0.14242445 0.098774895 0.10599766 0.040169057 -0.10471161 0.01481466 0.11260533
0.20459571 0.06650747 -0.20208193 0.025754323 -0.04848041 -0.014583472 -0.11170028 -0.054847654
-0.07895433 -0.1106655 0.2386644 0.11008986 0.14254846 -0.16663873 0.042495657 -0.124839015
-0.0026751356 -0.024018709 0.11803348 -0.014558849 0.17099285 0.055176076 -0.0087161455 -0.0807967
-0.043644138 -0.2355392 0.12802784 0.09782455 -0.029840434 0.05214306 -0.15802407 -0.17830391
-0.13085452 0.10547208 -0.017349372 0.16839734 0.02832544 -0.051472653 -0.1319845 -0.013461211
0.053248327 -0.05573578 0.005087391 0.115852684 0.14336543 -0.09536282 -0.004647731 0.108304806
-0.1596525 0.018495256 0.014451772 -0.057339072 -0.067214906 0.018979458 -0.086611636 0.044428773
-0.2662886 0.33171242 -0.069015875 0.07758743 -0.124483705 -0.024456264 0.11216883 -0.103216074
0.17519747 -0.016843565 0.036142275 -0.026344735 0.017855242 0.024739765 0.032853555 -0.048151594
0.051170632 -0.08001899 0.062608235 0.012352809 0.022568107 0.07370483 0.021661086 -0.20275114
0.052327633 0.2452037 0.066388845 -0.054373097 0.034715127 0.015238161 0.043356907 -0.075307064
-0.102859244 0.05329751 -0.004121546 -0.020023765 0.03093727 0.10747058 0.056892987 -0.12808506
-0.01679232 0.016674604 -0.20751761 0.06995752 0.0048577236 -0.048966497 -0.051457863 0.062455356
0.042462915 0.023146892 0.21920143 0.08863822 0.15789324 -0.060461227 0.045915 -0.034727257

decoder_gru.bias_ih_l0 f4 [192]
00000000: 98d2 70be e151 853d a5df 043d 7ba9 753d
00000010: 9cdb 51be 5966 41bb 21e2 1fbd baa6 6d3d
00000020: bc9d cb3e b0be d53d 5736 393d f5d8 11bd
00000030: 6bf0 0bbe a51b fcbc 506e e7bc d01a 073e
00000040: 284f 9c3c be4e 153e 2f81 823c 7f02 09bd
00000050: eedd 333d e90b 903e cb67 633d 5b9a 033e
00000060: 2c87 ca3d 22d6 a93e 70c8 a03e 37d1 813d
00000070: 812e a43d 1d47 45bd 6537 ca3d 9fa1 413e
00000080: 9123 bc3c 4e8e c6bc 2256 8e3d 7251 b6bd
00000090: fcf3 333c f8e4 06bd 5472 93bd a41d aebd
000000a0: 29de 7e3c 7805 523c f21f 803d 2cda dd3c
000000b0: b99b 973e 5166 843d bf95 82bd a66f e03d
000000c0: 04ce a7bd 3136 8cbc 5882 293e eaab 623e
000000d0: 02a1 3a3e 9da1 babd fd2e 46ba 4aca fd3e
000000e0: ef41 1fbd ca07 8e3e 9c37 40be e895 813e
000000f0: 2fe3 da3c 4699 893d 87dc 3bbd 911c 603e
00000100: 370e 3dbe 2699 b0be 1edb f0bd 14e4 28be
00000110: bca7 c7be b0ad 1fbc d4fe 16be 41c6 20be
00000120: 9b63 9a3e 93f9 6e3e bbc9 88bc 556d 43be
00000130: ca0d 9abe 567a 0ebf ec82 90be 3379 c6bd
00000140: e377 b7bc f44e 82be d50a 39be 3cc0 91bd
00000150: ff73 92bc c2f8 1abe 6ead 023e 8f04 17be
00000160: 13af 6cbe 7530 e7bc 5825 80be a33c ed3d
00000170: 1050 94bd 69f6 3cbe 5c60 27bd b849 cb3c
00000180: d88f 1dbe 52bb 67be cfec 113e 3e55 9dbe
00000190: a213 01bf 87eb 10bd 22d5 333e f277 e7bd
000001a0: 9972 e6bb 0c25 03be 86d3 893d ba55 b6bc
000001b0: 0e83 3b3e 8789 193d 427c 0ebf 180c a7be
000001c0: e2da cc3d b89e f7be b651 7e3d 53a9 2a3d
000001d0: 1e77 813d 4078 c8be fc23 a33e 3676 1dbf
000001e0: 706a 61be 1e1f 52be 996d 2ebe 0dd0 303e
000001f0: f313 e63c 3029 cdbe 1ffe 03bf 2565 083e
00000200: 0a0a 703d b803 06bd 2d1c 97bd 76ca 25bd
00000210: 7547 df3c a68e 8fbb f61e 4a3c ad4c 9bbb
00000220: 579f 2e3d 2fe2 263d bfff 60bd df4e 5e3d
00000230: 8e92 a5bd 6676 24be 3e00 573c 08d6 f8bc
00000240: 49a2 55bd 0c11 95bd 3d47 54bc 4ddd d1bd
00000250: 477d cfbc 93be 09bd 47b2 d4bd 99e0 3cbd
00000260: 27e4 2e3d a47f c83c 5bf7 ccbb c911 ce3c
00000270: 1447 d3bd 7a1a 263e aa6d 36bc 5e22 b3bd
00000280: 7228 55bc c389 a8bc d7b4 01be 9a4a bbbc
00000290: fea1 723d 9798 3fbc 6bfa f4bd 595d 4dbd
000002a0: 8014 8bbd ccf7 193e 7853 1b3e 85dc 263d
000002b0: ba4b abbd e2cc 7e3b 04b9 743d f30d 9bbd
000002c0: 344d 23bd 5da7 62bd 7216 fbbc 3b43 7c3d
000002d0: f35f 24be 03ca e3bc 588a 323d 690c 46bd
000002e0: e8e8 b0bb 0589 333e ee26 7d3d a30d 223c
000002f0: 00f0 d83d 243c ba3d 1df5 9d3d 2652 913d
-0.23517835 0.06509758 0.032439847 0.059976082 -0.2049393 -0.0029510467 -0.039034013 0.05802033
0.3976878 0.104367614 0.04521784 -0.035607297 -0.13665931 -0.0307749 -0.028250843 0.13193822
0.019080713 0.14580819 0.01593074 -0.033449646 0.04391282 0.28134087 0.055518907 0.1285185
0.09889063 0.33171183 0.31402922 0.06338733 0.080166824 -0.048163522 0.09873847 0.1890931
0.022966178 -0.024237778 0.06950022 -0.08902253 0.010983463 -0.032933205 -0.07199541 -0.08501747
0.015555897 0.012818687 0.06256093 0.027081572 0.29610994 0.06464828 -0.06376218 0.10958795
-0.08193591 -0.017115684 0.16553628 0.22135893 0.18225482 -0.091128565 -0.00075601024 0.49568397
-0.03888124 0.27740318 -0.18771213 0.25309682 0.026719658 0.06718688 -0.04586461 0.21885897
-0.18462454 -0.34491843 -0.11760543 -0.16493255 -0.3899516 -0.009746 -0.14745647 -0.15700628
0.30154118 0.23337393 -0.016697755 -0.19084676 -0.30088645 -0.5565542 -0.28224885 -0.09691086
-0.022396034 -0.2545086 -0.18070538 -0.07116744 -0.017877577 -0.15133956 0.1276147 -0.14747833
-0.2311366 -0.028221348 -0.2502849 0.11583831 -0.07241833 -0.18453373 -0.04086338 0.024815425
-0.15386903 -0.22630051 0.14250492 -0.30729097 -0.5042058 -0.035380866 0.17561772 -0.11302175
-0.007032704 -0.12807101 0.06729798 -0.022257674 0.18311712 0.037484672 -0.5565835 -0.32626414
0.10002686 -0.4836328 0.062089644 0.041665386 0.06321548 -0.39154243 0.3186339 -0.615085
-0.22013259 -0.20519683 -0.17033996 0.17266865 0.028085684 -0.40070486 -0.51559633 0.13319834
0.058603324 -0.03271839 -0.07378421 -0.040476285 0.027255753 -0.0043810187 0.012336483 -0.004739365
0.042632427 0.04074305 -0.0549314 0.054274436 -0.08084594 -0.1606079 0.013122616 -0.030375496
-0.05215672 -0.07278642 -0.012956438 -0.10247288 -0.025328292 -0.03362901 -0.10385566 -0.04611263
0.04269805 0.024474926 -0.006255073 0.025154965 -0.103162915 0.16221038 -0.011134544 -0.087467894
-0.013010131 -0.020573502 -0.12666641 -0.022862721 0.05923652 -0.011694095 -0.11961826 -0.05013785
-0.067910194 0.15035933 0.1516856 0.040737648 -0.08364053 0.0038879444 0.059746757 -0.0757102
-0.03986855 -0.05533539 -0.030650351 0.061587553 -0.16052227 -0.027806288 0.043588966 -0.04835168
-0.0053988583 0.17532738 0.061804704 0.009890947 0.10592651 0.09093502 0.07712767 0.07095747
