Artifact/model_training/final_models/gru_autoencoder.pt (torch, 155599 bytes, 12 tensors)

encoder_gru.weight_ih_l0 f4 [192, 16]
000000 ee ef 24 3d a5 6e c7 bc 9c 55 89 bd f2 90 00 3d
       0.040267877 -0.024344752 -0.06705782 0.03138823
000010 08 6f b7 3d 5d 08 01 00 ad fe ba bd 48 5a f2 bd
       0.089567244 9.4836e-41 -0.09130607 -0.11833626
000020 b8 a3 1c 3d d6 09 1a bd 51 84 8c bd e6 00 ef 3c
       0.038242072 -0.037607037 -0.06861175 0.029175233
000030 95 5d 45 bb 6a 7f e7 bc b8 fb 1b 3e a4 ce 53 bd
       -0.0030115594 -0.028258998 0.15232742 -0.05171074
000040 2c 59 2c 3e bb 84 2d be 67 04 9b bc 8c ea 8b bd
       0.16830891 -0.16945164 -0.018922998 -0.06831846
000050 25 79 40 bd 89 c8 a6 81 0f 95 2d bd f3 91 81 bc
       -0.046990532 -6.1266523e-38 -0.04237848 -0.015816664
000060 ed f2 0b 3d 5f 1d 47 3c e0 5a 93 3d 43 d8 aa bd
       0.03416722 0.012152999 0.071950674 -0.0834203
000070 e9 a0 c2 3d 29 ec 33 be fc 45 26 be f3 4e 85 3d
       0.095033474 -0.17570557 -0.16237634 0.06509199
000080 d5 6f fa 3c f3 17 b3 bc c9 b0 1d 3e d8 7c 6b bd
       0.030570904 -0.021862006 0.1539947 -0.057492107
000090 cd bf 58 bc fc 8d a8 01 60 52 d8 3c 32 f6 b0 3c
       -0.013229323 6.191719e-38 0.026406467 0.02160177
0000a0 81 00 11 3e e7 89 4c bd 9c ac 86 3c df cf 30 3e
       0.14160348 -0.0499362 0.016439728 0.17266797
0000b0 85 fa d0 bc b0 47 21 bd 92 70 99 3d cd 33 ef bd
       -0.025510082 -0.039375007 0.07492174 -0.11679802
0000c0 bd b0 96 3d 69 2b 05 be 14 6c 16 be 38 e1 b4 bd
       0.07357929 -0.13004841 -0.14689666 -0.088320196
0000d0 f7 79 b4 bd 95 e5 67 81 2f 16 5d 3b a8 5e ee bc
       -0.088123254 -4.2592716e-38 0.0033735146 -0.02909787
0000e0 51 06 d9 bc 1c 9a 58 bc 7c 34 ac bd bf c6 8f 3d
       -0.02649227 -0.013220336 -0.08408448 0.0702033
0000f0 13 33 9e 3d 78 73 8e bd 2b a4 45 3c 12 74 37 3d
       0.077245854 -0.06955618 0.0120630665 0.044788428
000100 1c 37 1b 3d 9b d1 89 3c 59 18 60 3d 7c 8b b1 3d
       0.037894353 0.01682358 0.05471072 0.08669183
000110 bc a1 77 bd ec 4d c1 00 55 67 90 bd 42 a6 fd 3d
       -0.060456976 1.7752204e-38 -0.07050959 0.12385227
000120 87 16 de 3d 97 aa 01 3d 0e 74 5f be d7 ca 5d 3e
       0.108441405 0.031656828 -0.21821615 0.21659409
000130 2c bf 09 3c 8d 67 5b bd af f0 04 3b e5 97 2e 3e
       0.008407395 -0.05356555 0.002028506 0.1705013
000140 06 34 4c be bf 1a d4 bd 8a f4 e3 3c 2a 1a 48 3d
       -0.1994172 -0.10356664 0.027826566 0.048853077
000150 9f 14 07 3e 52 ef 59 80 0b 7d 81 bd ba 4a ac bd
       0.1319146 -8.259211e-39 -0.06322678 -0.084126905
000160 b4 da 14 be d9 a1 45 be 86 c6 68 3d b7 5c 64 bd
       -0.14536554 -0.19300021 0.05682995 -0.055752482
000170 45 d2 bb 3b 9d e1 25 3d ca 4e dc 3d be 29 2e 3d
       0.005731853 0.040498365 0.10757215 0.042520277
000180 b6 d0 09 3d 94 98 41 be 63 c9 2b be 3d 41 63 bd
       0.033646308 -0.1890586 -0.16776042 -0.055482138
000190 d8 4e 15 bd 46 95 8e 81 3c df 06 bd 89 24 46 3e
       -0.036452144 -5.237676e-38 -0.032927737 0.19349875
0001a0 d1 ee 03 bd 42 6d c4 bd 27 49 00 3e b0 46 67 ba
       -0.032210175 -0.09591152 0.12527905 -0.0008822484
0001b0 bb a5 3e 3b 61 9e 08 be 77 06 f6 bd 80 68 db 3d
       0.0029090482 -0.13341667 -0.12012952 0.10713291
0001c0 14 26 55 3d 74 d8 f0 3b a0 20 bb 3d 11 10 21 be
       0.052038267 0.007350022 0.09137082 -0.15728785
0001d0 a0 78 a4 bd 3e 18 4f 01 94 90 40 be 0f 35 1f bd
       -0.0803082 3.8037288e-38 -0.18805152 -0.03886896
0001e0 c0 f3 ce bd 03 24 87 bd 23 6d 95 bd 00 9e 1d be
       -0.101050854 -0.065986656 -0.07296207 -0.15392303
0001f0 ee 5e 33 3c 40 06 e5 3d 33 14 25 bd c6 d5 09 be
       0.010947926 0.11182833 -0.040302467 -0.13460454
000200 5d 0f 94 3d 80 79 8e 3d 4b 8d 3e bd 72 39 08 3e
       0.07229493 0.06956768 -0.046521466 0.13303164
000210 65 90 01 3e f3 15 aa 81 dc 14 57 bd 77 69 ef bd
       0.12652738 -6.2479633e-38 -0.052510127 -0.11690038
000220 94 51 4d 3d 10 12 b0 3d 27 be eb 3c 4e 9e 1e 3d
       0.050126627 0.08597195 0.028777195 0.03872519
000230 c7 13 1a 3c 8d 0c fd bd 9f 10 23 bd 12 25 11 3c
       0.009404129 -0.123559095 -0.039810773 0.008858936
000240 4d 95 0a 3d db 3a f6 bd ec a1 30 be 3f ba 4e 3e
       0.03383379 -0.120229445 -0.17249268 0.20188235
000250 01 38 5d 3e 72 23 c4 80 8a 0d 04 be 73 69 0a be
       0.21603395 -1.8012473e-38 -0.1289579 -0.13516788
000260 28 a1 a8 bd 2e 73 fa 3d 22 70 ce 3d 05 8e 8e 3d
       -0.08233863 0.12229 0.100799814 0.06960682
000270 d4 cb 1c bd f8 f8 ac bc dc 8d 66 3d 99 b7 46 be
       -0.038280323 -0.021114811 0.05628763 -0.19405974
000280 0b ae 15 be 4b ee 96 bd 9a 76 cf 3d 24 fa 27 3e
       -0.14617173 -0.073696695 0.10130043 0.16404015
000290 10 16 40 3d 33 07 92 01 62 ad 05 be 69 bf d8 bd
       0.04689604 5.364226e-38 -0.13054422 -0.105833836
0002a0 3e d1 db bd 49 6e fb 3c 94 01 b2 bd c9 e7 cb 3d
       -0.10733269 0.030692236 -0.08691707 0.09956319
0002b0 55 a8 27 be cd 7c e4 bd 66 2e af 3d 7f 91 81 bd
       -0.16372807 -0.11156616 0.08553772 -0.06326579
0002c0 e3 b9 19 3e 0e a8 a7 bc b9 ff ac 3d 12 e7 1d 3e
       0.15012316 -0.020465877 0.08447213 0.15420178
0002d0 10 b3 15 3e 6e 09 81 81 e9 9e ed bd be 8d 38 3d
       0.14619088 -4.7400647e-38 -0.11602575 0.04505705
0002e0 7a 39 13 bd d4 1d 8a bd aa 51 1f be 61 c6 03 be
       -0.035943486 -0.067439705 -0.15558496 -0.12868644
0002f0 28 f0 07 3e 85 19 47 be 3d 49 6e 3d 22 0b cc 3d
       0.13275206 -0.19443329 0.058175314 0.09963061
000300 ad 15 c5 bc d6 55 24 3e 37 a0 83 bb 69 62 35 bd
       -0.024058187 0.16048369 -0.004016902 -0.044283304
000310 53 5b d0 bd ff 63 92 81 33 30 fe bb b3 24 89 bd
       -0.10173669 -5.3775417e-38 -0.0077572106 -0.06696453
000320 9b 9b 84 3d 82 74 c9 bc 24 0e 25 be 40 61 90 bd
       0.06474992 -0.024591688 -0.16118675 -0.07049799
000330 03 d5 1f be fb 9f a3 3d 01 84 ac 3d cc 4e da bd
       -0.15608601 0.07989498 0.08423615 -0.106595606
000340 4f 84 fd 3c a3 76 cd 3a b7 82 6d bc 60 30 e3 bc
       0.030946879 0.0015675615 -0.014496497 -0.027733028
000350 24 95 be 3c da 85 81 01 8d dd 9e b9 c4 76 ad 3c
       0.023264475 4.7579184e-38 -0.00030301177 0.021174796
000360 f4 6a de bd 62 74 d5 bc 65 2f 18 bc 8d 62 3a bd
       -0.108602434 -0.026056472 -0.0092886435 -0.04550414
000370 c2 59 af 3d 9d 21 f2 bd 2b c7 45 3d 6c 63 c9 3c
       0.08562042 -0.118228175 0.048285645 0.02458354
000380 4e ad 04 be 5d 7a 03 3d 62 38 1e be 86 68 2e 3d
       -0.12956735 0.032099117 -0.15451196 0.04258015
000390 f6 d3 d1 bb 90 00 f2 00 2c af 3c 3e ec 41 28 3e
       -0.0064034415 2.2224392e-38 0.18426198 0.16431397
0003a0 5e 30 29 bc e4 34 5a be 1f bc a3 3c 29 56 9b bd
       -0.010326473 -0.21309239 0.019987164 -0.07584793
0003b0 ae 15 ec 3d 5d ab ed bd a8 ab 05 be 4f 6f b6 bd
       0.115275726 -0.116049506 -0.13053763 -0.08907949
0003c0 21 54 37 bd 1c 0d 17 be 82 e3 b9 bd ca 02 b6 3d
       -0.044757966 -0.14751095 -0.09076597 0.08887251
0003d0 09 c5 19 bd 88 6b eb 80 ad 4b 8a bc b4 9e 29 3c
       -0.037541423 -2.1619917e-38 -0.016881788 0.010352779
0003e0 7c e8 4f 3d a8 43 e9 bd e8 33 98 3d 7a 86 62 bd
       0.050758824 -0.113898575 0.07431775 -0.055304028
0003f0 ec b5 06 3e ec c4 95 bc 8a 96 c8 ba 68 d8 ae 3c
       0.13155335 -0.018282376 -0.0015303653 0.021343425

encoder_gru.weight_hh_l0 f4 [192, 64]
000000 5e d5 69 b8 2e d8 04 bc af 3f dc 3b fc a6 88 bd
       -5.5750243e-05 -0.008108182 0.006721459 -0.06672475
000010 89 12 b2 3c 6b dc a4 bd 27 41 17 3d 29 d8 70 3c
       0.021737354 -0.08049854 0.03692737 0.014699974
000020 c2 57 af 3c 21 a6 8a 3d 56 28 8f 3d d1 aa 2f bd
       0.02140415 0.06769968 0.06990115 -0.042887513
000030 bc e0 44 bc a1 c0 9d bd 84 88 38 bd 2d d2 ba 3d
       -0.0120164715 -0.07702757 -0.045052066 0.09122119
000040 bb 96 e8 3c 35 3f ec bd 50 14 29 be 5e f5 64 bd
       0.028392186 -0.11535493 -0.16511655 -0.055898063
000050 aa a1 87 3d 88 c5 20 3e 0e 2e 90 3c 5a 1e 0c bd
       0.06622632 0.15700352 0.017600086 -0.034208633
000060 c6 88 48 3b e2 e8 15 ba 01 44 3c bd 01 c1 60 3d
       0.0030599101 -0.0005718601 -0.04596329 0.054871563
000070 9d c1 05 be 06 73 09 3d fd 64 95 3d a8 4f 57 bd
       -0.13062139 0.03355696 0.072946526 -0.0525662
000080 2e 22 9e 3d 97 0e 4d 3d 5d 6f 7e 3d 11 5e 7b bd
       0.07721363 0.050062742 0.062117923 -0.061369006
000090 51 a1 0a be 33 4e d0 bd 14 4d 1e 3e 05 c6 02 3e
       -0.135381 -0.10171165 0.1545909 0.12770851
0000a0 95 ca c2 bd c8 9d d8 3d 91 d0 5b 3e 99 dc f3 3b
       -0.09511296 0.105769694 0.2146628 0.007442069
0000b0 3d 3e eb 3c 2f d6 65 3d 70 21 db 3d 89 5e 1c be
       0.028716201 0.056112465 0.10699737 -0.15270437
0000c0 b9 fd 16 bd c3 4b 0c 3e 80 ad 15 b9 08 e6 50 3b
       -0.036863063 0.13700776 -0.00014274381 0.003187539
0000d0 94 1b 10 3d aa 86 a1 3d 55 eb 33 3c 93 aa 34 3d
       0.03518255 0.07887013 0.0109814005 0.044107985
0000e0 3c a9 2f 3d aa 83 16 be 26 2a 19 bd b6 9a 7d be
       0.042886004 -0.14698663 -0.03739371 -0.24766049
0000f0 8b 7b b8 3d 88 54 97 3c ad 06 f4 3d d9 db bd bd
       0.09007939 0.018472925 0.11915336 -0.09270448
000100 64 0a 48 3e 08 cc 43 3d 84 83 c0 3d 7b fa a1 ba
       0.19535214 0.047802 0.094000846 -0.0012357974
000110 87 34 38 3d 66 a8 ab bd 48 91 24 bc 98 00 d8 3d
       0.04497197 -0.08381729 -0.010044403 0.10546988
000120 17 d6 4d 3d 84 19 25 3e e3 d7 d7 3d ab 7f 99 bb
       0.050253 0.16123015 0.10539224 -0.0046844087
000130 e2 c1 72 bc 71 41 3b 3d 68 f8 f3 bd d6 0d 09 be
       -0.014816733 0.045716707 -0.11912614 -0.13384184
000140 84 8b 0e 3d f4 2b 76 bd f3 f9 2b bd 01 05 3e bc
       0.03480102 -0.06010051 -0.041986417 -0.011597873
000150 84 a9 7c bc 53 32 ba bd 2d 15 47 3d 50 8e 5b 3d
       -0.015421275 -0.0909163 0.04860418 0.053602517
000160 64 40 d9 3b 1f db 89 3d 99 aa ed 3d 2f 46 0a bd
       0.0066299904 0.06731247 0.116048045 -0.03375834
000170 95 77 07 3d 43 f5 e0 3d 28 c8 09 be 92 6b 9d bd
       0.033073027 0.1098428 -0.1345526 -0.07686533
000180 fe 32 5b be fe 7d 96 bd 27 ca 4e bc 82 21 c2 3d
       -0.2140617 -0.0734825 -0.012621439 0.09479047
000190 5c 49 8a 3c 11 d1 85 bd 7d e1 a8 bd 93 eb fc bd
       0.016880684 -0.06534017 -0.082461335 -0.1234962
0001a0 93 d0 2d be ba 1f 64 3d ca 53 1e 3e 6a b8 b9 3b
       -0.16974096 0.05569432 0.1546165 0.005667736
0001b0 0e 9b 59 3d 75 69 1f 3d f6 99 ce 3d 5b 53 47 be
       0.053126387 0.03891893 0.100879595 -0.19465391
0001c0 f2 b7 89 3d b5 45 0d 3e 24 ce fb bd a7 c4 e8 3d
       0.06724538 0.13796122 -0.122951776 0.113656335
0001d0 2d 26 12 3e 7f ba 11 be 41 f9 75 3c e3 4b 9f 3d
       0.14272375 -0.14231299 0.01501304 0.07778146
0001e0 0e fd f1 ba 83 61 fb bd f0 2e d6 3d 8c 76 df bd
       -0.0018462257 -0.12274458 0.10458171 -0.10911283
0001f0 50 93 39 3d 49 01 fa 3b 9d a6 c4 3d ce c4 32 be
       0.045306504 0.0076295477 0.096020915 -0.17457888
000200 92 31 a3 3d 99 89 c7 bd 0a 38 5f 3c 6b b6 d5 3d
       0.07968439 -0.097430415 0.013624201 0.10435184
000210 88 68 19 bd 84 cc 94 bd 52 e8 9d 3d 8d 35 dc 3d
       -0.037453204 -0.07265571 0.07710327 0.107524015
000220 5d ce 1e be 4c 87 71 3c ae f4 03 3d e9 ec ca 3d
       -0.15508409 0.01474173 0.032215767 0.09908468
000230 79 bf e8 bd 41 61 19 3e 66 36 5e be 2e 47 53 bd
       -0.113646455 0.14978506 -0.21700439 -0.051581554
000240 a8 29 53 39 28 3c 66 bd 5b 81 74 3d 10 6f d9 bd
       0.00020138046 -0.056209713 0.059693675 -0.106168866
000250 8e 83 eb 3d a0 2b 33 bd 52 fa f3 bc 5b 69 f4 3d
       0.114997014 -0.043742776 -0.029782448 0.119341575
000260 4f fa 23 be da c4 8d 3b 4f a3 9f 3b d7 ac 83 bc
       -0.16013454 0.004326445 0.004871763 -0.016073627
000270 b1 a4 cb 3c e1 d6 c0 3d d2 5b 80 bd cb 7d bf bd
       0.024858804 0.09415985 -0.06267513 -0.09350165
000280 b1 8a 0e 3d 32 8d 6f 3d 7c e9 52 be 6b 99 e9 bd
       0.034800235 0.058484264 -0.2059688 -0.11406215
000290 23 f5 39 be f1 51 be 3d aa 0e 0e bc 93 af f7 bd
       -0.18159918 0.09292973 -0.008670488 -0.12094035
0002a0 14 09 07 bd f4 80 c9 3d 1d fe d8 3c b9 91 dd 3c
       -0.032967642 0.09839049 0.026488358 0.027047025
0002b0 53 58 42 bd 4e 67 62 3d 93 b6 c9 bd 2c c6 4d be
       -0.047447514 0.0552743 -0.098492764 -0.20095128
0002c0 46 4f 49 bd 64 4d 10 3e 60 af 80 3c db f7 bb 3d
       -0.049147867 0.14092022 0.015708625 0.09178134
0002d0 b0 b0 e1 3d 54 19 c1 3d b0 b8 a4 bd 64 ff 2a bb
       0.110200286 0.09428659 -0.08043039 -0.0026092166
0002e0 d2 e7 67 bd 15 35 12 be 7e 3e 1a 3e 66 4b c6 3b
       -0.056617565 -0.14278062 0.15062901 0.0060514687
0002f0 68 b2 87 3c b9 c4 be bd 09 d9 86 3d 48 5a 31 3c
       0.016564563 -0.093148656 0.06584365 0.010824747
000300 ad b2 74 3c e7 dd 7d 3d dd fb ed bd 0e f7 44 3c
       0.014935178 0.0619792 -0.11620305 0.012021793
000310 7c ad d8 bb 56 84 8b 3d 51 19 98 bc 1d be e4 bb
       -0.006612478 0.068123505 -0.01856676 -0.006980671
000320 be 39 fe bd 0b 04 d4 3d f6 9b d9 bd 6d 64 51 bc
       -0.12413357 0.10352334 -0.1062545 -0.012780291
000330 32 30 90 bd 0e 46 6c 3d a6 3e db 3d ff 0a 2f bd
       -0.070404425 0.057683997 0.107053086 -0.042735096
000340 69 06 10 bd d3 48 bd bc ed 0a 08 be 77 86 27 bd
       -0.035162363 -0.023106014 -0.13285418 -0.04089972
000350 c7 4f dc bd 9d 04 45 3d 97 b5 a8 3d 59 c0 81 bd
       -0.10757404 0.048100103 0.082377605 -0.063355155
000360 0a 4f 9d 3c b9 fa 9e 3d 55 8a 10 bb 52 a1 9e bc
       0.019202728 0.07762665 -0.0022055109 -0.019364033
000370 a6 11 df bc 60 fe a0 bc ef f8 25 3c 95 d3 00 be
       -0.027230095 -0.019652545 0.010130151 -0.12580712
000380 0d 91 92 3d 76 f1 da bd 59 08 cb 3d df 73 68 bd
       0.071565725 -0.10690586 0.099137016 -0.05675113
000390 83 c7 f0 3c 22 b9 46 bd 66 6a aa 3d 27 b4 6e 3b
       0.02939201 -0.0485164 0.08321075 0.0036423297
0003a0 d8 4d 02 3d a6 74 53 3c 07 db 75 bd d6 8e 0a be
       0.03181252 0.012906229 -0.060023334 -0.1353105
0003b0 33 9c 2b bc 6f 68 be bd c3 c9 a4 bd a1 fa 41 bd
       -0.0104742525 -0.09297263 -0.080462955 -0.04735816
0003c0 8b 23 c5 bd ae 8c 90 3d a7 b1 9b bd ed 37 36 bc
       -0.0962592 0.070580825 -0.07602244 -0.011121732
0003d0 6b be f8 3c e5 6a ee bc a2 22 cd 3d 46 1c 9a bd
       0.030364236 -0.029103706 0.10016371 -0.07524924
0003e0 ff c0 dd bd 34 9a ac bd b0 2b aa 3b 6e 49 c0 3b
       -0.10827827 -0.084278494 0.0051931962 0.0058681285
0003f0 03 24 42 bd 73 5c 2d bd 88 36 e7 3c d4 64 a5 bd
       -0.047397625 -0.042324495 0.028224245 -0.08075872

encoder_gru.bias_ih_l0 f4 [192]
000000 7f d6 ee bd eb b0 30 be 41 bf 7e bd 51 2c 33 3c
       -0.11662006 -0.17254989 -0.062194113 0.010935859
000010 c1 34 2d bd 7e ae 11 be c7 b6 a6 bc de 4b d8 3a
       -0.04228664 -0.1422672 -0.020350827 0.0016502102
000020 32 02 db bd d2 74 9d bd ca ef 1f 3e f5 b1 e8 bd
       -0.10693778 -0.07688297 0.15618816 -0.113620676
000030 a3 48 96 3d 0f 1b 41 3e 42 f1 a6 3d d6 7f 5d 3d
       0.07338073 0.18857978 0.08151485 0.054076992
000040 bf 6f c2 bd f5 b2 eb bc 03 9d 36 bd 32 c5 7b 3a
       -0.0949397 -0.028771857 -0.04458333 0.00096042745
000050 cc 0c 45 3c b8 7b 4f 3e 3d fa 39 3d 75 9f 81 bc
       0.012026977 0.20262039 0.04540466 -0.015823105
000060 68 60 86 3d c1 77 87 3c 29 34 c1 3b 6d cb f0 3d
       0.06561357 0.016536595 0.0058961106 0.117575504
000070 be 03 5c bd e0 48 62 3d 80 d7 88 bd 04 88 2f bd
       -0.053714506 0.05524528 -0.06681728 -0.042854324
000080 80 cc 0f 3c 75 35 0c bd 45 16 17 be f2 f2 61 3d
       0.008776784 -0.034230668 -0.14754589 0.05516333
000090 17 08 f2 3c bc ed a7 3d 47 12 7c 3d 32 c4 0d bc
       0.029544873 0.08199641 0.061540868 -0.008652734
0000a0 b8 8b 8c 3e 6d 1c fa 3d a0 25 05 3b 28 13 98 3e
       0.27450347 0.12212453 0.0020316616 0.29702115
0000b0 ab 1a f3 bb a2 0f c4 3d 0d ff 10 bd 40 3e 58 3e
       -0.0074189506 0.09573294 -0.035399485 0.21117496
0000c0 51 a5 6f 3d da ed 82 3c 9e d7 bc bd 8f d7 42 3e
       0.058507267 0.015982557 -0.09220813 0.19027542
0000d0 bd 73 5c 3c 16 ea 04 3e 13 5f 85 3e b3 8a 53 bd
       0.0134553285 0.12979922 0.26049098 -0.051645946
0000e0 fa 97 60 ba 34 27 cc 3d fb 4a f9 3d f0 db 11 bd
       -0.0008567568 0.09968415 0.121725045 -0.03561014
0000f0 53 9d 06 3e 07 40 74 3d 0a d9 e9 3d 98 ea 36 3e
       0.13145952 0.059631374 0.1141835 0.17862928
000100 8d 38 d0 3e 11 6a b7 3e 34 a9 93 3e f9 08 2c 3e
       0.40668145 0.3582311 0.2884003 0.16800298
000110 ca ea ba 3e 66 ab 08 3f b2 57 4b 3e 97 21 2a 3e
       0.36507255 0.53386533 0.19857672 0.16614376
000120 36 a0 81 3e bb 1c 96 3e 2b 0f a7 3e 09 da 9d 3e
       0.25317544 0.29318795 0.3262876 0.3083041
000130 27 74 a8 3e 5d 6c de 3e 01 e4 5a 3e 06 1f e3 3e
       0.32901117 0.4344205 0.21376039 0.44359607
000140 9f a8 c8 3e 4d 37 6e 3e 4c 84 cb 3e 81 24 c7 3e
       0.39191148 0.23263283 0.39749372 0.38895038
000150 56 7c ae 3e 8d 88 bf 3e 33 b5 92 3e 07 70 f3 3e
       0.34079236 0.37408867 0.2865387 0.47546408
000160 8b 7a 2d 3e 22 e4 6c 3e 80 ac 83 3e 78 74 94 3e
       0.16941278 0.23133901 0.25717545 0.2899511
000170 68 cc a1 3e 43 e2 dd 3e 7a a7 fb 3e 6b 85 a4 3e
       0.31601262 0.43336686 0.49151212 0.3213304
000180 88 27 cd 3e 47 52 d0 3e db 40 b9 3e 46 ce e5 3e
       0.40069222 0.40687773 0.36182293 0.44883937
000190 3f 87 8d 3e 16 64 79 3d 2e ec 99 3e 06 53 c1 3e
       0.27642247 0.060886465 0.30063003 0.37758654
0001a0 ec c8 68 3e fa 85 80 3e de 92 d1 3e 1a 4b e4 3e
       0.22732896 0.25102216 0.40932363 0.44588548
0001b0 c0 22 c6 3e ca c2 52 3e 4b 0a bf 3e 18 7f 96 3e
       0.38698387 0.20582119 0.3731254 0.2939384
0001c0 c6 a5 8f 3e 1c c4 da 3e c7 79 b4 3e fc 03 b6 3e
       0.28056163 0.42727745 0.3524916 0.35549915
0001d0 20 a1 85 3e ca 4e b6 3e 73 8b bf 3e e9 0d 09 3f
       0.2609949 0.35606986 0.3741108 0.5353685
0001e0 61 e0 8b 3e 74 48 b1 3e e1 19 ca 3e 80 be 90 3e
       0.27319625 0.3462559 0.3947287 0.2827034
0001f0 3c 33 eb 3e 20 02 c0 3e 51 6c ed 3e 61 8b 6f 3e
       0.45937526 0.3750162 0.463717 0.23393013
000200 53 36 c9 3d 86 87 c8 3d 50 5d 13 3e 4b ab c4 bd
       0.09824815 0.09791474 0.14391065 -0.09602984
000210 b4 40 54 bc 28 cd d6 3c f4 fe a1 3d 1f 94 66 be
       -0.01295488 0.026220873 0.079099566 -0.22517441
000220 5e 11 d3 bd c0 8a 8d bd 8e de 0b be 37 c7 54 3d
       -0.10306047 -0.0691123 -0.13659117 0.0519478
000230 55 6f c8 bd 84 cd ab bc db 1d 17 bd df 82 99 3d
       -0.0978686 -0.02097202 -0.036893707 0.07495665
000240 b5 ca b5 bd d9 4c a6 3d 59 fb ef 3d c2 69 20 3d
       -0.08876554 0.08120126 0.11717863 0.03916336
000250 6a 01 5c 3e 8d 42 6f 3c 2d 1f e8 3d e1 d7 bf bd
       0.21484914 0.014603269 0.11334071 -0.093673475
000260 d5 7b de bd bc 39 2e 3d f6 91 d0 bc 34 f9 6a bc
       -0.10863463 0.04253553 -0.025460225 -0.014341641
000270 b1 a0 49 3d b2 a3 9f bc cc c1 0d be e3 b7 30 3e
       0.049225513 -0.019487236 -0.13843459 0.17257647
000280 cd d6 77 3e 6a 81 d6 3d b2 67 ed 3d bb b3 7c 3c
       0.24203034 0.104739025 0.11592044 0.01542371
000290 3c 8b 26 be ae e4 7e bd 0a 73 80 3c fc 41 65 3d
       -0.16264051 -0.062229805 0.015679855 0.05597113
0002a0 c8 d1 ef bd 84 40 0a be 5b ae e3 bd 38 b7 7c 3d
       -0.117099345 -0.13501173 -0.1111724 0.06169817
0002b0 d8 73 f4 bd 96 2c 29 bd 01 3e 30 3d 2a a6 48 3d
       -0.11936158 -0.041302286 0.04302788 0.04898659
0002c0 fa b1 f3 bd d2 1f 4e bb 5c a2 96 3d b9 c8 45 be
       -0.11899181 -0.0031452072 0.07355186 -0.19314851
0002d0 1a 16 08 3d f7 bc 78 3d a0 0c aa 3d 6d f5 bd bd
       0.033224203 0.060727086 0.08303189 -0.09275327
0002e0 9e 7d ba bd 42 c1 0c 3e 46 48 1c be de c8 16 bd
       -0.09105991 0.13745597 -0.15261945 -0.036812656
0002f0 a6 8f 5b be 14 5b 4d be 34 75 31 bd 35 87 cf 3d
       -0.21441516 -0.20054275 -0.043324664 0.101332106

encoder_gru.bias_hh_l0 f4 [192]
000000 23 dd 39 3d 30 ca 02 be e3 a2 7a 3c d7 ab 9b 3b
       0.045376908 -0.12772441 0.015297624 0.0047507095
000010 df d9 ac bd 57 9e 8b bd fc e7 92 bd 09 e3 62 3e
       -0.08439993 -0.0681731 -0.07173154 0.2215692
000020 2c af 29 be 78 84 66 3c ab 50 c3 3d 34 08 00 bd
       -0.16570729 0.014069669 0.095368706 -0.031257823
000030 05 12 59 3e 74 9d a7 3d f9 b8 b3 3d 85 78 a5 bb
       0.2119828 0.08184329 0.08775515 -0.0050497674
000040 e1 7d 90 bd 95 5a a2 3d 5c ab 00 3e 32 95 5d be
       -0.070552595 0.079274334 0.12565368 -0.21638945
000050 db ce 9e bc b1 c6 66 3d 98 63 0c 3e a1 c1 1f 3e
       -0.019385746 0.05634183 0.13709867 0.15601207
000060 14 0b 3f 3e d8 9d 5a 3c 95 c7 8a 3b e0 23 0a 3d
       0.1865657 0.013343297 0.004235218 0.03372562
000070 3f 0b 08 bd 6c 47 f1 bd bc 0a 7c bd 62 d8 ec bd
       -0.03321385 -0.11781201 -0.061533675 -0.11564709
000080 1c 03 e8 3d cc 81 e8 3d 58 8a 4a bc e1 c5 d6 3d
       0.11328718 0.11352882 -0.012362085 0.10486961
000090 76 3c 57 bd fe 6c 4d 3e 41 7e 0d 3d 0c 9e 58 bc
       -0.052547894 0.20061108 0.034544233 -0.013221275
0000a0 aa 36 31 3e e8 7b 5d 3d c9 c4 a2 3c 41 ba 8e 3e
       0.17306009 0.054073244 0.019869225 0.27876475
0000b0 f9 60 1c be 89 16 12 3e 87 e5 0c 3e 6b 49 1e 3e
       -0.15271367 0.14266409 0.13759433 0.15457694
0000c0 f5 45 d9 bc e8 e6 a7 bd 42 e5 04 bc e0 d6 1a 3d
       -0.026522616 -0.08198339 -0.0081113 0.037802577
0000d0 d6 c3 c8 bc b7 e3 83 3d 4f 07 e0 3d d0 17 c3 3c
       -0.024507444 0.064399175 0.10938894 0.023815066
0000e0 e1 a0 1a 3c c6 31 c4 3b cb 7a be 3d 85 63 81 3c
       0.009437771 0.005987379 0.09300765 0.015794525
0000f0 6d 85 d7 3b 38 ba 37 3b 1f ba bf bd 58 52 4a bc
       0.006577185 0.002803458 -0.09361672 -0.012348734
000100 b4 cf b2 3e a5 2e dd 3e e9 09 e7 3e d4 5e a4 3e
       0.3492409 0.4319965 0.45124748 0.32103598
000110 39 cd 8d 3e 43 da b5 3e 8f 0a 23 3e f5 1c 19 3e
       0.27695635 0.35518083 0.15921997 0.14952452
000120 3f d0 b4 3e 25 76 d1 3e 14 ac dd 3e b4 b8 ee 3e
       0.3531513 0.4091045 0.43295348 0.46625292
000130 b3 79 ae 3e b5 99 5d 3e db ee 66 3d dc 66 12 3f
       0.34077224 0.21640666 0.056380134 0.571882
000140 98 13 ec 3e d0 86 cb 3e de 58 cb 3e 5d 9c 46 3e
       0.461087 0.3975129 0.39716238 0.19395585
000150 f5 56 b7 3e 1e 45 ba 3e 17 2a b2 3e 59 48 bf 3e
       0.3580853 0.36380857 0.34797737 0.37359884
000160 64 aa 74 3e 2d 10 b8 3e 9b 7d 8d 3e 76 66 e6 3e
       0.23893124 0.3594984 0.27634892 0.45000046
000170 a0 0c 98 3e 4e bf be 3e 2b 81 a4 3e fa bf 8e 3e
       0.29697132 0.3725533 0.32129797 0.27880841
000180 dd ec 92 3e 49 20 b3 3e 0e 7e ac 3e fc 18 bf 3e
       0.28696337 0.3498557 0.33689922 0.3732375
000190 54 e9 e5 3e e9 eb bf 3d 45 7a b0 3e 72 f0 ac 3e
       0.44904578 0.09371168 0.34468284 0.33777195
0001a0 7b 16 a8 3e 77 6c be 3d 4f 13 d5 3e 72 e4 94 3e
       0.3282965 0.09298032 0.41616294 0.2908054
0001b0 83 4d b7 3e 5c 77 2e 3e af 41 a1 3e 2a b5 a3 3e
       0.35801324 0.1703772 0.31495425 0.31974155
0001c0 39 60 9d 3e 56 c5 9f 3e 7f 41 da 3e a5 96 a1 3e
       0.30737475 0.31205243 0.42628095 0.31560245
0001d0 d3 d4 d5 3e 39 b2 00 3f 5a bd b3 3e d1 c9 f2 3e
       0.41763934 0.50271946 0.351054 0.474196
0001e0 7e fc ce 3e 52 e3 c5 3e 4e a8 77 3e 93 df 9d 3e
       0.4042701 0.38649994 0.24185297 0.30834636
0001f0 96 2d df 3e 2e 26 aa 3e 72 af c5 3e eb 88 4f 3e
       0.43589467 0.33232254 0.38610417 0.20267074
000200 48 6d 4f 3d 5c 14 15 3e 28 7f 06 bd cd 4b 0f bc
       0.050641328 0.14558548 -0.03283611 -0.0087461
000210 67 6b b0 bd dc d9 a5 3d 44 44 95 3d 9e 0b 53 be
       -0.08614235 0.08098194 0.07288411 -0.206099
000220 6e c2 34 bc 55 98 4c 3d 02 bf 0c be 40 31 96 3c
       -0.011032684 0.049949963 -0.13744739 0.018334031
000230 bd f6 cf bb da f1 0a 3e 2c 87 4a bd 0b 37 f1 3d
       -0.006346552 0.13568822 -0.049445316 0.11778077
000240 f4 c5 b4 bd 18 70 ce 3d 59 0e b5 3d 61 9e 93 bd
       -0.08826819 0.10079974 0.08840627 -0.07207943
000250 19 52 86 3c 2d 09 5f bd b9 c8 bc 3d 52 21 b1 bd
       0.01639657 -0.05445211 0.09217972 -0.086489335
000260 8e 76 a2 bd 06 04 1e bc 0c b7 0b bd 9d b7 c1 3d
       -0.07932769 -0.009644514 -0.034110114 0.094588496
000270 18 59 6b 3c b9 36 b3 3d 73 19 fa bc 69 3d e2 3d
       0.014364503 0.08750672 -0.030529713 0.11046869
000280 a2 a9 48 3e 30 7a d3 3d 61 76 f3 bc 92 7e 51 be
       0.1959596 0.1032604 -0.029719533 -0.20458439
000290 09 c4 f9 bd 83 d6 02 3e fb d6 e7 3d eb a2 b2 bc
       -0.12195594 0.12777142 0.11320301 -0.021806201
0002a0 88 4b fd bd d8 28 ee bd d5 ee b5 bd e2 8a 77 bd
       -0.12367922 -0.11628884 -0.08883444 -0.060435183
0002b0 4f dd 28 bb 42 18 d4 bd e1 14 c1 3c 13 12 14 bd
       -0.0025766676 -0.10356189 0.023569526 -0.03615005
0002c0 72 51 d7 bd ab e7 d9 3d 15 0c f4 3d a2 04 67 be
       -0.10513581 0.1063989 0.11916367 -0.22560361
0002d0 1e ad 56 bd cd 87 40 3d f2 40 85 3b e2 2f af 3d
       -0.05241119 0.04700451 0.00406658 0.08554055
0002e0 9e c7 2c bd 44 41 e2 3d e3 98 a1 bd 84 03 1e 3d
       -0.042182557 0.11047605 -0.07890489 0.03857757
0002f0 a2 99 3a be 71 84 29 be d0 08 d3 bd c7 94 f0 3d
       -0.18222669 -0.16554429 -0.10304415 0.11747127

enc_to_latent.weight f4 [32, 64]
000000 21 66 3b 3e 5b df b2 3d 41 c9 49 3e 64 e3 14 3e
       0.18300678 0.08734008 0.19705679 0.14539868
000010 61 1e 53 3e 3a b3 ca 3d 6e 3d 4e 3c ae be e8 bd
       0.20617057 0.09897466 0.012587888 -0.11364494
000020 74 be f3 3d a5 a1 d5 3d 30 51 0b 3e 68 07 2a 3b
       0.119015604 0.10431222 0.1360519 0.0025944356
000030 97 37 84 bd 02 28 2c 3c e6 7a c5 3d a5 f4 c0 bd
       -0.064559154 0.0105075855 0.09642582 -0.09421662
000040 93 82 06 3e 10 a0 2e be c8 8f ee bd 1f 8b bd bd
       0.13135748 -0.17053246 -0.11648518 -0.09255051
000050 fe 00 90 bd da 80 57 3e 5d e6 92 3d e6 07 aa bc
       -0.07031439 0.21045247 0.071728446 -0.02075572
000060 84 7d 31 bc 70 13 27 3e 38 fd 20 bd 9d ff 17 3e
       -0.010833148 0.16316009 -0.03930399 0.14843602
000070 87 00 61 be e8 9c 14 3e a5 e4 a4 bd ca f9 37 3d
       -0.21972857 0.1451298 -0.08051423 0.04491595
000080 7e 0a 05 3e c4 aa 6b 3e f1 2a 6f 3d 2f ad ab bc
       0.12992284 0.2301436 0.05839056 -0.020956604
000090 cb c5 95 bd 50 ed 98 bd 69 e0 db bd bf d6 96 bd
       -0.07313117 -0.07467139 -0.10736162 -0.07365178
0000a0 29 3d cd 3d 88 00 80 bd 07 bb 61 3e fc df b8 bc
       0.10021431 -0.06250101 0.22044002 -0.022567742
0000b0 4b d2 aa bc c3 81 38 3e 29 89 07 3e c5 0c af bd
       -0.020852229 0.1801825 0.13235916 -0.085473575
0000c0 31 ff 2d be 50 24 77 bc 86 72 ef bd b6 6d 83 bd
       -0.16991879 -0.015084341 -0.116917655 -0.0641741
0000d0 21 ae a5 bc 8d c3 ab 3d 97 ed 5d be 9d 77 28 bc
       -0.020224633 0.08386908 -0.21672665 -0.010282424
0000e0 88 fe 0d 3d 14 ac 0a be b0 cb fb bc 4e 71 aa bd
       0.034666568 -0.13542205 -0.030736774 -0.083223924
0000f0 51 75 de 3c e2 61 e5 3d 2e db 36 bc 98 77 2f bc
       0.02715555 0.1120031 -0.011160655 -0.010709666
000100 42 1c 01 be 89 2b 71 be e3 53 2d be 61 e0 05 3e
       -0.12608436 -0.23551764 -0.16926531 0.13073875
000110 f7 e9 66 bd ff 0e f4 3d 40 9c 82 3b f8 75 3c 3c
       -0.05637547 0.11916923 0.0039859116 0.011502735
000120 af 4d 35 3e a7 d9 98 3d f3 fd 5d be 70 e8 e1 bd
       0.17705415 0.07463389 -0.21678905 -0.11030662
000130 30 09 6a bd 53 62 f6 bd 29 0e ec bc a7 e2 81 3d
       -0.057137668 -0.120304726 -0.028815346 0.06342059
000140 c2 ed 6d bd ed 6b 0f 3e 20 9d a9 bd c8 d3 83 bd
       -0.05808807 0.14006014 -0.08281922 -0.064368784
000150 ca 76 b3 3d e6 2d f2 bd 86 f5 44 3e 92 91 a7 bc
       0.087628916 -0.11825161 0.19234285 -0.020455156
000160 56 49 5f 3e be 16 55 3d 30 a0 a4 bd 36 70 4c be
       0.21805319 0.05202364 -0.08038366 -0.1996468
000170 7a 58 63 3d 04 89 ad bc 12 aa 2d 3d de 63 7b 3d
       0.0555043 -0.021183498 0.04239852 0.061374538
000180 b5 c0 12 3e 0b ba 33 3e 22 cc 8c 3d 9b f7 bb bd
       0.14331324 0.17551439 0.06874873 -0.09178086
000190 21 65 03 3d b2 76 1a be 8d 7d 31 3e d4 fb 48 3e
       0.032078866 -0.15084341 0.1733305 0.19627315
0001a0 b0 c7 07 be 58 bf 4d bd 46 52 31 bd c9 b8 89 3e
       -0.13259768 -0.050231308 -0.043291353 0.26898792
0001b0 72 01 03 3e 68 d9 0a 3d 2b 3c a3 bd 9a a3 68 3d
       0.1279352 0.03389874 -0.079704605 0.056796648
0001c0 f1 79 e3 bd f5 83 d7 bd ac 90 20 3d 57 19 d2 bd
       -0.11107243 -0.10523216 0.03920047 -0.102587394
0001d0 1b af 75 3d 78 d4 c3 3d 16 79 8c 3d f1 93 98 bc
       0.059981447 0.095620096 0.06859033 -0.018625231
0001e0 44 a3 7b bd 51 8c da bb c9 17 58 3d 2e 19 d2 bc
       -0.061435 -0.006669559 0.05275706 -0.025646772
0001f0 fd a0 17 3e 04 e7 20 be 04 20 3f bd 3d 03 8d bd
       0.14807506 -0.15713125 -0.04666139 -0.06885383
000200 af 5a 96 3c 52 55 ff bd f4 f4 c3 3c cf 32 c3 3c
       0.018353788 -0.124674454 0.023920514 0.023827938
000210 20 aa d2 3d 4d 76 08 3e 33 9d 8c bd 23 96 d3 bd
       0.10286355 0.13326378 -0.06865921 -0.10331371
000220 21 a7 7d 3d 56 f4 7c bb 19 07 dd bd ab b5 4a ba
       0.061926965 -0.0038597784 -0.107923694 -0.0007732759
000230 b7 4d 35 3e 7a 79 dd bd 36 b0 fd bd 7b 78 1e 3e
       0.17705427 -0.108141854 -0.12387125 0.15475647
000240 b0 a9 04 3e 0a df ea bd be dc 33 3c e9 71 3c bd
       0.12955356 -0.114683226 0.010977922 -0.04600707
000250 a6 a0 45 bd a5 8d 44 3d 4f 1b c3 3d 83 6a ae 3d
       -0.04824891 0.047986645 0.09526693 0.08516409
000260 f6 6b 87 3c 64 34 15 3d ae 68 96 3d 5a f2 cb 3d
       0.016530972 0.036426917 0.07344185 0.09958334
000270 31 a2 b5 3d 8d 74 a6 bd dc 69 1c 3d 22 ea 8e bd
       0.08868826 -0.08127699 0.038186893 -0.06978251
000280 c0 ff bb 3d e5 28 a1 3d e7 18 36 3d cb 35 ee bd
       0.0917964 0.07869128 0.044457342 -0.11631354
000290 9e e0 7f 3d 95 be 55 3e f5 63 b3 3d f2 be 01 3e
       0.06247007 0.20873483 0.087593 0.12670496
0002a0 ad 13 56 3c 03 2b b5 3d 54 38 19 bc d8 62 f9 bb
       0.0130662145 0.088460945 -0.009351809 -0.00761066
0002b0 a9 ef 5b 3c 99 cf 45 3e 26 78 02 be af a9 0c be
       0.013423839 0.19317473 -0.12741145 -0.13736604
0002c0 74 ae 13 3e 6f ba c3 bd 3d 35 f4 3d 58 5b 00 be
       0.14422017 -0.09557044 0.11924217 -0.12534845
0002d0 b5 50 ad 3d 45 39 84 3c f6 23 59 3d c0 da 24 be
       0.08462659 0.01614059 0.05301281 -0.16099072
0002e0 be 5f 03 bc 29 eb 7e bc b4 47 14 3d 5a 5e b0 3d
       -0.008018432 -0.015558996 0.036201194 0.08611746
0002f0 82 c6 e5 bd 3e 31 26 3e 4c 43 9e 3d fe ed eb bc
       -0.11219503 0.16229722 0.077276796 -0.028800007
000300 5b f5 90 be ce 6d 8b bd 65 20 55 3c 1b a7 2a bd
       -0.2831219 -0.06808053 0.013008212 -0.04166327
000310 e7 5a 07 bd 17 41 8e 3e af 23 d4 bc b0 81 41 3d
       -0.033045676 0.27784035 -0.025895922 0.04724282
000320 73 9d 8b bd 80 21 9e 3d d7 58 08 3e bd 4c 69 3d
       -0.068171404 0.07721233 0.1331514 0.05695795
000330 0a ad a8 3d 6c a1 07 3e 09 ce 69 3d b4 e5 55 3e
       0.082361296 0.13245171 0.057081256 0.20888406
000340 46 56 22 bd 3f 33 bd bb ab 13 62 be 08 6f 18 3e
       -0.039633058 -0.0057739313 -0.22077815 0.14886105
000350 6d 05 f6 3c c4 16 80 bb d4 d5 75 bd 53 a1 52 be
       0.030031884 -0.003908964 -0.060018376 -0.20569353
000360 95 8f 8e bd 37 c6 b6 3d 21 3b e7 3d 9f 34 42 3e
       -0.0696098 0.08924525 0.11290575 0.18965386
000370 d2 5c 43 bd 92 73 95 bd e6 bf 6c bb b4 60 7a bc
       -0.047695942 -0.07297434 -0.0036125123 -0.015281845
000380 35 5d 82 3d 5f 0a f2 bd 6d b0 31 3e 0b cf 0a be
       0.06365434 -0.118183844 0.17352457 -0.13555543
000390 e8 c7 92 3d 1d fe 08 be 16 a8 56 bd da c1 e1 bc
       0.07167035 -0.13378187 -0.052406393 -0.027558256
0003a0 65 43 d0 3d 55 4c 72 bd 43 37 80 bc 10 b1 36 3e
       0.101691045 -0.059154827 -0.01565135 0.17840981
0003b0 2d 3d a7 3c 2e 3b 0b 3b cd bf 16 3e 99 94 0f 3e
       0.020414913 0.002124499 0.14721604 0.1402153
0003c0 a5 cc f7 3c 9c e2 18 bd cd 76 09 be 96 a3 5b be
       0.03024895 -0.037325487 -0.13424225 -0.21449122
0003d0 38 e6 85 be 13 17 72 bd 38 f8 9e bd 87 50 75 3d
       -0.26152205 -0.059104037 -0.07762188 0.05989125
0003e0 de 42 8f bd 86 0f be bd c8 16 fc bd 5e d6 00 be
       -0.06995176 -0.092803046 -0.12309033 -0.12581775
0003f0 65 fb e9 3d 11 d0 9f bd 7f 7b 03 3e 62 07 16 3e
       0.11424903 -0.078033574 0.12840079 0.14651254

enc_to_latent.bias f4 [32]
000000 0f fa 32 bd 07 cf a0 bd e4 f9 ec bc 7b 7c 1e be
       -0.043695506 -0.07851987 -0.02892775 -0.15477173
000010 08 2a 1e 3e 16 d1 03 3d 85 71 ce bd 1e 89 a2 3d
       0.15445721 0.03218182 -0.10080246 0.07936309
000020 49 cd b3 3d 35 b8 96 bd ac 0c 01 bc a9 86 f6 bd
       0.087793894 -0.073593535 -0.007876556 -0.12037403
000030 79 1a da bc a6 cf c9 3d 92 d7 83 bd 10 71 8e 3d
       -0.026623951 0.09854059 -0.06437601 0.06955159
000040 58 ec c0 bd c6 db 5e bc 45 8d 3c 3e e1 f8 8c 3d
       -0.09420079 -0.013602203 0.18413265 0.068834074
000050 d6 48 25 bd 69 ab 60 3d a1 44 ab 3c 9c 87 a5 bd
       -0.040352665 0.05485097 0.020906748 -0.08082506
000060 af 85 1f 3d c0 ad 8e bd 5f 0f 0a bd d8 97 68 bd
       0.03894585 -0.06966734 -0.033706065 -0.056785434
000070 71 67 64 bb 9c dc a9 bd 40 e6 17 bc eb f9 94 3d
       -0.0034851695 -0.08294031 -0.0092712045 0.072742306

decoder_gru.weight_ih_l0 f4 [192, 32]
000000 f6 c1 92 3e 35 31 0b 3d ba cb 62 bc de 52 fe 3c
       0.28663605 0.033982474 -0.0138425175 0.031045374
000010 d7 4f f7 bd e7 51 08 be ca 55 48 3b 1b bc bd 3d
       -0.12075775 -0.13312493 0.0030568712 0.09264394
000020 30 37 61 be c6 f4 23 3d 68 ce a7 3d 88 55 cd 3c
       -0.21993709 0.040028356 0.08193666 0.025065199
000030 39 52 0a be f9 f9 49 3e 41 c3 ea bd 7a 8c 06 3e
       -0.13507928 0.19724263 -0.11463023 0.13139525
000040 93 d7 b0 bd f8 56 46 bd 37 86 b3 3d 7b 74 6d 3c
       -0.086348675 -0.048422784 0.08765834 0.014493103
000050 e8 48 b0 bc 9f b8 ff bd f5 80 a9 bd 10 b7 e7 3d
       -0.02151914 -0.124863856 -0.0827655 0.11314213
000060 82 86 23 bd a8 3c 4b 3d c3 59 c7 bd 0f 02 42 3e
       -0.0399232 0.049618393 -0.097339176 0.18946098
000070 5e ae f4 3d 48 43 86 3c 0c 48 5a bc 19 8d ae bc
       0.119473204 0.016389504 -0.013322841 -0.021307515
000080 62 f2 04 be ad 83 b0 bc f0 e5 ad bc e6 78 ed bd
       -0.12983087 -0.021547163 -0.021227807 -0.11595325
000090 0e 3d 22 3e d9 93 04 3c c4 19 00 be 3e 9b 20 3d
       0.15843603 0.00809189 -0.12509829 0.03921055
0000a0 7a d2 ed bd ca ec 6b bd 8b 74 81 3d 56 a6 1a bd
       -0.11612411 -0.057598867 0.06321057 -0.037756287
0000b0 ba b5 7e 3c a3 7a 5b 3e 6c 3b 2e 3e 8a 36 d1 3d
       0.015546257 0.21433501 0.17014855 0.102154806
0000c0 69 89 c2 3d 6a c9 87 bc 7d c1 e8 3d 88 6c 82 bc
       0.09498865 -0.016575534 0.1136503 -0.015920892
0000d0 d4 92 59 3d d9 72 21 bd 87 14 f8 3d fb 86 71 bd
       0.05311854 -0.039416168 0.1211329 -0.058966618
0000e0 7c 4f c8 bd f8 e3 c8 3d c7 df e2 3d d9 a3 ab bd
       -0.097807854 0.098091066 0.110778384 -0.08380861
0000f0 af 48 7d 3d 74 2c aa bd e7 08 58 bd a5 e4 3c 3b
       0.061836895 -0.0830926 -0.052742865 0.0028822806
000100 12 5c 63 3e 36 de 12 3e e8 88 13 bd 9f 8d fe 3d
       0.22203091 0.14342579 -0.036019236 0.12429356
000110 f1 f3 12 3e 0f bd c2 3d e8 73 87 3d 6a 38 26 bd
       0.14350869 0.09508716 0.06613904 -0.040581144
000120 69 c5 b9 3d 02 f4 41 3e c8 4b 26 be 06 48 72 bd
       0.09070856 0.18940738 -0.16239846 -0.05915072
000130 c8 30 63 3d 6e 45 e3 3d c7 44 db 3d 24 81 3a be
       0.055466443 0.11097227 0.107064776 -0.18213326
000140 2a 65 c3 bd 5f a5 31 3e 8d ce 63 3a 72 94 f6 bc
       -0.0954078 0.1734824 0.0008690141 -0.030100081
000150 0f 80 b4 bc f2 c0 c0 bc 72 7c 12 be 6f 5c 45 3e
       -0.02203372 -0.023529503 -0.14305285 0.19273542
000160 e9 11 08 bd b6 7d 74 bc 4c aa 62 3e 3f b2 04 3e
       -0.033220205 -0.01492255 0.22135276 0.1295862
000170 f0 72 09 bc 92 60 92 bb ba 5d 32 3e 3e 98 b8 bd
       -0.00838922 -0.0044670785 0.17418566 -0.09013413
000180 3d d2 e2 3d 44 a0 24 3d 56 c6 fa bb 0d 8c 97 bd
       0.11075256 0.040191904 -0.007653038 -0.073997594
000190 30 84 28 3e 2d 72 eb 3d 7f 6f c9 3c c3 c1 9f bd
       0.16456676 0.11496387 0.024589298 -0.07800629
0001a0 6b d4 91 bd d5 fc 27 be bc 7d 57 bd 59 44 c1 3e
       -0.07120594 -0.16405042 -0.052610144 0.37747458
0001b0 46 95 9d 3d 6f 51 da 3d c0 2e 8d 3d bf ce 27 3d
       0.07694487 0.106600635 0.068936825 0.040968653
0001c0 e8 43 b4 3d 9f 2e 17 3c e0 01 60 be 30 04 95 3d
       0.088020146 0.009227424 -0.21875715 0.07276189
0001d0 81 b0 1d bd db dd 3b be ca c8 ae 3d 3b 1d f3 bc
       -0.038498405 -0.1834635 0.08534391 -0.029677024
0001e0 3b ee 9b 3d 5c fb 64 bd 1f f0 f4 3c 05 0f 86 3c
       0.07613798 -0.055903777 0.029899655 0.016364584
0001f0 f0 53 0c 3d 19 38 f9 3d 9b b2 2c 3e db ff e8 3d
       0.034259737 0.12168903 0.16865008 0.113769256
000200 3a dc bc bd d1 29 aa 3d f2 3c bb 3d 00 2f 2f bc
       -0.092216924 0.08308757 0.09142484 -0.010692358
000210 31 cf a4 3e f3 f5 9b bd ff b5 37 be 18 0d 85 bd
       0.32189324 -0.076152705 -0.1794052 -0.06496638
000220 da 31 58 be 11 7e 59 bd 70 8a 9b bc 95 3c 05 3e
       -0.21112767 -0.053098742 -0.01898691 0.13011391
000230 8c 3c 72 bd fd d9 4d 3d d8 95 81 3d d2 da 74 bd
       -0.059139773 0.050256718 0.063274086 -0.059778996
000240 16 df 0d 3e 98 af 0d 3d b1 13 ac 3d 6d d0 89 bd
       0.13854632 0.034591287 0.08402193 -0.06729207
000250 65 cb 1a 3d 07 d6 e8 3d 28 a1 79 bd df 5e 48 3d
       0.03779163 0.113689475 -0.060944706 0.0489186
000260 7e 56 04 be 2d a7 09 3e 9c 70 99 bc 40 58 25 be
       -0.12923619 0.13442679 -0.018730454 -0.16146946
000270 a8 82 78 3d 57 9e 87 bc b4 c4 43 3d 4b 2a 3c 3c
       0.06067148 -0.016554995 0.047795013 0.011484693
000280 1a 43 f4 bc 55 15 9c bd 93 de 3e be b3 f1 89 3d
       -0.029817153 -0.07621256 -0.18639593 0.067355536
000290 2e f0 11 3e 39 2f 3a be 47 e6 d7 bd d4 10 91 bd
       0.14251778 -0.18182077 -0.10541969 -0.07083288
0002a0 05 0d ed bd 41 2f 43 be 04 4e 32 be ba 3c c9 3c
       -0.11574749 -0.19060995 -0.17412573 0.02456509
0002b0 2a 38 af bc 18 ea 51 3e b9 d9 87 3d 7d 4f 7e bd
       -0.021389086 0.20499456 0.06633324 -0.062087525
0002c0 13 d6 8d 3e 42 e9 0d bd 4b 58 57 bd 13 30 83 3c
       0.27702388 -0.03464628 -0.052574437 0.016014135
0002d0 b3 3e a6 3d 53 33 fb 3c 7c 18 3e 3e 76 a2 53 bd
       0.08117428 0.030664122 0.18564028 -0.051668607
0002e0 b8 70 0c 3d 6e 3e ea 3b 98 34 e7 bd fb 78 fa 3c
       0.034287184 0.0071485555 -0.11289328 0.030575266
0002f0 07 54 2c 3d 8c 24 f4 3c 3a 58 da 3d 35 d1 e1 3d
       0.042072322 0.029802583 0.10661359 0.11026231
000300 e3 8f 04 bd e8 f8 47 3d 30 51 aa 3c 01 4b 09 be
       -0.032363784 0.04882136 0.020790666 -0.13407518
000310 eb 9e 93 bd 6c 29 18 bb 13 21 d0 3d 46 53 06 3e
       -0.072080456 -0.0023218049 0.101625584 0.13117704
000320 71 eb 24 3d 63 54 4c 3e 70 47 56 3d 80 08 f8 bc
       0.040263597 0.19954066 0.05231422 -0.03027749
000330 43 dd 04 bd 64 eb 52 bd 89 c1 b1 3d 39 7e 61 3d
       -0.032437574 -0.051494017 0.08679492 0.055052016
000340 c3 09 93 bd f6 d4 c8 3d 04 40 61 3c f9 a9 04 3e
       -0.07179596 0.09806244 0.013748173 0.12955464
000350 c6 45 13 3d f3 41 2a bd ee 1d c3 bd 86 1a 4f bd
       0.035955213 -0.0415668 -0.09527193 -0.050562404
000360 85 5e 3c 3c 50 cb ee 3d 0d b2 df bd ad a0 85 3d
       0.011497145 0.116598725 -0.10922632 0.06524787
000370 cd 26 ea 3d 64 26 01 3d 15 c6 13 be 1c 7e 7d be
       0.11433182 0.031530753 -0.14431031 -0.24755138
000380 b2 69 65 ba 38 b6 05 3e d3 81 35 3e 0d 74 9d bd
       -0.00087514066 0.13057792 0.17725305 -0.076881506
000390 65 c2 70 bd e1 24 1c 3e 10 3f 24 bd a4 d4 86 3c
       -0.05877914 0.15248443 -0.040099204 0.016458817
0003a0 47 3c 99 3d 99 a3 e7 bd f8 5d eb 3d 3a ef f5 3d
       0.074822 -0.11310501 0.114925325 0.120085195
0003b0 f4 bc f2 3d ef 9f 35 be 64 09 5b bc 49 54 8f bd
       0.11852446 -0.17736791 -0.013368938 -0.06998498
0003c0 52 a0 86 bd 48 b2 b8 3d 01 c9 64 3c f4 35 50 3d
       -0.065735474 0.090183794 0.013963939 0.050832704
0003d0 77 d3 ef 3c 68 b9 fb bb a2 b2 2c be 83 22 d5 bd
       0.029275639 -0.0076820143 -0.16865018 -0.10406973
0003e0 78 a1 4c 3d 29 60 49 3e 22 5e d2 bd 7b 64 2b 3e
       0.049958676 0.19665588 -0.10271861 0.16737549
0003f0 9f 1d 1e 3e ec cf 66 bd 7e 51 89 3c 49 82 d5 bc
       0.15440987 -0.056350634 0.016762491 -0.026063101

decoder_gru.weight_hh_l0 f4 [192, 64]
000000 8c 63 2c be d2 56 a6 3c a1 a5 f4 bd 43 7f 69 3d
       -0.16834849 0.020305071 -0.11945654 0.05700613
000010 00 b7 08 be d4 04 9d bd 79 9e 34 3d 4f c6 7a bc
       -0.13351059 -0.076669365 0.044096444 -0.0153060695
000020 02 b7 b4 bc d4 a2 99 3d c5 d8 d7 3c 80 75 33 bd
       -0.022059921 0.0750176 0.026348481 -0.04381323
000030 31 07 25 3c 84 ab 5a be da 45 27 3e ed 52 1a be
       0.010072515 -0.2135449 0.1633524 -0.15070696
000040 44 08 4f bc e2 ad 3d be 71 a4 5f 3d 83 61 ca bc
       -0.012636248 -0.18523362 0.054600183 -0.0247047
000050 98 0b 23 be 68 74 bd bd 83 6a b9 3d 18 2b 20 bd
       -0.15922391 -0.09250718 0.090535186 -0.039103597
000060 e6 60 92 be d9 3b d2 bd 9c 20 c8 bc 75 a9 5a be
       -0.28589553 -0.10265321 -0.024429612 -0.21353705
000070 f1 cb 90 bd 5d 34 8a 3d 6c 4e d3 bb d2 ad e9 3b
       -0.07070149 0.06748269 -0.0064485576 0.0071313167
000080 66 4c a6 3d 5e e9 b4 bd e1 f8 c1 3c f6 df 22 3e
       0.081200406 -0.08833574 0.023678245 0.15905747
000090 cc 70 91 3d 44 e4 d9 bc 02 5c 4c 3e c0 d0 c2 3d
       0.071015924 -0.026598103 0.19956973 0.09512472
0000a0 39 fe 2f be f4 c1 fe bc ee 19 0c 3e 8b 02 c3 3d
       -0.17186822 -0.031098343 0.13681766 0.095219694
0000b0 81 af f5 bd 7a e5 a6 bd cc 52 9f 3d 63 6d 18 3d
       -0.11996365 -0.08149238 0.07779464 0.037213694
0000c0 c8 7f 13 3d 4f 92 de bd 4e d2 38 3d 30 88 ce bd
       0.036010534 -0.1086775 0.045122437 -0.100845695
0000d0 6a af 1f 3e 92 78 22 be fa 09 13 bc 75 eb 54 3e
       0.15594259 -0.15866306 -0.008974547 0.20792945
0000e0 c1 10 8b bd a6 31 ee 3d ad 04 09 be ec 14 d3 bd
       -0.06790305 0.116305634 -0.1338069 -0.10306725
0000f0 da a4 e9 bc b7 ed 24 3e 0c ee f7 3d ce 8e 0d bd
       -0.02852099 0.16106306 0.12105951 -0.034560017
000100 d2 3c 85 3c 51 39 0f be 6e a5 32 be ce 79 15 3d
       0.016264353 -0.13986708 -0.17445919 0.036493115
000110 5f ff 4e bd a4 4c 5a bc 47 65 1a 3d a1 1c 9a be
       -0.05053651 -0.013323937 0.03769424 -0.30099967
000120 b1 8a a3 bd 1c 14 fb 3b 47 6a 7d be a1 19 14 be
       -0.07985438 0.0076623093 -0.24747573 -0.14462902
000130 e3 63 3c 3e df 9b 95 3e 60 4f ca bd 96 27 ff 3c
       0.18397479 0.29220483 -0.09878421 0.031146806
000140 48 46 cc 3d 6b eb 73 bd e8 fc c5 3c ba 8d 40 bd
       0.099743426 -0.059550684 0.024168447 -0.04701016
000150 50 95 0a 3e 79 0c fd bb c3 f6 eb 3d 68 cf a0 3d
       0.1353352 -0.007722434 0.115216754 0.078520596
000160 1e 26 80 3d 09 fd 2d bb e0 7b 9e bd 66 9a 91 3b
       0.0625727 -0.0026548526 -0.07738471 0.0044434546
000170 e6 d2 4f 3d 7a 08 c0 3d 2f 19 fd bd a0 99 9a 3d
       0.050738238 0.09376617 -0.12358319 0.07548833
000180 d8 8e 39 3c 75 64 72 3d 49 58 72 bb 57 b0 b5 3c
       0.0113255605 0.059177835 -0.0036978892 0.022178812
000190 22 59 ff bd 96 c7 9d bd b3 da 72 3d 76 a1 75 be
       -0.124681726 -0.077040836 0.0592906 -0.23987374
0001a0 13 30 ec 3d 25 27 e3 bd 96 30 05 be 18 c0 04 3e
       0.11532607 -0.110914506 -0.13006815 0.12963903
0001b0 e0 8b c6 3b 74 ee a6 bd c3 da 6a 3d c0 2c eb bd
       0.006059155 -0.0815095 0.057337534 -0.11483145
0001c0 67 23 46 be fc e8 6b bd 7d c8 1a 3e 4b 4a fd 3a
       -0.19349442 -0.057595238 0.15115543 0.0019324509
0001d0 da d7 8f bd a1 56 3e 3d f6 e6 3f bd 47 c6 71 be
       -0.07023592 0.046469335 -0.04685112 -0.23610793
0001e0 2b 70 12 3e c1 a7 4c 3e 10 6a 1b 3d ce 21 ae 3d
       0.14300601 0.19985868 0.037942946 0.085025415
0001f0 98 cf 2c 3e e2 75 93 bd 20 4a c0 bc 66 7e aa 3d
       0.16876066 -0.07200219 -0.023472846 0.0832489
000200 1c 9e 69 be 7e 0b 5a 3e a1 6f d6 3d 3b 0a 5a bd
       -0.2281422 0.21293446 0.1047051 -0.053232413
000210 0c 38 84 3d f1 db 82 bd 3e fe 29 3c 85 ab 52 bd
       0.064560026 -0.06389607 0.0103755575 -0.051433105
000220 ab e0 8a be c6 f0 2f be e5 73 26 bc 47 66 42 3e
       -0.27124533 -0.17181692 -0.010159467 0.18984328
000230 80 6f af bd 0d de 5a be c0 30 a5 3b d7 25 18 be
       -0.08566189 -0.21373768 0.005041212 -0.14858185
000240 7b 40 33 be 60 9c 54 3d e6 cd 61 bd 42 23 f4 3d
       -0.17505066 0.051906943 -0.055128 0.119207874
000250 8e 49 77 bd ed f3 c0 bd 17 e6 0c be 95 4c 81 3c
       -0.06037288 -0.09421525 -0.13759647 0.015783587
000260 62 33 15 be 8c d3 39 be 01 13 f0 bd 49 bb 50 bd
       -0.14570382 -0.18147105 -0.11722375 -0.05095986
000270 b4 4b 78 bd 7a 6d 30 3d 6c 0d 68 3b 6c 55 55 3d
       -0.06061907 0.043073155 0.003540839 0.052083418
000280 f7 e4 64 3e 02 06 13 be 45 c9 18 bd 5f 68 69 3d
       0.22352968 -0.1435776 -0.03730132 0.0569843
000290 3a a4 1e 3e 77 07 9b 3c ed 0b 9e 3d 5d 90 8c 3c
       0.15492335 0.018924458 0.077171184 0.017158682
0002a0 e6 e9 a2 3c 13 6a d0 3d fd ce 37 3e e0 30 47 bc
       0.019886922 0.10176482 0.17950054 -0.012157649
0002b0 72 18 e8 bc 58 ee dc bc 03 cf 16 3e d0 2f 53 3d
       -0.028331969 -0.02696912 0.14727406 0.05155927
0002c0 8f 29 92 bd 8e 9c e2 3b 3e 8f 03 be 32 7f 47 bc
       -0.07136833 0.0069156354 -0.12847611 -0.012176322
0002d0 e4 67 50 3e 59 42 2b 3d ab ba 59 bc 64 2f 6e 3e
       0.20352131 0.04181132 -0.013289134 0.23260266
0002e0 e8 42 49 be 2e 17 f9 bc cb 47 90 3d 0f 42 ea bd
       -0.19654429 -0.03040656 0.070449434 -0.11438381
0002f0 cf ca 6a bd 6c 87 9f 3d 5f c4 1c be 7b 13 2c be
       -0.05732232 0.077895015 -0.15309285 -0.16804306
000300 ec 84 0a 3e 70 d0 0f bc 35 63 f1 bd b3 34 b1 3d
       0.13527268 -0.008777723 -0.117865 0.0865263
000310 35 b6 a9 3b 06 63 5c 3d 87 37 13 bd ea 2b d4 3d
       0.0051791915 0.053805374 -0.035941627 0.103599384
000320 e7 14 69 3e 49 26 59 bd cc 09 47 be 37 f5 1e 3e
       0.2276188 -0.053015027 -0.19437331 0.1552323
000330 c9 29 24 3e 39 12 ab 3d e9 71 c6 bd 4c 6e 6f bd
       0.16031565 0.08353085 -0.096896954 -0.058454797
000340 3e 47 33 bb 1d 32 6c bc cd 9f 73 bd b4 d5 2e be
       -0.0027355696 -0.014416245 -0.05947857 -0.17073709
000350 ac 63 cd 3d ca 7b 0c 3e d6 22 2b 3c 9a b3 c2 bd
       0.100287765 0.13719097 0.010445317 -0.095069125
000360 8b 09 45 3e 15 c2 de bc 59 1a 92 3b af 7d 41 be
       0.19241922 -0.027192155 0.0044587073 -0.188956
000370 02 46 0f 3e ac 02 d0 3d 7a d6 4e bd 69 69 dd bd
       0.1399155 0.101567596 -0.05049751 -0.10811121
000380 0b 6f 51 bc ea 4b 61 3c e1 a5 0e be f6 af 8d 3d
       -0.012782822 0.0137510095 -0.13930465 0.069183275
000390 e2 57 14 3e c1 f7 2f 3d ed 16 e4 bd ec 44 b4 3c
       0.1448665 0.042960886 -0.11137185 0.02200552
0003a0 75 25 33 3d bf 2b d4 bc 2d 30 9b bd 17 94 80 3e
       0.043736894 -0.025899766 -0.07577548 0.25112984
0003b0 72 b9 a7 3b d4 52 12 be 0c 99 2a bd 5d ca 43 be
       0.0051185424 -0.14289409 -0.041649863 -0.19120164
0003c0 d6 64 79 bd 43 29 f2 bd b1 f8 7d 3e 48 42 a1 3d
       -0.06088718 -0.11824276 0.248019 0.0787397
0003d0 8e 35 b5 bd e6 3c ac bc 75 49 b7 3d 60 10 0c be
       -0.08848105 -0.021025132 0.08949558 -0.13678122
0003e0 bf f1 8e 3d 1b aa 8b bd af 61 9c 3d 60 87 31 3e
       0.06979703 -0.068195544 0.07635819 0.17336798
0003f0 e2 09 9f 3d 11 37 17 be bc 0a 14 bd d6 30 73 3d
       0.07765557 -0.147671 -0.03614305 0.059372745
