Artifact/model_training/final_models/lstm_autoencoder.pt (torch, 201633 bytes, 12 tensors)

encoder.weight_ih_l0 f4 [256, 16]
-0.06794657 -0.042878468 0.14374642 0.07925216 -0.04096164 -2.6372807e-38 0.06463918 -0.035114136
0.12905794 -0.058021795 -0.08886329 -0.06324915 0.017143343 0.051628437 -0.08962312 0.08497674
-0.06988783 -0.0051584626 -0.09450754 0.00022610217 0.065232016 -3.820321e-39 0.08029426 0.023793364
-0.1076471 -0.04114048 -0.014874342 0.13478467 0.11245415 0.0065581715 -0.09711016 0.03499532
-0.07301853 -0.017030967 -0.036810704 0.18818164 0.14310023 5.958966e-39 0.09364426 -0.040475175
0.050034475 -0.016343676 -0.04299381 -0.058948483 -0.101888455 -0.086770594 -0.14840959 0.036979105
0.040092494 -0.10469251 -0.010020007 0.07896881 0.12550426 4.954259e-38 -0.018447252 0.11010874
0.12959528 -0.084314786 0.013825222 0.0053849984 -0.0073759374 0.014731374 -0.18610583 -0.061978433
-0.108209625 0.051565513 0.08760177 0.040520385 0.020398293 -1.3754545e-38 0.020384187 -0.05389464
-0.08141018 -0.0069380663 -0.0659542 -0.046047233 -0.04072692 0.08509549 -0.07375607 -0.07274099
0.08660654 -0.14862588 0.046698004 -0.013341069 -0.018138122 2.0916676e-38 -0.060257833 0.013894552
-0.022588471 -0.0073055536 -0.049651295 -0.100888565 0.0026287993 -0.028667495 0.052737392 0.03777216
-0.037048634 0.063911535 -0.139869 0.03198037 -0.034921616 3.3054607e-38 -0.16746557 -0.18447942
0.17264144 0.12343696 0.040282223 -0.025312992 -0.12048665 -0.14392327 0.031354 0.042474456
-0.26976293 0.08188235 -0.044092767 0.14222342 0.013690087 -2.788177e-38 0.045387607 -0.022565916
-0.039830644 -0.07074005 0.030540736 0.0049872 0.0035411932 0.07952187 -0.0030270084 -0.07799345
-0.095011435 0.0807136 -0.05702546 -0.12029701 0.03053537 -6.983376e-38 -0.13012488 0.08001547
-0.11265872 -0.001276592 -0.031864256 -0.020231396 0.021083795 -0.015752299 0.12706138 -0.015887437
0.014784407 0.11349525 -0.062021766 0.066093445 -0.11424691 3.171506e-38 -0.1116578 -0.056146313
-0.026525578 -0.04142847 -0.05701485 0.059815668 0.014187488 0.048358712 -0.03527331 -0.10164089
-0.16908814 -0.11546662 0.047138736 -0.047967657 -0.010596494 9.382222e-39 0.047212582 -0.08696053
0.044177637 0.14293903 0.05031066 0.06467489 -0.08645688 -0.045218512 0.055216555 0.0061560627
0.17936228 -0.11045742 -0.21231338 0.10104254 0.14003997 6.3179184e-38 0.15489787 0.15999451
-0.17309022 -0.15555832 -0.099674284 -0.13512829 0.04875912 -0.011759175 0.021092597 0.13118786
-0.00459101 -0.16557145 -0.13541386 0.03752391 0.17628981 -6.469765e-38 0.09750804 0.17684518
-0.111018285 -0.017566046 0.017645923 0.069687165 0.027967118 0.10743982 -0.12791517 0.065997705
-0.22022142 0.06309365 -0.07475733 -0.065856926 0.037138473 -5.278125e-39 -0.07335079 -0.08961362
0.02936431 0.11833619 -0.05051537 -0.03476945 -0.13123782 0.10445634 -0.12856746 -0.0356295
0.124458894 -0.06046848 -0.15365036 0.0032453255 0.0033415365 5.334088e-38 0.026456084 0.11291863
0.05969434 -0.18896392 0.010978577 -0.08711567 0.099193536 -0.033919316 0.089588925 0.07219574
0.11445211 -0.091535434 -0.12097284 0.15699315 0.068066075 1.998151e-39 -0.11401971 -0.0837704
-0.0031840345 -0.109828405 0.092091694 0.07525828 0.09658661 0.056927253 -0.015384444 0.03297881
00000000: 9227 8bbd 55a1 2fbd 4332 133e f54e a23d
00000010: 65c7 27bd 5496 0f81 8c61 843d d7d3 0fbd
00000020: c427 043e 43a8 6dbd f5fd b5bd c588 81bd
00000030: 3270 8c3c 5778 533d 548c b7bd 4908 ae3d
00000040: 5a21 8fbd 5208 a9bb 2b8d c1bd d715 6d39
00000050: 5d98 853d 8099 2980 5171 a43d 4dea c23c
00000060: 1576 dcbd ec82 28bd 83b3 73bc fe04 0a3e
00000070: 5d4e e63d eee5 d63b b1e1 c6bd 4157 0f3d
00000080: bd8a 95bd 8784 8bbc d2c6 16bd b0b2 403e
00000090: de88 123e 2ce3 4000 90c8 bf3d 4cc9 25bd
000000a0: f3f0 4c3d 2ce3 85bc 471a 30bd f773 71bd
000000b0: e5aa d0bd c8b4 b1bd aff8 17be 6777 173d
000000c0: 0738 243d 0769 d6bd f52a 24bc 66ba a13d
000000d0: 3084 003e 25de 8601 b11e 97bc b180 e13d
000000e0: a0b4 043e 3bad acbd 2f83 623c a474 b03b
000000f0: d9b1 f1bb dc5b 713c 8792 3ebe 19dd 7dbd
00000100: 029d ddbd 5c36 533d 8f68 b33d b4f8 253d
00000110: 521a a73c 13c6 9580 bdfc a63c a0c0 5cbd
00000120: 61ba a6bd b858 e3bb ff12 87bd 069c 3cbd
00000130: 45d1 26bd 8b46 ae3d 6c0d 97bd 3af9 94bd
00000140: c55e b13d 6231 18be 6846 3f3d 8094 5abc
00000150: 6696 94bc 2fc3 e300 ebd0 76bd faa5 633c
00000160: 750b b9bc 6d63 efbb 285f 4bbd aa9e cebd
00000170: ef47 2c3b 18d8 eabc 2a03 583d fbb6 1a3d
00000180: 4fc0 17bd 0de4 823d d239 0fbe d9fd 023d
00000190: f809 0fbd 66f7 3301 187c 2bbe 2ce8 3cbe
000001a0: ebc8 303e 84cc fc3d f9fe 243d 315d cfbc
000001b0: b4c1 f6bd 9f60 13be 0d6d 003d b2f9 2d3d
000001c0: 5e1e 8abe efb1 a73d 9e9a 34bd 04a3 113e
000001d0: 634c 603c 84cd 1781 5be8 393d 28dc b8bc
000001e0: 7525 23bd 29e0 90bd 9130 fa3c aa6b a33b
000001f0: 5d13 683b 5ddc a23d c660 46bb 08bb 9fbd
00000200: 5b95 c2bd 2c4d a53d 8793 69bd 475e f6bd
00000210: 5025 fa3c 071b be81 753f 05be 27df a33d
00000220: 9db9 e6bd 5253 a7ba 1884 02bd 50bc a5bc
00000230: ecb7 ac3c f70a 81bc 611c 023e 5f26 82bc
00000240: 4c3a 723c 3370 e83d 890a 7ebd 005c 873d
00000250: 49fa e9bd 58ac 2c01 d8ac e4bd adf9 65bd
00000260: 2b4c d9bc e6b0 29bd 6788 69bd 4601 753d
00000270: a372 683c c913 463d bf7a 10bd 1929 d0bd
00000280: 7125 2dbe c379 ecbd 8c14 413d bc79 44bd
00000290: eb9c 2dbc d129 6600 fb61 413d 5d18 b2bd
000002a0: 9cf3 343d 9c5e 123e 8d12 4e3d 4574 843d
000002b0: 4e10 b1bd 0c37 39bd c12a 623d ccb8 c93b
000002c0: bfaa 373e 8037 e2bd ae68 59be 64ef ce3d
000002d0: a366 0f3e 77fd ab01 8c9d 1e3e 9ad5 233e
000002e0: 903e 31be ae4a 1fbe 0822 ccbd 125f 0abe
000002f0: a5b7 473d 8ea9 40bc 62ca ac3c 1c56 063e
00000300: 2f70 96bb 908b 29be eea9 0abe acb2 193d
00000310: 5185 343e ae1f b081 4cb2 c73d e716 353e
00000320: 8e5d e3bd abe6 8fbc 2f8e 903c 25b8 8e3d
00000330: 4c1b e53c 6909 dc3d 32fc 02be ce29 873d
00000340: b981 61be 3e37 813d 5f1a 99bd ffdf 86bd
00000350: 831e 183d 4479 3980 f038 96bd 5887 b7bd
00000360: 6c8d f03c 3f5a f23d 34e9 4ebd 696a 0ebd
00000370: 3563 06be 35ed d53d 30a7 03be 3df0 11bd
00000380: 4ee4 fe3d ccad 77bd 8556 1dbe 87af 543b
00000390: aefd 5a3b 2b35 9101 6eba d83c e241 e73d
000003a0: 0d82 743d c27f 41be 7ddf 333c b369 b2bd
000003b0: fb25 cb3d fbee 0abd 667a b73d 5cdb 933d
000003c0: de65 ea3d ee76 bbbd 9cc0 f7bd d0c2 203e
000003d0: 3a66 8b3d 08c2 1500 2a83 e9bd d18f abbd
000003e0: 3cab 50bb b7ed e0bd 929a bc3d 0321 9a3d
000003f0: 33cf c53d 8d2c 693d 090f 7cbc ca14 073d

encoder.weight_hh_l0 f4 [256, 64]
-0.053263783 -0.019712124 -0.01918875 -0.01237458 0.0615373 0.03641985 0.05624831 -0.23128895
0.062371038 0.029523397 0.012475756 -0.01203522 0.091852 -0.021179909 0.13938202 -0.0040905736
-0.0369841 -0.08637276 0.11837967 0.029590754 0.031148726 -0.10174014 -0.07259709 -0.11239651
-0.06662273 -0.054221943 -0.056811348 -0.08409834 -0.03414698 -0.011541446 -0.021290042 0.043687966
-0.08577533 0.013939339 -0.10921473 0.115154065 0.14692934 -0.11691163 0.13663368 -0.08915163
0.030962557 0.032595724 -0.10249474 -0.04412011 0.016670521 -0.09327324 0.17480066 0.15860364
-0.05126501 0.035833973 0.03161884 -0.022157772 -0.089833364 -0.038375847 0.007027231 0.050128352
0.14409967 0.07954637 0.051282138 0.0632166 -0.022545509 -0.16218153 0.047157742 -0.0464276
-0.031264506 0.069595 -0.06683512 -0.022643978 -0.040570565 -0.100926355 0.028758569 0.07423977
-0.12891516 0.04814601 -0.034197878 0.10440673 -0.09156705 0.057705544 0.014878569 -0.037279233
0.03009546 0.066390164 0.030410612 -0.088731654 0.06137875 0.014897808 -0.041457947 0.13231884
0.015464257 0.032362293 0.07200963 0.06870012 0.042627808 -0.07251454 0.012919026 -0.06831009
0.036999702 0.03348324 -0.031924974 -0.013275747 0.13003933 -0.013309365 0.16598482 0.14864658
-0.08388067 0.092106506 -0.035585348 -0.040919427 0.02673155 0.18153235 0.0142607475 0.13610199
-0.11321629 0.054541096 0.00036973483 0.023238804 0.099399485 -0.022319071 0.021889511 -0.05670714
0.031103441 -0.054791134 -0.17629692 0.1026121 0.0032301394 -0.07848465 0.013022343 0.05011232
0.080423094 0.14886236 -0.05712146 -0.0011867495 0.019806901 -0.15126014 -0.123299964 -0.074927874
0.059781693 -0.011070688 0.017341914 -0.21426608 0.020084878 -0.06978223 0.054440457 0.025171306
-0.014489423 0.046266258 -0.10614546 0.13806567 0.10905564 -0.023777694 0.00018837734 -0.06209499
-0.07931979 -0.0014762179 -0.05846942 -0.08058203 0.0815577 0.14294446 -0.06365972 0.08177162
-0.015133195 -0.04593625 -0.111419044 -0.12659363 0.1300603 -0.046510477 -0.08066566 0.035102043
-0.06768669 -0.0964676 -0.12887743 -0.20242143 -0.098187566 0.042575277 -0.059222307 0.16028939
-0.11962186 0.019884435 0.17276523 -0.0057010087 0.007028123 -0.15334256 0.03291073 -0.067413405
-0.092056386 -0.029450329 0.16863605 0.03780497 0.024059528 -0.13304141 0.033882637 0.048977584
0.13212574 0.07462249 -0.1063253 0.2642408 -0.06698143 -0.019260341 -0.1881929 0.04688204
-0.16658139 0.078639776 0.01742303 -0.035078116 0.10169129 -0.021992182 0.11108223 -0.032673348
-0.0011285184 0.10976872 -0.05771949 -0.046159778 0.0019679558 0.0020591123 -0.008528028 0.12276981
-0.20054531 -0.007992976 0.046899088 -0.04038493 -0.0022086329 -0.009496081 0.0069914106 -0.04181308
-0.014234088 0.0117500685 0.20686814 -0.17226216 0.18591328 -0.1861276 0.039240345 0.15144278
0.10780355 -0.015902342 -0.01520027 -0.24320844 0.20158848 0.09429627 0.11783969 0.061679162
0.27358177 0.0445303 -0.013035632 -0.18996936 -0.11895249 0.049640507 0.009442496 -0.0145074995
0.039458815 -0.17229934 0.044436175 -0.13746564 0.008958688 -0.039370064 -0.07242849 -0.12808
00000000: 202b 5abd 527b a1bc ba31 9dbc c0be 4abc
00000010: 890e 7c3d fb2c 153d a164 663d 03d7 6cbe
00000020: c678 7f3d 0ddb f13c 1d67 4c3c 5f2f 45bc
00000030: e71c bc3d 7d81 adbc 29ba 0e3e 380a 86bb
00000040: a47c 17bd 34e4 b0bd 0a71 f23d 4f68 f23c
00000050: 9d2b ff3c 225d d0bd c8ad 94bd 2430 e6bd
00000060: 7f71 88bd d417 5ebd 04b3 68bd c03b acbd
00000070: b4dd 0bbd 5518 3dbc 7468 aebc 27f2 323d
00000080: faaa afbd d361 643c f9ab dfbd e5d5 eb3d
00000090: a574 163e 5d6f efbd b3e9 0b3e 2195 b6bd
000000a0: 30a5 fd3c 1883 053d c3e8 d1bd 4ab7 34bd
000000b0: 9e90 883c 0a06 bfbd f2fe 323e fe68 223e
000000c0: 42fb 51bd a5c6 123d c282 013d 3784 b5bc
000000d0: 8efa b7bd fe2f 1dbd b044 e63b 6353 4d3d
000000e0: dd8e 133e 35e9 a23d 380d 523d b477 813d
000000f0: 5cb1 b8bc ea12 26be 7a28 413d de2a 3ebd
00000100: 360f 00bd d387 8e3d dae0 88bd dd7f b9bc
00000110: 522d 26bd 7ab2 cebd 1797 eb3c 050b 983d
00000120: 5602 04be c034 453d 1313 0cbd 32d3 d53d
00000130: 8187 bbbd a65c 6c3d 3ec5 733c 1cb2 18bd
00000140: c18a f63c 91f7 873d ad1f f93c f1b8 b5bd
00000150: 4968 7b3d f015 743c cfcf 29bd 977e 073e
00000160: cc5d 7d3c 538e 043d c979 933d a6b2 8c3d
00000170: 7f9a 2e3d 8182 94bd 53aa 533c 29e6 8bbd
00000180: 008d 173d b925 093d c3c3 02bd 8582 59bc
00000190: 0829 053e 860f 5abc edf7 293e cf36 183e
000001a0: a1c9 abbd 56a2 bc3d f1c1 11bd 219b 27bd
000001b0: 20fc da3c 9ee3 393e e9a5 693c 525e 0b3e
000001c0: f1dd e7bd 7c66 5f3d f8d8 c139 4e5f be3c
000001d0: f591 cb3d 7cd6 b6bc a251 b33c bf45 68bd
000001e0: a5cc fe3c ab6c 60bd 2e87 34be 4b26 d23d
000001f0: bfb0 533b 8fbc a0bd aa5b 553c 9342 4d3d
00000200: ddb4 a43d 606f 183e 31f8 69bd b58c 9bba
00000210: 1542 a23c f0e3 1abe b184 fcbd c973 99bd
00000220: a6dd 743d d561 35bc a110 8e3c 9168 5bbe
00000230: 0b89 a43c fce9 8ebd f5fc 5e3d 0e34 ce3c
00000240: 0b65 6dbc b081 3d3d ca62 d9bd 1661 0d3e
00000250: 9058 df3d 70c9 c2bc 2887 4539 5157 7ebd
00000260: 6a72 a2bd a77d c1ba a17d 6fbd 3108 a5bd
00000270: b907 a73d 0860 123e 0760 82bd e177 a73d
00000280: 38f1 77bc a627 3cbd ab2f e4bd c3a1 01be
00000290: 872e 053e c581 3ebd 0a34 a5bd 29c7 0f3d
000002a0: 529f 8abd ce90 c5bd 72f8 03be 9047 4fbe
000002b0: 9016 c9bd 6a63 2e3d 1793 72bd e722 243e
000002c0: 4efc f4bd afe4 a23c 5ee9 303e 87cf babb
000002d0: 2b4c e63b d505 1dbe 67cd 063d 0a10 8abd
000002e0: 0f88 bcbd d141 f1bc eeae 2c3e 62d9 1a3d
000002f0: 7d18 c53c 023c 08be 85c8 0a3d b89c 483d
00000300: f84b 073e add3 983d 14c1 d9bd 924a 873e
00000310: 8f2d 89bd ddc7 9dbc a4b5 40be 6207 403d
00000320: 5094 2abe e40d a13d beba 8e3c 12ae 0fbd
00000330: 8643 d03d f328 b4bc 157f e33d 7dd4 05bd
00000340: cbea 93ba 6cce e03d 466b 6cbd 0912 3dbd
00000350: d2f8 003b 2cf2 063b 24b9 0bbc bd6e fb3d
00000360: c05b 4dbe f9f4 02bc 4219 403d ab6a 25bd
00000370: b6be 10bb 7395 1bbc 3418 e53b 3144 2bbd
00000380: 1836 69bc 5c83 403c 3ed5 533e 7e65 30be
00000390: 0d60 3e3e 3c98 3ebe 7cba 203d d113 1b3e
000003a0: 1cc8 dc3d a145 82bc 8e0a 79bc a20b 79be
000003b0: 366d 4e3e 671e c13d ef55 f13d 4aa3 7c3d
000003c0: e912 8c3e 6765 363d 6793 55bc 5487 42be
000003d0: 5d9d f3bd d853 4b3d b3b4 1a3c ddb0 6dbc
000003e0: 919f 213d 3d6f 30be b502 363d cbc3 0cbe
000003f0: 76c7 123c 8142 21bd 6355 94bd 6727 03be

encoder.bias_ih_l0 f4 [256]
0.06467278 0.10343534 0.09867518 -0.028980263 0.010808415 -0.013591194 0.15847439 -0.046523362
0.08477548 -0.111785196 -0.13577488 0.08032457 -0.015369838 -0.10153027 -0.033502556 -0.054738518
-0.031070344 -0.027534237 0.048331853 -0.16815989 0.011087603 0.048565116 0.11279502 -0.051759597
0.031602807 0.049214717 -0.018585984 -0.17027652 -0.058221966 -0.111632764 -0.15426706 -0.030119475
0.015025022 0.024702225 -0.10657752 0.10381946 -0.13725713 -0.055089064 -0.006908527 0.1643974
-0.0156948 0.050904896 -0.0022404778 0.09353409 0.019883402 -0.11337773 0.108794324 -0.07109962
-0.058083877 -0.03574102 -0.073002316 -0.06702557 0.011395604 0.09440642 0.08814242 -0.14674744
0.0796617 0.05196452 -0.14421563 -0.046555012 -0.038517434 -0.077485465 0.077649124 -0.10467809
0.08173249 0.17726399 0.17725614 0.069826744 0.100737065 0.18459965 0.15356033 0.23895285
0.1871818 -0.06320213 0.054673158 0.42386207 0.09623205 0.2033107 0.079257175 0.19269839
0.24526517 0.23375969 0.08674238 0.19232936 0.28219536 0.19190048 0.22169784 0.09519038
0.26924422 0.14461063 0.1893745 0.10068665 0.25083023 -0.017473202 0.12602581 0.35730046
0.2595135 0.17209587 0.10940453 0.22568475 -0.0014849032 0.14106505 0.41326332 0.067498535
0.15808345 0.083534546 0.30371565 0.20934233 0.13071392 0.3074163 0.18314451 0.23684773
0.35732147 0.1530683 0.23592503 0.2555419 0.4118711 0.1937164 0.1487585 0.105027944
0.15197237 0.26974353 0.08697668 0.09235271 0.09180758 0.25586048 0.16171455 0.056362145
-0.04779358 -0.07734855 -0.065096 0.070517994 -0.032363996 0.107011974 0.03694173 0.04861064
0.044389915 0.12979339 0.0026855674 0.14330658 -0.0026975996 -0.08732967 0.03339866 0.039433714
0.014330962 -0.08957388 -0.1048727 0.048372887 0.015022113 -0.021344248 0.042259447 0.015502548
0.038379665 0.043322545 0.09242652 0.029403921 -0.014355357 -0.047307078 -0.055752188 -0.10573758
-0.06103858 -0.019423507 -0.0946982 -0.01858224 -0.12033072 0.057543773 -0.05568503 -0.098280326
0.043343205 -0.08739227 0.113678865 -0.11319107 0.08743265 -0.01088469 0.020559639 0.05211033
0.09707846 0.08240055 -0.11742 0.020190718 -0.074387975 0.007040367 -0.028681051 0.026136864
-0.1863472 -0.06781358 -0.019230314 -0.12861535 0.042935558 0.089012064 0.0838473 0.00052093883
0.07223816 -0.040278494 0.12273582 0.0795594 0.13242458 0.10933413 0.11783464 -0.02719775
-0.03468474 0.05606656 -0.11899124 0.050338846 0.04149192 0.020576417 -0.11627391 -0.076725125
0.1003383 0.1589719 0.12168278 0.114638045 0.18609528 0.03659172 -0.033716027 -0.03794734
-0.024442255 0.1478729 -0.07649286 0.0344829 -0.09730767 -0.003674691 0.07808166 0.12371463
-0.061688703 0.11027329 0.09195255 -0.04001153 0.029502653 0.08088524 0.02076815 0.11298325
-0.10511294 0.123170316 0.18978639 0.22750437 -0.09563482 -0.1146118 0.015253439 0.092318855
0.207051 0.1403503 -0.0066539897 0.13138492 0.06334419 0.13468449 -0.115855016 0.005216765
0.0057879016 -0.012030329 0.08150104 -0.10937896 -0.08510605 -0.0056550023 -0.03107413 -0.1372998
00000000: 2a73 843d e8d5 d33d 3616 ca3d 0468 edbc
00000010: c715 313c 99ad 5ebc 1c47 223e 488f 3ebd
00000020: c49e ad3d a3ef e4bd 9208 0bbe 3581 a43d
00000030: c6d1 7bbc 1aef cfbd fa39 09bd 7f35 60bd
00000040: 3c87 febc 7b8f e1bc 9ff7 453d 1b32 2cbe
00000050: c7a8 353c 37ec 463d 1301 e73d df01 54bd
00000060: f271 013d 5f95 493d a241 98bc f85c 2ebe
00000070: 287a 6ebd b89f e4bd 2ff8 1dbe 1ebd f6bc
00000080: 832b 763c 525c ca3c 5145 dabd 4c9f d43d
00000090: 228d 0cbe 12a5 61bd ed60 e2bb cb57 283e
000000a0: 6292 80bc a781 503d fbd4 12bb cd8e bf3d
000000b0: 84e2 a23c 9532 e8bd 8fcf de3d ad9c 91bd
000000c0: 5ce9 6dbd 2d65 12bd 3d82 95bd b444 89bd
000000d0: a1b4 3a3c 2758 c13d 0384 b43d f644 16be
000000e0: ac25 a33d c0d8 543d 43ad 13be 78b0 3ebd
000000f0: 75c4 1dbd b3b0 9ebd 8106 9f3d 7761 d6bd
00000100: 5d63 a73d b184 353e a282 353e 5301 8f3d
00000110: 3c4f ce3d b107 3d3e eb3e 1d3e 0eb0 743e
00000120: 96ac 3f3e 1e70 81bd f6f0 5f3d 7304 d93e
00000130: 4f15 c53d ae30 503e 9651 a23d ba52 453e
00000140: cb26 7b3e b35e 6f3e fda5 b13d fdf1 443e
00000150: e97b 903e 8f81 443e c204 633e 2df3 c23d
00000160: 61da 893e cf14 143e 64eb 413e cd34 ce3d
00000170: d26c 803e f623 8fbc e90c 013e 16f0 b63e
00000180: f4de 843e e639 303e 7b0f e03d e719 673e
00000190: 15a1 c2ba 5b73 103e 4097 d33e ac3c 8a3d
000001a0: a1e0 213e 2914 ab3d 9e80 9b3e d65d 563e
000001b0: dfd9 053e ab65 9d3e 3c8a 3b3e 3688 723e
000001c0: d7f2 b63e f0bd 1c3e 5596 713e 63d6 823e
000001d0: c5e0 d23e 985d 463e 2654 183e e418 d73d
000001e0: a59e 1b3e d31b 8a3e d420 b23d 6b23 bd3d
000001f0: 9d05 bc3d 2500 833e 8098 253e fedb 663d
00000200: 33c3 43bd eb68 9ebd 0d51 85bd bd6b 903d
00000210: 1c90 04bd 1829 db3d 3650 173d f31b 473d
00000220: 33d2 353d 8fe8 043e 5800 303b f6be 123e
00000230: 36ca 30bb e6d9 b2bd 09cd 083d 3f85 213d
00000240: 69cc 6a3c 8372 b7bd 80c7 d6bd a622 463d
00000250: 4f1f 763c 22da aebc 3e18 2d3d 66fe 7d3c
00000260: ff33 1d3d fb72 313d 1e4a bd3d 7ee0 f03c
00000270: bb32 6bbc 11c5 41bd 685c 64bd f28c d8bd
00000280: 9703 7abd 0c1e 9fbc 21f1 c1bd c839 98bc
00000290: f46f f6bd 05b3 6b3d fc15 64bd 3247 c9bd
000002a0: a588 313d b8fa b2bd 77d0 e83d b8d0 e7bd
000002b0: e40f b33d b355 32bc b06c a83c a471 553d
000002c0: 12d1 c63d 9fc1 a83d e679 f0bd 0167 a53c
000002d0: b958 98bd e1b2 e63b 86f4 eabc fa1c d63c
000002e0: cdd1 3ebe d9e1 8abd e488 9dbc beb3 03be
000002f0: 32dd 2f3d f54b b63d 22b8 ab3d 9d8f 083a
00000300: 9af1 933d 10fb 24bd eb5c fb3d 0af0 a23d
00000310: 4f9a 073e 93ea df3d 4a53 f13d d1cd debc
00000320: 9611 0ebd 0da6 653d aeb1 f3bd 1b30 4e3d
00000330: 6ef3 293d e08f a83c 0421 eebd 1022 9dbd
00000340: 2b7e cd3d 88c9 223e d234 f93d 5ac7 ea3d
00000350: c38f 3e3e 33e1 153d d119 0abd ac6e 1bbd
00000360: 203b c8bc fe6b 173e 4aa8 9cbd f13d 0d3d
00000370: 3e49 c7bd 16d3 70bb 47e9 9f3d 195e fd3d
00000380: 4bad 7cbd f6d6 e13d 9e51 bc3d 21e3 23bd
00000390: 8caf f13c 29a7 a53d f821 aa3c c363 e73d
000003a0: 7445 d7bd b840 fc3d 5d57 423e e8f6 683e
000003b0: 30dc c3bd 97b9 eabd 8fe9 793c ab11 bd3d
000003c0: 2d05 543e fdb7 0f3e b609 dabb c589 063e
000003d0: 99ba 813d bbea 093e 6545 edbd 66f1 aa3b
000003e0: 70a8 bd3b db1a 45bc 04ea a63d 1402 e0bd
000003f0: 154c aebd 994d b9bb 2d8f febc 5298 0cbe

encoder.bias_hh_l0 f4 [256]
-0.05506182 -0.006811256 0.046525523 0.10825001 -0.0037927972 0.011800303 0.0887683 -0.07837035
-0.14444679 -0.16058151 -0.007659302 0.04877251 -0.005899342 0.016614696 -0.025149776 -0.1268753
-0.021929754 0.06811508 -0.16146909 -0.012836439 -0.033864517 -0.109820046 0.082269974 0.13298619
0.053033642 0.12331971 -0.10185446 -0.065759234 -0.057492543 -0.0146208545 -0.16620208 0.009073838
-0.035417367 -0.034696817 -0.01603031 -0.0061900755 -0.10944907 -0.14964853 0.0935375 0.04550934
0.12041974 0.18017606 0.13010624 0.24718603 0.16242993 -0.011487566 0.07112837 -0.014560352
-0.042611897 -0.009210708 -0.15012804 -0.07331022 -0.05284444 -0.023153154 -0.03070986 -0.04901875
-0.023887256 -0.11660578 0.06243603 -0.035073552 -0.043798577 -0.1079456 -0.09590926 0.01589245
0.107096165 0.3717024 0.11825084 0.26118085 0.13513595 0.28399757 0.3331109 0.27557883
0.054792445 -0.056614775 0.20674811 0.21500596 0.08831595 0.10260691 0.2266604 0.3399267
0.25992268 0.10211075 0.24995518 0.1444258 0.32424992 -0.0047819666 0.20624813 0.10578508
0.40183768 0.184539 0.1232519 0.025107369 0.19067934 0.09467479 0.334333 0.25755563
0.23957175 0.20088395 0.14383206 0.21035913 0.16718929 0.10390321 0.23901351 0.10920202
0.17088462 0.23521283 0.34848946 0.28175822 0.13199341 0.21131952 0.33499268 0.06313531
0.36662227 0.29940584 0.37177324 0.32127795 0.3448275 0.17838937 0.17368136 0.19229496
0.12245742 0.14692017 0.2552919 0.19280188 0.10822947 0.29643634 0.23443365 0.21373408
0.071808666 -0.057908334 -0.02852054 0.075150825 0.0043253535 0.089444615 0.10644473 0.04098085
-0.11800482 0.13517585 -0.0020445078 -0.0037786544 0.06289937 -0.06017331 0.065731436 -0.080024995
-0.010788839 0.08451413 0.012864737 0.10940108 0.01575134 0.07649451 -0.0024708633 -0.05375737
0.0014341705 0.0107819615 -0.02859546 0.04419496 0.005551252 0.050242048 -0.0139825465 0.07255038
-0.12838274 0.08894721 -0.07054777 0.025081651 0.009945894 -0.0051673073 -0.09606861 0.0024130521
-0.012302438 -0.12037509 -0.09382403 0.053214237 -0.022163281 0.070352904 0.08308607 0.037360568
-0.037433006 -0.071232535 -0.02427566 -0.021594955 0.011069162 0.024178728 0.13038822 0.071291715
-0.03431132 -0.1261185 -0.101912685 -0.00067307707 -0.073848575 -0.0828854 0.02371334 0.03274554
0.110669225 0.085197344 0.008386023 0.079178035 -0.046990223 -0.0020512594 0.09363759 0.08587022
0.06943569 0.023279367 -0.036327876 0.027073774 0.086415485 -0.018370252 0.040651187 0.044937417
0.13962592 0.17471837 -0.072649874 -0.029193357 -0.009646327 -0.05275135 0.044653114 0.085533746
0.19778234 0.07546404 -0.15258527 -0.16804206 -0.02976391 -0.058540173 -0.025094774 0.13233155
0.13007206 0.030229982 0.06052987 0.044001635 -0.09069327 0.06321518 0.15541457 0.13936484
-0.054711554 0.16397387 0.16699032 0.08322243 0.12513497 0.009746166 0.0042373156 -0.004889942
0.20221391 0.06911122 -0.08959586 0.09821611 0.1292271 0.023124164 -0.12891254 0.14445727
0.10922706 0.106757335 0.07460344 0.008756695 0.041120928 -0.05271326 0.15882514 -0.098227665
00000000: 8188 61bd f530 dfbb 8c91 3e3d 2eb2 dd3d
00000010: 9490 78bb 0f56 413c 28cc b53d a280 a0bd
00000020: dce9 13be 7b6f 24be e2fa fabb afc5 473d
00000030: 444f c1bb 8b1b 883c e706 cebc 99eb 01be
00000040: 07a6 b3bc eb7f 8b3d 2758 25be ed4f 52bc
00000050: 85b5 0abd 55e9 e0bd 297d a83d 882d 083e
00000060: ce39 593d 0b8f fc3d 1299 d0bd c7ac 86bd
00000070: 4d7d 6bbd 4f8c 6fbc e130 2abe 6faa 143c
00000080: cd11 11bd 401e 0ebd ff51 83bc 1ed6 cabb
00000090: d626 e0bd 773d 19be 9790 bf3d 0068 3a3d
000000a0: a09e f63d 1380 383e 923a 053e 561e 7d3e
000000b0: 0854 263e 5836 3cbc c0ab 913d 8b8e 6ebc
000000c0: d089 2ebd 82e8 16bc 2abb 19be ab23 96bd
000000d0: 6973 58bd afab bdbc 3f93 fbbc e3c7 48bd
000000e0: 35af c3bc 03cf eebd ecbc 7f3d 49a9 0fbd
000000f0: 2366 33bd 9512 ddbd 136c c4bd e230 823c
00000100: 3c55 db3d c74f be3e 7f2d f23d 7fb9 853e
00000110: 1461 0a3e 2168 913e 838d aa3e ab18 8d3e
00000120: 0b6e 603d e5e4 67bd c7b5 533e 862a 5c3e
00000130: fede b43d 9223 d23d aa19 683e df0a ae3e
00000140: 9614 853e 711f d13d 40f4 7f3e 5be4 133e
00000150: 1604 a63e 0bb2 9cbb b632 533e d9a5 d83d
00000160: abbd cd3e cbf7 3c3e 7e6b fc3d f8ad cd3c
00000170: 7241 433e dbe4 c13d b22d ab3e 55de 833e
00000180: 4c52 753e 86b4 4d3e b648 133e 6268 573e
00000190: ab33 2b3e 35cb d43d f5bf 743e 4fa5 df3d
000001a0: 61fc 2e3e a2db 703e 366d b23e 9d42 903e
000001b0: 4829 073e 2564 583e 2984 ab3e 164d 813d
000001c0: eab5 bb3e b94b 993e 1059 be3e 8b7e a43e
000001d0: 3b8d b03e b4ab 363e 87d9 313e f8e8 443e
000001e0: f5ca fa3d 3e72 163e 9fb5 823e db6d 453e
000001f0: 6aa7 dd3d 81c6 973e 600f 703e 1bdd 5a3e
00000200: 6c10 933d 4a31 6dbd e8a3 e9bc ade8 993d
00000210: b2bb 8d3b bd2e b73d b2ff d93d 89db 273d
00000220: 83ac f1bd 8a6b 0a3e 26fd 05bb 4da3 77bb
00000230: 63d1 803d 4a78 76bd 349e 863d 25e4 a3bd
00000240: acc3 30bc bf15 ad3d 9ec6 523c ac0d e03d
00000250: f408 813c 27a9 9c3d 35ee 21bb b030 5cbd
00000260: c7fa bb3a d3a6 303c 0741 eabc c605 353d
00000270: 47e7 b53b 9bca 4d3d 0d17 65bc 4b95 943d
00000280: c476 03be f429 b63d 597b 90bd 0978 cd3c
00000290: 1af4 223c 8452 a9bb 9fbf c4bd 4c24 1e3b
000002a0: 2a90 49bc 3787 f6bd d026 c0bd 2cf7 593d
000002b0: c58f b5bc 2f15 903d 0829 aa3d 6507 193d
000002c0: 5a53 19bd 5de2 91bd c0dd c6bc e7e7 b0bc
000002d0: 6e5b 353c 7812 c63c 7d84 053e 6401 923d
000002e0: 078a 0cbd 3525 01be 99b7 d0bd 7071 30ba
000002f0: ec3d 97bd d2bf a9bd 7a42 c23c 3020 063d
00000300: 8ca6 e23d f27b ae3d 8865 093c 1828 a23d
00000310: d278 40bd 6c6e 06bb 11c5 bf3d badc af3d
00000320: 4d34 8e3d 5fb4 be3c 8acc 14bd d2c9 dd3c
00000330: 9afa b03d 367d 96bc dc81 263d 4c10 383d
00000340: 19fa 0e3e 5fe9 323e 75c9 94bd e826 efbc
00000350: a10b 1ebc cd11 58bd 2fe6 363d 512c af3d
00000360: 7487 4a3e e48c 9a3d 503f 1cbe 3813 2cbe
00000370: 72d3 f3bc d2c7 6fbd 8e93 cdbc ec81 073e
00000380: 9c31 053e dea4 f73c 2bee 773d 0f3b 343d
00000390: 65bd b9bd f676 813d ff24 1f3e a8b5 0e3e
000003a0: 3919 60bd c4e8 273e 83ff 2a3e 8570 aa3d
000003b0: 6223 003e 62ae 1f3c 2ed9 8a3b ce3b a0bb
000003c0: 2a11 4f3e 2f8a 8d3d 097e b7bd 8725 c93d
000003d0: 1c54 043e e36e bd3c a601 04be 9bec 133e
000003e0: 70b2 df3d 97a3 da3d b0c9 983d 3e78 0f3c
000003f0: 6b6e 283d dce9 57bd 0fa3 223e 962b c9bd

to_latent.weight f4 [32, 64]
-0.054836612 0.21067345 -0.040477958 0.18600987 -0.33512115 -0.23966129 -0.11263168 -0.3121986
0.012037668 0.17079023 0.044698086 -0.13681118 -0.17986426 0.27267608 0.027141105 -0.21839811
0.12486864 0.10796269 0.01043822 0.12660763 -0.08887817 -0.13280392 -0.16819361 0.074697435
-0.03702358 0.08111902 -0.103647195 0.25696883 -0.28566474 0.14819063 -0.17757836 0.21657641
0.016871233 0.16122568 0.0051142313 -0.077612065 0.031459052 -0.30368635 0.32368577 -0.108496435
-0.19840154 -0.21653649 -0.1346875 -0.04240568 0.05010051 0.1628023 -0.0054621184 0.16025622
-0.0673757 0.1578129 -0.06701877 0.12974186 -0.20347832 0.28034905 -0.14818466 -0.13859889
0.18445376 0.15835755 -0.22699103 0.028895443 -0.16197096 -0.2885087 0.13514929 -0.227223
0.03642337 0.2580816 -0.039089534 -0.01975502 0.26844135 -0.05107654 0.070713475 -0.30748796
-0.09867492 0.019089472 -0.25395235 -0.12551074 0.3063104 -0.12953989 0.016131613 0.19936098
0.27222732 0.04173415 0.20769352 0.08027415 0.2950478 -0.19138248 0.19521986 -0.0776212
-0.009274422 -0.14240143 -0.08421936 0.05233471 0.22596759 0.09350689 -0.27331695 -0.12700567
0.19390531 -0.27612495 -0.020509243 -0.11367077 0.053198088 -0.08882436 0.2863419 -0.23636784
0.014476916 -0.058871876 0.19740038 -0.18411663 0.33116654 -0.25057074 -0.26214352 -0.1449086
0.15241681 -0.0259322 -0.11505886 -0.18983142 0.22292668 0.030971803 0.04935081 0.22844592
0.116509 0.15703252 -0.08627629 0.004654697 0.24598038 -0.056126405 -0.1663211 0.1961788
-0.06291367 -0.016051175 -0.06412039 -0.21045104 0.20871891 0.10078153 -0.06978207 0.13973914
-0.20363128 0.095914185 0.16754857 0.076501995 0.03321678 -0.089101374 -0.11677183 -0.21089022
0.035962645 -0.24523191 0.028485904 0.078713045 0.1531517 0.046504136 -0.042475276 -0.19160536
-0.034039233 0.23248632 -0.08239793 0.22716989 -0.16179413 -0.10715432 0.07211203 -0.16786662
-0.03665246 0.3474264 -0.20631556 0.22877419 0.2303974 0.018457295 -0.2341077 -0.07947532
-0.049517594 0.029266108 0.13192935 0.19255933 -0.28683206 -0.007577839 -0.2058056 0.24964868
-0.21424654 0.26352626 0.12543733 0.18019995 0.18249962 0.102256216 0.16298565 -0.24570772
-0.13414109 0.20724745 0.07090348 0.14576522 0.031048281 -0.05054566 0.22072056 -0.026598932
-0.2304968 -0.1657295 0.15696444 -0.011694241 0.05247536 0.19838968 -0.17443709 0.23789562
0.24172585 -0.16670649 0.05553389 -0.07741173 0.10355016 -0.14555599 0.17042485 -0.016484607
-0.05987294 -0.19124196 -0.025906332 -0.012858121 -0.026559792 -0.21186782 0.020121843 -0.23548712
-0.13022085 0.049885962 0.17025407 0.07756896 -0.006395275 0.22597605 -0.113291286 0.15861888
-0.15941566 0.19703296 -0.08548566 0.15774724 -0.18617369 0.19432975 -0.10602469 -0.22711883
0.25277635 -0.0531885 0.03127456 0.18205705 -0.108520135 -0.20943277 0.108166486 0.15505342
-0.08310404 -0.20224984 0.098094024 0.041783698 0.1221398 0.04096864 -0.29463473 -0.02872438
-0.0276779 0.2124923 -0.21261264 0.2059874 -0.01952995 0.32335603 -0.119123 -0.1595185
00000000: 5b9c 60bd c8ba 573e 37cc 25bd 5f79 3e3e
00000010: 0095 abbe c569 75be 70ab e6bd 7fd8 9fbe
00000020: a439 453c a2e3 2e3e 5715 373d 3b18 0cbe
00000030: 562e 38be 339c 8b3e 0657 de3c c1a3 5fbe
00000040: 21bb ff3d 8b1b dd3d 1105 2b3c 6ea5 013e
00000050: c205 b6bd c0fd 07be f23a 2cbe f8fa 983d
00000060: 0aa6 17bd bb21 a63d fb44 d4bd 6b91 833e
00000070: a642 92be 49bf 173e 1ad7 35be 35c6 5d3e
00000080: 8a35 8a3c 5818 253e 4895 a73b 13f3 9ebd
00000090: 35db 003d c77c 9bbe 24ba a53e 6133 debd
000000a0: c629 4bbe bebb 5dbe 85eb 09be 94b1 2dbd
000000b0: 3136 4d3d a5b5 263e 92fb b2bb 351a 243e
000000c0: 45fc 89bd b499 213e 2341 89bd 0ddb 043e
000000d0: 9f5c 50be e989 8f3e b8bd 17be deec 0dbe
000000e0: 72e1 3c3e 7b28 223e 5670 68be 23b6 ec3c
000000f0: b7db 25be 6ab7 93be 9364 0a3e 25ad 68be
00000100: ac30 153d 4523 843e 591c 20bd 48d5 a1bc
00000110: 2571 893e a235 51bd 3ad2 903d 106f 9dbe
00000120: 1416 cabd 8661 9c3c 0b06 82be e385 00be
00000130: b7d4 9c3e 1ba6 04be 7226 843c 4925 4c3e
00000140: 6161 8b3e 6ef1 2a3d 9cad 543e c666 a43d
00000150: 8110 973e c5f9 43be b7e7 473e ddf7 9ebd
00000160: bff3 17bc aed1 11be 337b acbd ec5c 563d
00000170: 0c64 673e 8a80 bf3d 33f0 8bbe c60d 02be
00000180: 1d8f 463e 4060 8dbe 0003 a8bc 38cc e8bd
00000190: 3de6 593d 8ce9 b5bd 689b 923e 690a 72be
000001a0: 9630 6d3c a323 71bd 5323 4a3e 1289 3cbe
000001b0: a98e a93e cf4a 80be ad37 86be ec62 14be
000001c0: 2713 1c3e c46f d4bc fba3 ebbd 2b63 42be
000001d0: e446 643e 94b8 fd3c 1324 4a3d baed 693e
000001e0: 459c ee3d 22cd 203e a0b1 b0bd 6e86 983b
000001f0: 48e2 7b3e cde4 65bd 1450 2abe 18e3 483e
00000200: e2d8 80bd c17d 83bc 8d51 83bd 7a80 57be
00000210: 69ba 553e 8c66 ce3d e7e9 8ebd c717 0f3e
00000220: b884 50be a86e c43d da91 2b3e 14ad 9c3d
00000230: 510e 083d c87a b6bd 1226 efbd 9bf3 57be
00000240: 914d 133d 131e 7bbe 455b e93c 4e34 a13d
00000250: cdd3 1c3e 1f7b 3e3d 8efa 2dbd 3234 44be
00000260: b96c 0bbd e510 6e3e 3fc0 a8bd 399f 683e
00000270: 5cad 25be b973 dbbd 79af 933d 3ae5 2bbe
00000280: e420 16bd e0e1 b13e 6344 53be c843 6a3e
00000290: 4ced 6b3e c133 973c eeb9 6fbe f5c3 a2bd
000002a0: f6d2 4abd 7abf ef3c 7d18 073e 462e 453e
000002b0: a7db 92be 854f f8bb b4be 52be e7a3 7f3e
000002c0: 7263 5bbe eaec 863e a572 003e 5686 383e
000002d0: 2ee1 3a3e b56b d13d b6e5 263e ce9a 7bbe
000002e0: 485c 09be ad38 543e d835 913d 7a43 153e
000002f0: f758 fe3c f708 4fbd 9204 623e 01e6 d9bc
00000300: 5a07 6cbe feb4 29be 49bb 203e 3499 3fbc
00000310: 67f0 563d aa26 4b3e a39f 32be e99a 733e
00000320: fb86 773e 1bb5 2abe 8177 633d 0b8a 9ebd
00000330: 1b12 d43d a10c 15be da83 2e3e ba0a 87bc
00000340: 543d 75bd efd4 43be 8439 d4bc deaa 52bc
00000350: ec93 d9bc e1f3 58be 90d6 a43c 8923 71be
00000360: 9d58 05be 3955 4c3d 1557 2e3e 7adc 9e3d
00000370: 748f d1bb 4466 673e 4305 e8bd fd6c 223e
00000380: dc3d 23be 02c3 493e 1b13 afbd 7e88 213e
00000390: 51a4 3ebe 61fe 463e 7923 d9bd d791 68be
000003a0: e76b 813e 2fdc 59bd c119 003d 2a6d 3a3e
000003b0: ce3f debd 8b75 56be 6486 dd3d 53c6 1e3e
000003c0: 7332 aabd 951a 4fbe 85e5 c83d 6225 2b3d
000003d0: 6e24 fa3d bcce 273d 5dda 96be 644f ebbc
000003e0: c3bc e2bc 9597 593e 21b7 59be 5cee 523e
000003f0: 46fd 9fbc ec8e a53e c2f6 f3bd d158 23be

to_latent.bias f4 [32]
0.023545742 0.04293581 -0.0120270485 -0.0003515841 -0.012288779 0.021854592 -0.015940478 0.012650354
-0.005829203 -0.019988324 0.0076791435 -0.002392818 0.028516402 0.0068172445 -0.00014726698 0.019452559
-0.050749723 0.032803364 9.652661e-05 -0.010450565 -0.0053410777 -0.017345939 -0.0285323 0.010199816
-0.012630181 0.024091043 0.11310789 0.033148274 -0.026791286 0.010804668 -0.026984839 -0.09146917
00000000: 00e3 c03c 76dd 2f3d 190d 45bc d254 b8b9
00000010: e056 49bc 6708 b33c 9b95 82bc 6e43 4f3c
00000020: e602 bfbb 8ebe a3bc 53a1 fb3b d3d0 1cbb
00000030: 3b9b e93c 3163 df3b ae6b 1ab9 f95a 9f3c
00000040: f1de 4fbd d25c 063d 546e ca38 d938 2bbc
00000050: 3504 afbb 1219 8ebc 92bc e9bc 211d 273c
00000060: d2ee 4ebc 945a c53c 1ca5 e73d 7cc6 073d
00000070: 6679 dbbc 1006 313c 4f0f ddbc 3054 bbbd

decoder.weight_ih_l0 f4 [256, 32]
0.04708079 0.14387807 -0.18487862 0.12619427 0.03270597 -0.107611984 -0.1726619 -0.025999442
0.0418104 0.004153156 0.14918424 -0.14894839 0.13363835 0.076539986 -0.1261372 -0.2154391
-0.0926341 -0.21049336 -0.03918493 0.0848349 -0.10002205 -0.03517464 0.12072703 -0.069595054
-0.07384098 -0.12332882 0.31524894 -0.30036172 -0.18319766 -0.056406125 0.014109323 -0.21105523
-0.058307663 0.13591595 -0.007099517 0.1329908 -0.011591192 -0.06351986 -0.12481027 0.0012092978
-0.018709222 0.08871614 -0.022006737 0.07337114 0.14068525 -0.033683985 0.03139876 0.15901782
-0.15723416 -0.066481054 0.037413303 -0.01693518 0.044077456 0.092488505 -0.06626261 -0.05824619
0.089232095 0.009979521 0.03868396 -0.0749555 -0.16629039 -0.13077404 -0.07195922 0.019334469
0.05051443 0.01744585 -0.0018587692 0.06475058 0.1350107 -0.13841036 -0.062169705 0.07899951
-0.041617334 -0.063929625 0.097489916 0.12719275 0.055548016 0.057080116 -0.12527588 -0.023722677
0.055445235 -0.08339813 -0.03412087 0.032615542 0.12578216 -0.031775642 0.14889999 0.07310733
0.014211828 -0.013173604 -0.009373628 -0.14930722 -0.13423398 -0.19981222 0.087472 0.057431567
-0.07412629 -0.021331523 -0.09927316 -0.22031303 0.0681088 -0.0036016211 0.0318135 -0.11939453
0.118981935 0.015513752 0.1891862 -0.034549925 -0.013546599 -0.01289488 0.15345769 0.0043422556
0.043144226 0.09325698 0.009833312 0.11834052 0.1776875 0.19581829 0.1697665 -0.14708482
0.025623105 0.07139634 -0.025540035 -0.004623035 -0.020037385 -0.00427141 0.019779915 0.034345403
0.042347327 -0.048183173 -0.069897406 -0.1190791 0.14846154 -0.039287515 -0.11106368 0.053433456
0.035139393 0.032138485 0.060943305 0.17468838 0.012172345 0.101797774 -0.17490897 0.17377682
-0.18290776 0.01758968 0.05530112 -0.035349544 0.1994035 0.09437667 0.15712482 -0.07442384
-0.064648256 -0.1447958 -0.15340272 -0.14413366 -0.092647605 -0.15913033 -0.14049807 -0.06264666
-0.028678726 -0.18388893 0.093553334 -0.06264931 0.09627504 -0.058250494 -0.03387592 -0.05104311
0.055529427 0.10417703 0.21150216 -0.059146915 0.009649128 0.14215457 -0.04485221 0.057395153
-0.0015342826 -0.11052492 -0.13727088 -0.017837575 -0.08271039 -0.20623797 -0.024743486 -0.12080927
0.020501535 -0.23510556 0.27786782 -0.0032908125 -0.028636303 0.044437855 0.12740852 -0.046615068
-0.13198267 0.07088871 0.08061767 -0.03629599 0.1454535 -0.039521348 -0.10877602 -0.085131384
0.08001803 0.07693846 -0.07122254 0.12397162 0.050750673 0.083203085 0.0754741 0.19908479
-0.07756749 -0.07287476 -0.19729859 0.0691257 -0.017153597 0.08086428 0.13237391 -0.05750167
-0.15141493 -0.1140717 0.119080655 -0.03487591 -0.0797985 -3.631832e-05 -0.029068245 0.023295151
-0.14164232 -0.007843065 -0.006507295 0.1312347 -0.23324138 -0.24724568 0.09790267 0.20466961
-0.08158725 0.2304898 0.37964457 -0.0781037 0.15392584 0.09911297 0.09972981 0.04790324
0.024541985 -0.1692197 -0.3285093 0.07732665 -0.24388696 -0.14846057 -0.16258745 -0.066598825
-0.029217863 -0.2696004 -0.08508887 0.22790216 0.040936146 0.330351 0.17923827 0.17687906
00000000: c9d7 403d c654 133e d250 3dbe 1239 013e
00000010: b2f6 053d ac63 dcbd 48ce 30be c8fc d4bc
00000020: 6241 2b3d 3317 883b c1c3 183e ed85 18be
00000030: 7ed8 083e ffc0 9c3d 1c2a 01be 119c 5cbe
00000040: f2b6 bdbd 928b 57be 6180 20bd ecbd ad3d
00000050: 5cd8 ccbd 4913 10bd bc3f f73d da87 8ebd
00000060: f139 97bd d293 fcbd 4f68 a13e 03c9 99be
00000070: 2b98 3bbe 1c0a 67bd ca2a 673c dd1e 58be
00000080: 04d4 6ebd 8d2d 0b3e 11a3 e8bb be2e 083e
00000090: fce8 3dbc b316 82bd 879c ffbd 4d81 9e3a
000000a0: 1544 99bc cfb0 b53d 7947 b4bc 9c43 963d
000000b0: cb0f 103e 38f8 09bd fc9b 003d 91d5 223e
000000c0: fe01 21be 3827 88bd b13e 193d a6bb 8abc
000000d0: 908a 343d 9d6a bd3d b1b4 87bd 8f93 6ebd
000000e0: 51bf b63d 2581 233c 1273 1e3d 4582 99bd
000000f0: 0748 2abe a1e9 05be 5b5f 93bd 5263 9e3c
00000100: 38e8 4e3d 99ea 8e3c f2a1 f3ba f49b 843d
00000110: 3f40 0a3e 72bb 0dbe a9a5 7ebd 7fca a13d
00000120: f076 2abd 89ed 82bd cba8 c73d d13e 023e
00000130: 5186 633d d7cc 693d 5248 00be 0f56 c2bc
00000140: 8b1a 633d a4cc aabd 53c2 0bbd e097 053d
00000150: 0acd 003e 2d27 02bd 3d79 183e 4cb9 953d
00000160: bad8 683c 1ad6 57bc d893 19bc fee3 18be
00000170: a274 09be 939b 4cbe 8524 b33d 5d3d 6b3d
00000180: 86cf 97bd 72bf aebc ba4f cbbd bd99 61be
00000190: a07c 8b3d 2d09 6cbb df4e 023d 1f85 f4bd
000001a0: cdac f33d 642d 7e3c 07ba 413e 3984 0dbd
000001b0: 8ef2 5dbc 0c45 53bc 0324 1d3e 7b49 8e3b
000001c0: 00b8 303d 84fd be3d e61b 213c 845c f23d
000001d0: b6f3 353e 9784 483e 45d7 2d3e 679d 16be
000001e0: 8ce7 d13c 3f38 923d 5639 d1bc d47c 97bb
000001f0: 7125 a4bc 2ff7 8bbb 7d09 a23c c4ad 0c3d
00000200: 6474 2d3d b85b 45bd 5f26 8fbd bedf f3bd
00000210: 4d06 183e f2eb 20bd 5b75 e3bd 0add 5a3d
00000220: 53ee 0f3d a5a3 033d b09f 793d 83e1 323e
00000230: 846e 473c 5a7b d03d 561b 33be 8df2 313e
00000240: 2c4c 3bbe 3c18 903c 6d83 623d afca 10bd
00000250: 6e30 4c3e 8e48 c13d 54e5 203e 876b 98bd
00000260: 4e66 84bd 5a45 14be 9a15 1dbe c697 13be
00000270: 07be bdbd 10f3 22be bade 0fbe e44c 80bd
00000280: a6ef eabc 614d 3cbe e498 bf3d 484e 80bd
00000290: d92b c53d 1298 6ebd 7ac1 0abd 9512 51bd
000002a0: d372 633d c45a d53d 0694 583e 0944 72bd
000002b0: 6017 1e3c f890 113e f3b6 37bd 2e17 6b3d
000002c0: fb19 c9ba e45a e2bd bd90 0cbe 1b20 92bc
000002d0: 1164 a9bd 0c30 53be dab2 cabc da6a f7bd
000002e0: d6f2 a73c 83bf 70be b144 8e3e acaa 57bb
000002f0: ae96 eabc 7804 363d 6177 023e 71ef 3ebd
00000300: 7726 07be 1a2e 913d e11a a53d 1bab 14bd
00000310: c3f1 143e 23e1 21bd f6c5 debd 5d59 aebd
00000320: 7ee0 a33d e991 9d3d 20dd 91bd d5e4 fd3d
00000330: f0df 4f3d 6166 aa3d 2a92 9a3d e2dc 4b3e
00000340: b4db 9ebd 5d3f 95bd a408 4abe c691 8d3d
00000350: b385 8cbc 2c9c a53d 078d 073e df86 6bbd
00000360: 840c 1bbe 6c9e e9bd 8fe0 f33d 0bda 0ebd
00000370: 656d a3bd 8054 18b8 8720 eebc 79d5 be3c
00000380: af0a 11be 3380 00bc 263b d5bb 6462 063e
00000390: d4d6 6ebe f92d 7dbe 3281 c83d e994 513e
000003a0: 3717 a7bd 8505 6c3e c660 c23e d5f4 9fbd
000003b0: bc9e 1d3e befb ca3d 253f cc3d 3036 443d
000003c0: 460c c93c ee47 2dbe 5f32 a8be 6f5d 9e3d
000003d0: 81bd 79be 0c06 18be 537d 26be f764 88bd
000003e0: 4d5a efbc 1009 8abe 1343 aebd 2f5f 693e
000003f0: a9ac 273d c423 a93e 3d8a 373e c91f 353e

decoder.weight_hh_l0 f4 [256, 64]
-0.0048463913 -0.032444794 0.17781751 0.014446989 0.085505374 0.054539986 -0.07681663 0.16919388
0.021440033 0.15548036 -0.073765054 0.00847519 0.056795564 0.039953813 0.11774665 0.108093694
-0.10265041 -0.12332349 -0.0987259 0.010920461 0.017192073 0.16410917 -0.032303184 0.008291805
0.09006818 -0.035117052 -0.106832445 -0.010817512 -0.024091162 -0.09607211 0.023612643 0.038183343
0.008749661 -0.09983689 -0.06729772 0.09839256 -0.13024256 0.091788985 -0.046519168 0.0026538507
-0.11851215 -0.020281209 0.09375096 -0.05330862 -0.050613586 -0.018569643 0.019413758 -0.057315383
-0.0385983 -0.038675528 0.062330462 0.20645171 -0.24760059 0.06489405 -0.013486342 0.04847248
0.108912945 0.09978008 -0.05743808 0.14618923 -0.02453748 -0.111313604 -0.005682622 -0.049760032
0.007095996 -0.053499546 0.086078875 0.022956673 0.06035402 -0.033150528 0.109248936 -0.030381255
0.07247783 -0.063154265 -0.08354004 -0.2193023 -0.25691876 0.0583358 -0.13833308 -0.20804627
0.12222322 -0.003773411 -0.10414627 0.007706248 0.102212 0.039551716 -0.013941776 0.120473474
-0.036815763 -0.08165559 -0.070498124 0.051989265 0.15648775 0.18076813 -0.15942217 0.00046150683
-0.031067798 -0.05028884 -0.096849404 0.0470032 0.0074836332 0.04570475 -0.03198529 -0.12228468
0.15600905 0.010037387 -0.06835044 -0.007873228 -0.031348083 -0.014290691 -0.19377209 0.007743519
-0.16421233 0.015180142 -0.11405682 -0.11660618 -0.12829131 -0.16169381 0.039864957 0.04511901
0.078670524 0.077262096 0.0032246097 0.05480076 0.12738515 0.13796405 0.002103283 -0.012969309
-0.042026583 -0.0705079 -0.08384757 0.097957395 -0.006168562 0.06471783 -0.059044663 0.0038794593
-0.10870094 -0.021431705 0.077632815 0.008758635 -0.0034126467 -0.038225587 -0.032685526 -0.05114945
0.023009032 0.13394496 -0.029785635 -0.16061407 0.0010963704 0.04964401 -0.017168941 -0.0014439299
-0.032786615 -0.070118695 -0.042742018 -0.10486416 -0.014042023 0.016675591 -0.009013259 0.05312893
-0.09496344 -0.09827714 0.014132598 -0.11172816 0.01982792 0.08258079 0.116620935 0.029396161
-0.030834613 0.19025435 -0.053364713 0.048933227 -0.11219738 0.05496081 -0.16866753 0.01800961
-0.18134324 0.006168859 -0.017887753 0.018719295 -0.14728314 -0.11222511 -0.08838251 -0.045477927
0.063424975 -0.028493125 0.14696619 -0.09084787 -0.037571926 0.13344632 0.048028726 0.08139068
-0.036581997 -0.01322464 -0.0019085791 -0.12218285 0.101827465 -0.03031894 0.21548626 0.1113955
-0.048938736 -0.038988657 -0.04972066 -0.1694721 -0.19599733 0.11647456 -0.054332398 -0.0030220523
-0.029023305 -0.051241186 -0.05334205 0.0078356 0.05018685 0.0023437084 -0.18431461 0.1440261
0.049415827 -0.00036752698 0.08754665 0.08127912 -0.022504717 -0.019860957 -0.05456291 -0.13218619
0.13151564 -0.112045914 0.015142503 -0.088288955 -0.05946121 -0.09029814 -0.00862295 -0.108908795
-0.10872204 -0.009821535 0.035858706 0.09546838 0.031159375 -0.012573317 0.09574306 0.049853805
-0.03071421 0.019782133 0.030750008 0.21430765 -0.09661714 -0.03228113 0.12706295 -0.22181694
0.10779729 0.13441311 0.13231778 0.005180891 -0.112115495 -0.018085746 -0.041846234 0.011371074
00000000: 7ace 9ebb d5e4 04bd cb15 363e 10b3 6c3c
00000010: 711d af3d 5265 5f3d 0a52 9dbd 2941 2d3e
00000020: 02a3 af3c 3e36 1f3e 2212 97bd 86db 0a3c
00000030: 77a2 683d 9ca6 233d 2825 f13d 3a60 dd3d
00000040: 613a d2bd 0791 fcbd ce30 cabd bceb 323c
00000050: 64d6 8c3c 3c0c 283e 5850 04bd 5ada 073c
00000060: aa75 b83d e6d6 0fbd f8ca dabd ef3b 31bc
00000070: d45a c5bc 74c1 c4bd 4d6f c13c 2366 1c3d
00000080: bd5a 0f3c 4977 ccbd 63d3 89bd 0a82 c93d
00000090: 4e5e 05be ddfb bb3d e28a 3ebd 3aec 2d3b
000000a0: 80b6 f2bd c724 a6bc 8100 c03d 245a 5abd
000000b0: 3150 4fbd 5d1f 98bc 9a09 9f3c 89c3 6abd
000000c0: 4019 1ebd 3b6a 1ebd 3a4e 7f3d 1468 533e
000000d0: 028b 7dbe 2ce7 843d d1f5 5cbc 148b 463d
000000e0: c00d df3d 8059 cc3d 3144 6bbd a1b2 153e
000000f0: d302 c9bc 63f8 e3bd 4a35 babb 2dd1 4bbd
00000100: 8785 e83b 5722 5bbd 1f4a b03d a20f bc3c
00000110: c735 773d d9c8 07bd e8bd df3d 1ce2 f8bc
00000120: 426f 943d 0657 81bd 0a17 abbd c890 60be
00000130: db8a 83be 85f1 6e3d 30a7 0dbe 150a 55be
00000140: 2b50 fa3d 554b 77bb a44a d5bd b284 fc3b
00000150: 8654 d13d fb00 223d 0c6c 64bc ccba f63d
00000160: 20cc 16bd 0c3b a7bd 5261 90bd b2f2 543d
00000170: 533e 203e 481b 393e 913f 23be 66f6 f139
00000180: e581 febc acfb 4dbd fb58 c6bd 6d86 403d
00000190: 4439 f53b e734 3b3d 0203 03bd 6470 fabd
000001a0: d6c0 1f3e da73 243c 51fb 8bbd b6fe 00bc
000001b0: d966 00bd 8123 6abc 316c 46be 58bd fd3b
000001c0: 4727 28be 21b6 783c 9f96 e9bd 39cf eebd
000001d0: cc5e 03be 1093 25be 7049 233d b6ce 383d
000001e0: 031e a13d 973b 9e3d f953 533b c376 603d
000001f0: 4171 023e 7346 0d3e 3cd7 093b 3a7d 54bc
00000200: 1124 2cbd 7266 90bd 46b8 abbd e39d c83d
00000210: a621 cabb c88a 843d d1d8 71bd 873e 7e3b
00000220: 999e debd 8b91 afbc f4fd 9e3d 6180 0f3c
00000230: b6a6 5fbb 6f92 1cbd 42e1 05bd 1682 51bd
00000240: 707d bc3c de28 093e 0101 f4bc 0478 24be
00000250: 16b4 8f3a 8457 4b3d e1a5 8cbc 3f42 bdba
00000260: 424b 06bd 649a 8fbd 4112 2fbd 05c3 d6bd
00000270: 8310 66bc 409b 883c 59ac 13bc b99d 593d
00000280: 317c c2bd 8645 c9bd 6a8c 673c bcd1 e4bd
00000290: 296e a23c 1e20 a93d f5d6 ee3d 38d0 f03c
000002a0: df98 fcbc 09d2 423e f594 5abd 356e 483d
000002b0: bdc7 e5bd 961e 613d 2eb7 2cbe e488 933c
000002c0: 0bb2 39be 2424 ca3b 5689 92bc 3559 993c
000002d0: 64d1 16be 47d6 e5bd e401 b5bd 1047 3abd
000002e0: f4e4 813d 6a6a e9bc 4e7e 163e 730e babd
000002f0: 05e5 19bd 27a6 083e c5b9 443d 28b0 a63d
00000300: 01d7 15bd 29ac 58bc 4a29 faba 013b fabd
00000310: eb8a d03d 6d5f f8bc 6ea8 5c3e 5323 e43d
00000320: fc73 48bd 92b2 1fbd e4a7 4bbd 188a 2dbe
00000330: 86b3 48be 378a ee3d a68b 5ebd a00d 46bb
00000340: 48c2 edbc 47e2 51bd 327d 5abd e360 003c
00000350: ba90 4d3d e798 193b f8bc 3cbe 947b 133e
00000360: 4068 4a3d a3b0 c0b9 a84b b33d ab75 a63d
00000370: d05b b8bc 72b3 a2bc 5c7d 5fbd d15b 07be
00000380: 09ac 063e 5478 e5bd 4318 783c d7d0 b4bd
00000390: 998d 73bd 3bee b8bd 4647 0dbc 930b dfbd
000003a0: a9a9 debd 81ea 20bc 94e0 123d ed84 c33d
000003b0: f241 ff3c 5000 4ebc f014 c43d 8133 4c3d
000003c0: 5e9c fbbc 240e a23c 71e7 fb3c 7773 5b3e
000003d0: 35df c5bd 3839 04bd ca1c 023e fb23 63be
000003e0: d3c4 dc3d 97a3 093e 507e 073e 77c4 a93b
000003f0: cf9c e5bd 8f28 94bc f566 2bbd be4d 3a3c
